inverse_trainer/logs/model_logs/state_evaluators/best_state_evaluator_02.10-00:41.pth (torch, 71746 bytes, 5 tensors)

sequential.0.weight f4 [128, 3]
000000 cc e6 bc be 19 e4 d5 3c 20 d3 85 bf b2 27 61 bd
       -0.36894834 0.026109742 -1.0455055 -0.054969497
000010 89 ce 4d bd 2f 80 68 bf 76 9e a7 be b6 99 95 3e
       -0.050245795 -0.9082059 -0.32738084 0.29218835
000020 2f a9 fc bd 91 fa da 3e 94 c4 93 bf fb 2e e0 bf
       -0.12336957 0.42769292 -1.1544366 -1.7514337
000030 82 07 69 3c a0 2d 0c 3e 35 5f d0 3d 47 6a 37 3e
       0.014222981 0.1368928 0.10174409 0.17911635
000040 17 7e ac bd ec ba 7b bf e9 cd 92 3e 60 b8 4f 3e
       -0.08422487 -0.98332095 0.28672722 0.20285177
000050 bf c4 12 3f a5 7d ef 3c a5 2c 45 3f 7e 70 0b c0
       0.5733146 0.029234717 0.7702125 -2.178741
000060 9b 19 ca 3e a9 9c 5b 3f 29 bf 2d 40 f7 37 08 bf
       0.3947266 0.8578592 2.7147925 -0.53210396
000070 9c ce 97 3e 16 d1 9b 3e cc ce 28 3d ae 20 6f 3e
       0.29649818 0.30432957 0.041212842 0.2335231
000080 c3 f6 36 c0 b8 48 8d 3f 93 1b 4c 3f f2 28 7d bf
       -2.8588111 1.1037817 0.79729575 -0.988906
000090 c0 2f 9f 3d 05 71 40 be ac 06 34 bf 6b 0b f3 3c
       0.077727795 -0.18793114 -0.7032268 0.02966853
0000a0 70 1d c2 3e 30 25 cc 40 75 5e 89 3f fd 63 27 bf
       0.37913084 6.3795395 1.0731951 -0.65386945
0000b0 8e 57 17 bf c2 68 74 3e e5 08 df 3d 9b 34 00 c0
       -0.5911797 0.23868087 0.10890368 -2.0032108
0000c0 74 69 a6 3d fa c1 46 3f e9 37 8d 3e 91 51 a8 3f
       0.08125582 0.77639735 0.2758172 1.3149892
0000d0 f6 81 13 3d f2 e3 2b 40 ff b9 ba 3e 2c 5f 7e 3e
       0.036012612 2.6857877 0.3647003 0.24840993
0000e0 e8 7f 08 3e 7f 4b 3d bd ad 08 95 3f b2 25 58 c0
       0.13330042 -0.046214577 1.1643273 -3.3773007
0000f0 4c ed 91 3e 25 19 cc 3e 1e ce 50 3e df 98 c8 bd
       0.28501356 0.39862934 0.20391127 -0.09794783
000100 c9 34 86 bf bd 0a 1a bd 31 63 00 3e 6a 04 d2 3e
       -1.0484859 -0.037607897 0.12537839 0.41018993
000110 70 fd 21 be d9 a0 13 3e 71 53 d2 3d a8 9b 18 c0
       -0.15819335 0.14416827 0.102698214 -2.3845005
000120 1a d4 87 bf 1e 37 67 be d9 5d 7c 40 59 dd 1f 3e
       -1.0611603 -0.2257962 3.943228 0.15611781
000130 73 ba 4d be 4d 19 f9 3e 03 78 91 be a4 e5 76 bf
       -0.20090656 0.48652115 -0.28411874 -0.96444154
000140 e0 08 ab 3f b0 5c 55 3c 07 8a 2d 3f 3d 99 b1 bf
       1.3362083 0.013022587 0.6778874 -1.387489
000150 69 06 07 3e e9 95 03 3e 1b 6c c0 bf f7 98 5d 3f
       0.13186039 0.12850155 -1.5032991 0.8656153
000160 bc 32 66 3f 26 55 1f c0 72 ed b7 3d f8 72 e9 bd
       0.89921165 -2.489572 0.08980836 -0.11398882
000170 e9 cb 32 be 60 d5 0a be 10 40 92 be 56 e9 a4 3e
       -0.17460598 -0.13557959 -0.285645 0.3220927
000180 ca 54 4f 3f 36 45 4f 3f 56 91 90 3e 22 f5 1d be
       0.8098875 0.8096498 0.28235883 -0.15425542
000190 d4 e2 2e bd f0 21 b3 bf 20 4c 0d 3e 27 68 97 3f
       -0.04269679 -1.3994732 0.1379857 1.182866
0001a0 cc c5 fe 3f 3e 6b f9 3c 91 c0 28 be 00 4d ff bf
       1.9904113 0.030446645 -0.16479708 -1.9945374
0001b0 3c 20 a5 3d 32 52 2e be db b1 32 c0 86 7c 58 bd
       0.08062789 -0.17023543 -2.7921054 -0.05285313
0001c0 11 39 08 3d 06 3e 02 bf 98 7c a7 bd 71 05 0b 3e
       0.033257548 -0.5087589 -0.08178061 0.13576294
0001d0 ad 56 bf 3e 7b c4 b9 3f df f2 1e 3e de 23 db be
       0.37370816 1.4513086 0.15522335 -0.42800802
0001e0 ab 8f 34 3e 70 c1 37 bd c7 7a 7e bf 81 52 78 bf
       0.1763293 -0.04486221 -0.99406093 -0.9700089
0001f0 c1 78 43 bf 8f e4 a2 3e 9a f6 17 bf db 94 30 3f
       -0.7635613 0.31815 -0.5936066 0.68977135
000200 8a fc 04 40 4a eb 00 3e 0a c8 9d bd 8e e4 12 3d
       2.0779138 0.12589756 -0.0770417 0.035862498
000210 b3 b6 a0 be ba ac 9e 3e 02 20 44 be b7 86 6b 3f
       -0.31389388 0.30991155 -0.19152835 0.92002434
000220 a8 68 09 3f 69 99 c6 3e c1 c8 47 be 0c 90 44 bf
       0.5367532 0.38788918 -0.19510175 -0.767823
000230 d6 cd a0 3f ea 41 5e 3d 01 ff ae 3e 56 ea ec c0
       1.2562816 0.05426208 0.34178928 -7.4036055
000240 2c b8 bf be a2 11 dc 3e 38 07 2e 40 ac c3 02 bf
       -0.374452 0.42982203 2.7191906 -0.5107982
000250 5c a4 18 3f a1 9b c7 3f 06 8c c9 3e 10 41 71 3f
       0.5962579 1.5594369 0.39364642 0.942399
000260 51 71 6a 3f 3a f6 37 3f aa 5d 81 3f dc ab ec 3f
       0.9157916 0.71860087 1.0106709 1.8489947
000270 35 df 64 be 68 f1 3e bf 4c 9c 53 3f 7e 06 92 3e
       -0.22350772 -0.74587107 0.82660365 0.28520578
000280 6e 57 8c 3f 2e ab 00 40 5c a6 3f 3d c4 1d f8 ba
       1.0964181 2.010448 0.046789512 -0.0018929769
000290 d0 46 d2 3e e0 ed 28 3e 32 57 76 3f 93 53 b3 bf
       0.4106965 0.16496992 0.962268 -1.400988
0002a0 b8 7d 97 bf 25 04 7b 3f e9 76 db 3f ac 4e 64 3d
       -1.1835241 0.980532 1.7145663 0.05573909
0002b0 47 5a 23 be b8 f4 c9 bf 4e 78 bf bd f9 57 30 be
       -0.15952407 -1.5777807 -0.09349118 -0.17221059
0002c0 3e c1 ff bf 52 ff c2 3b e6 27 f1 bd 2d ce 6d 3e
       -1.9980848 0.0059508467 -0.11775188 0.23223181
0002d0 fd 4d 85 be 3b c8 5b bf 55 f0 db 3e 95 d4 07 3e
       -0.26036063 -0.858524 0.42956796 0.13264687
0002e0 69 72 1f bf 0f b0 0b bf 25 ed 7a 3c c9 1e ed 3d
       -0.6228395 -0.5456552 0.015315329 0.115781374
0002f0 42 ed db 3e 51 10 22 3d a0 eb 5b 3e f8 23 cf 3e
       0.4295445 0.03956634 0.21476603 0.4045713
000300 32 84 ff be 44 20 c8 3e 1a 99 c4 3e 41 78 70 bf
       -0.49905545 0.39087117 0.38398057 -0.9393349
000310 0c 46 46 3c 10 28 52 3f e9 9e 2f 3f cd 8c 48 3f
       0.012101661 0.8209238 0.6860185 0.78339845
000320 1f bc 97 bf d7 ed d2 3d 1f e8 18 3f c2 ef be bf
       -1.1854285 0.102992706 0.5972919 -1.4916918
000330 b5 b9 11 3e 4a 38 d8 3e e0 1e c3 c0 f6 eb 1c be
       0.14230998 0.42230445 -6.097519 -0.15324387
000340 6b b8 82 bf bc c6 5f bc de 9e 05 be 09 ad f3 3e
       -1.021253 -0.013658222 -0.13048884 0.47592953
000350 52 db 41 3e 85 7a 2c 3f 24 98 5d bf 40 db 08 3f
       0.1893132 0.6737445 -0.86560273 0.5345955
000360 64 77 e1 3d 12 5a 45 3e c5 3d f7 be 0f 59 f4 3e
       0.110091 0.1927264 -0.48289314 0.47724196
000370 19 79 f2 3e 08 f1 a6 be 53 d0 f3 3d 62 24 a6 3d
       0.47358015 -0.32605767 0.11904969 0.08112408
000380 59 67 65 3d a7 7a 9c 3e 91 37 7a 3e 9e 20 ab 3e
       0.056006763 0.30562326 0.2443526 0.33423322
000390 43 36 17 3c e2 f0 51 bd 9d a4 32 bf 4a 47 3c be
       0.009229246 -0.051255114 -0.6978243 -0.1838657
0003a0 6d ac b2 3f f2 c8 ee bf dc 02 31 bc 7b 9d 2a 3d
       1.395887 -1.8655074 -0.010803904 0.04165409
0003b0 96 1c ea 40 62 37 c2 bd bc a3 f5 3e 45 7a ec 3e
       7.3159895 -0.0948322 0.47976482 0.46187034
0003c0 f8 db 7a 3d 2a dd 2a bd 39 8f 5d bd d0 c3 4d be
       0.061244935 -0.041714825 -0.054091666 -0.20094228
0003d0 b9 b3 4f 3d 1a 07 28 3e 72 2e fe 3b 57 ef 2b bf
       0.050708506 0.16408959 0.0077570016 -0.6716208
0003e0 76 a9 28 c0 10 da 20 bd 7f 14 e3 3d 34 cd 6f 3e
       -2.635343 -0.03927046 0.11087894 0.23418123
0003f0 6c ea 03 3d 4b ad d5 bd 05 d8 04 c0 c8 1a 72 3d
       0.032205984 -0.10433444 -2.0756848 0.05910757

sequential.0.bias f4 [128]
000000 d3 4f b4 be 4f c5 96 be a3 35 7a be e3 c6 cc 3c
       -0.3521715 -0.2944741 -0.24434523 0.02499718
000010 d7 d5 40 bc 07 9d 5f be 80 08 b4 be 74 d4 df 3e
       -0.011769733 -0.21837245 -0.35162735 0.43716776
000020 8e d3 c7 3e 84 bd b4 be 6f 8d 3e bd 95 d1 f0 3e
       0.3902859 -0.3530084 -0.0465216 0.47034898
000030 33 49 3a be 3e 3b 3f 3e fb 7c 30 bf 46 b3 34 be
       -0.18191986 0.18674943 -0.68940705 -0.17646512
000040 21 5e e7 3e 05 1f b8 bd 34 1a 6e be 8e a3 ad 3e
       0.45189002 -0.089902915 -0.23252183 0.33913845
000050 ef 39 03 bf 16 fa 1b bf f4 af 84 be 9c 9d 87 3d
       -0.51260275 -0.60928476 -0.25915492 0.066218585
000060 87 63 c0 be f7 e9 e5 be 35 29 28 bf 64 00 a5 3c
       -0.37575933 -0.44905064 -0.65687877 0.020141788
000070 f2 06 11 be ea 00 11 3e 23 57 0e bf 16 32 d7 be
       -0.14162806 0.14160505 -0.5560171 -0.420304
000080 14 8f 2b bd d5 4e 64 be 2a 3e ab 3e c5 d7 34 be
       -0.041884497 -0.22295697 0.33445865 -0.17660435
000090 9a 18 7d be 4b b0 90 be 1b dd 95 be 9d 73 85 be
       -0.24716416 -0.282595 -0.29270253 -0.26064768
0000a0 b4 85 30 be ca a2 2b bf 0b 8c 8d 3e 3c 29 23 be
       -0.17238504 -0.6704527 0.27645907 -0.15933698
0000b0 d0 9a b6 be 7a e1 f2 3d 20 79 1d bf d5 59 f0 3d
       -0.35664988 0.118594125 -0.6151295 0.11735884
0000c0 99 60 37 3e 55 83 72 3e 38 4c 4a 3e b6 b5 9a 3e
       0.17907943 0.23682912 0.19755638 0.3021676
0000d0 94 8a 1d bf 4b 54 98 3e ee 91 6a be 25 7c e0 3e
       -0.6153958 0.2975181 -0.2290723 0.43844715
0000e0 1e 05 25 3e 33 a0 2a be 60 ab 5d be 36 20 20 be
       0.16115233 -0.16662674 -0.21647406 -0.15637287
0000f0 c1 e8 15 bf f5 0d dd bd ce 13 0f be 71 6d fa be
       -0.5855828 -0.10793678 -0.13972399 -0.48911622
000100 b4 e5 fd be 5f 29 1c bd b3 78 02 3e 84 ad b0 3e
       -0.49589312 -0.038125392 0.12741356 0.34507382
000110 7a ed 19 3e 3f 37 1d bf 75 14 71 3d 39 a7 04 bf
       0.15031996 -0.61412424 0.0588574 -0.5181766
000120 7c e9 ee bd 06 9b 09 bf 03 4b 0b be 7e 25 99 be
       -0.11665627 -0.5375217 -0.13602833 -0.29911417
000130 36 3d 85 be 79 55 ce 3e cf f0 1f 3d 73 7b 0c bf
       -0.26023263 0.40299585 0.039048012 -0.5487587
000140 fb d7 17 be c1 b5 5d be 08 68 98 bd 05 56 f6 bd
       -0.14828484 -0.21651365 -0.074417174 -0.12028126
000150 c8 e8 d8 bd 23 05 34 be 32 02 3a 3e 30 33 97 3d
       -0.105912745 -0.17580085 0.181649 0.0738281
000160 f5 e8 00 bd 4c b4 5d be cd 1b 57 be 7f 4d a3 bc
       -0.031472165 -0.21650809 -0.21006699 -0.019934414
000170 a6 29 d9 3d ca d9 55 bf 87 59 ed 3d aa 05 ae 3e
       0.10603647 -0.83535445 0.115893416 0.33988696
000180 48 59 ae be c9 7b 8c bd db 67 bd 3e 04 6e 22 bf
       -0.3405249 -0.06859548 0.36993298 -0.6344912
000190 f3 52 d7 bd 04 49 c1 3e 75 dd 5d be 3a c0 a8 ba
       -0.10513868 0.3775102 -0.2166651 -0.0012874671
0001a0 22 88 07 be 85 ba 3c bf 31 b5 02 3f 7d eb b5 be
       -0.13235524 -0.73722106 0.51057726 -0.35531226
0001b0 00 06 76 be 14 ac 07 bf a5 26 89 3e 5f 64 99 3e
       -0.24025726 -0.52996945 0.26787296 0.2995939
0001c0 d6 7b 8f 3e 6d 6e 64 bd ca bc d0 be 75 bd b8 be
       0.28024167 -0.055769373 -0.40769035 -0.36082044
0001d0 87 c5 8a be 9c 59 a9 3d 5f 3d ae 3e 60 53 8d 3e
       -0.27103826 0.08269045 0.34031197 0.27602673
0001e0 ef ab 1f bf 08 09 15 bf e0 a8 ea bd 29 c8 18 bd
       -0.62371725 -0.58216906 -0.114579916 -0.037300263
0001f0 10 23 be 3e 05 ee a3 be 47 5f e8 3e eb 03 9a bd
       0.37136126 -0.32017532 0.4538519 -0.075202785

sequential.2.weight f4 [128, 128]
000000 42 79 6b be f3 1b 84 bd 49 1e a9 3d 84 dd fe be
       -0.22995475 -0.064506434 0.082577296 -0.49778378
000010 dc b3 91 3d 4f 73 2a bd 36 40 2d 3c 97 9a cf bd
       0.071143836 -0.041613873 0.010574391 -0.101369075
000020 53 53 e6 3d 57 3d a0 bc c9 61 03 3d 33 53 e6 3c
       0.112463616 -0.0195605 0.032075677 0.028115844
000030 1b ee 44 3d eb bc e9 bd bd d7 65 3f e9 9c 84 be
       0.048078638 -0.11412986 0.89782315 -0.25900963
000040 22 82 34 be 31 a0 d4 bd 53 48 67 3d 34 d0 30 3f
       -0.17627767 -0.103821166 0.056465458 0.6906769
000050 b6 e8 62 bd a7 e1 8c be ea 75 50 3d f4 b7 89 bd
       -0.05539771 -0.2751591 0.0508937 -0.067245394
000060 ed 41 53 3d 06 14 30 3d 38 ae de be a6 82 db 38
       0.051576544 0.042987846 -0.43492293 0.00010467069
000070 58 a4 c1 bd 4b 84 34 3f c2 c4 c1 3d 97 a9 89 3d
       -0.09455174 0.70514363 0.09461357 0.067218
000080 ef 79 82 3d 5f bf 78 be 6d cf 05 3f a5 f9 d2 be
       0.06370913 -0.24291752 0.5226963 -0.4120609
000090 a4 b1 06 3e eb a4 ff bd 5d 34 90 bb 16 61 a5 3e
       0.13153702 -0.124826275 -0.0044007734 0.32300633
0000a0 5d cf d1 be 7e 8c 5c 40 90 c7 9e 3e 65 13 83 bd
       -0.40978518 3.446075 0.3101163 -0.064001836
0000b0 16 ec 2e 3d 63 4b ba 3e 92 a9 ac be 08 c7 8a 3e
       0.042705618 0.3638564 -0.33723122 0.27104974
0000c0 7e 5a 52 3e 98 d4 46 3e 03 7e b6 3e a2 5b 33 3f
       0.20542333 0.19417036 0.35643014 0.70061696
0000d0 1b 9a 61 bd 58 62 1c 3f 4e 88 05 bd 0b 23 bd 3e
       -0.055078607 0.6108756 -0.032600693 0.36940798
0000e0 d7 36 1f 3f af 55 8b be d1 1b 90 be d8 ee e5 3d
       0.62193054 -0.2721381 -0.28146222 0.112271965
0000f0 7a a5 75 be 7f 98 83 be d4 e0 9a bd 62 05 2c bd
       -0.23988906 -0.25702283 -0.07562414 -0.04199732
000100 c4 fd b3 3d 99 a1 b3 3e aa 3f 06 3f 5a 18 12 be
       0.08788636 0.35084227 0.52440894 -0.14267102
000110 83 f0 f1 3d 13 f4 2a be 35 0d 69 bd 3d e8 fa 3e
       0.11813452 -0.1669467 -0.05689736 0.4900531
000120 60 10 2c be f3 16 14 3d b3 e2 8c bd 25 9e 01 bd
       -0.16803122 0.0361547 -0.06879177 -0.03164496
000130 7c ac db 3d 9c b8 39 3f 67 3b 20 3e d1 48 4b 3d
       0.10726258 0.72547317 0.1564766 0.04962999
000140 e7 3f 29 bd b3 24 e8 3b d0 e6 8d be a1 65 9f 3d
       -0.041320708 0.007084453 -0.27715158 0.07783056
000150 ec 53 c2 bd dd a2 69 bd 47 08 39 bf 01 f8 bd 3e
       -0.09488663 -0.057040084 -0.72278255 0.37103274
000160 00 75 b3 3e 70 18 35 be 11 6a 00 bf 11 09 b0 be
       0.350502 -0.17685103 -0.50161844 -0.34381917
000170 f8 66 a3 3e 30 51 21 40 5a 4e 7c 3e 31 55 3d bd
       0.31914496 2.5205803 0.24639264 -0.046223823
000180 0c 44 37 be 2a 83 d6 3c 35 83 9f 3e 55 71 26 bf
       -0.17897052 0.02618559 0.3115479 -0.6501668
000190 82 23 6d be 57 9a 5a 3f e3 9a f8 bd 96 ab 7d 3c
       -0.23158076 0.85391754 -0.12138917 0.015482804
0001a0 e3 24 1d 3b e9 1a 91 3f 83 34 73 bd f1 53 4b bd
       0.0023978285 1.1336337 -0.05937625 -0.0496406
0001b0 6a f1 b5 3d ee d9 a8 3c b9 da 7c 3f 8c 9e e7 3e
       0.08883937 0.02061173 0.98771244 0.4523815
0001c0 00 99 b2 3e ef e5 68 be cc 4c 2f 3c 8a 6f b1 3d
       0.34882355 -0.22743963 0.010699462 0.086638525
0001d0 25 25 f7 3d bb 0c f3 be 22 3d 08 bd 7f ee cf 3d
       0.12067632 -0.4747065 -0.033261426 0.101529114
0001e0 ed 7a 9f 3e 80 ac 9a be dd b2 4d be 97 45 51 3d
       0.31148472 -0.30209732 -0.20087762 0.051091757
0001f0 16 57 28 3f bc 80 10 3e c9 6b b7 bc 85 a7 e3 be
       0.6575788 0.14111608 -0.022390263 -0.44463745
000200 5b 8c dc 3b d7 0a 3a 3c 23 bd 0b 3d ad 48 48 bd
       0.006730599 0.0113551235 0.03411592 -0.048897434
000210 9f ce 6e bd d5 32 3d 3d 71 bc ab bd e4 be 27 be
       -0.058302518 0.046191055 -0.08385552 -0.16381413
000220 c3 ab 81 be 55 ac b1 3d fd 7f 88 3d 66 bf 74 be
       -0.25326356 0.08675448 0.06665037 -0.23901138
000230 61 e0 a9 bd 54 18 08 3d 90 0c 7f bf 25 36 7a bd
       -0.0829475 0.033226326 -0.99628544 -0.061086792
000240 6e fa 0e be 65 15 80 bc 78 cf 86 3d b5 52 cf 3c
       -0.13962719 -0.015635202 0.0658254 0.025307992
000250 56 31 ad bd 0a 17 45 bf 5d 08 ca 3c fe 8f ce 3d
       -0.08456676 -0.7698828 0.024662191 0.10086058
000260 bb 62 98 be d8 52 78 bc df d2 84 bf 23 6f 94 bd
       -0.29762825 -0.01515647 -1.0376853 -0.0724776
000270 f3 d9 2d bd 99 d9 6d be 3d 99 67 bd 56 c8 30 3d
       -0.04244418 -0.23227538 -0.056542624 0.043159805
000280 0e fd 18 bf ee a8 df 3c 1a bd c6 bd b7 9e 97 bd
       -0.5976113 0.027302232 -0.09704037 -0.07403319
000290 8a 24 ab bc ca 9e 17 bb 49 4d 9f bd ad 20 a7 3c
       -0.020891447 -0.0023135417 -0.07778413 0.020401323
0002a0 c0 e7 c3 bd cd 6d f1 3f fb 65 2e be 04 b3 2f 3d
       -0.09565687 1.8861634 -0.1703109 0.042895332
0002b0 6e 4f 6f 3d 77 f0 29 be 55 e2 47 bf 50 9b 8e bd
       0.05842536 -0.16595636 -0.7807973 -0.06963217
0002c0 ad 3b 48 be f1 56 ef bd a6 07 c3 bd 9b 19 e5 bc
       -0.19554015 -0.11686505 -0.09522943 -0.027966311
0002d0 c0 fe e3 be 30 2e a7 3c 6a c3 61 3c 9c 77 69 3e
       -0.44530296 0.020407766 0.0137795005 0.22799534
0002e0 9f ff c7 bd 66 f4 a3 bd 65 3b 0f 3d 5e 0e aa bc
       -0.09765553 -0.080056 0.034968752 -0.020758804
0002f0 9c 5a 47 bf 16 5b 9c bc 73 43 7b 3d c4 44 5f 3c
       -0.77872634 -0.019086402 0.06134362 0.013627235
000300 b0 36 1c 3d e9 f4 07 be e6 73 46 be c3 35 06 be
       0.03813809 -0.1327702 -0.19380149 -0.13106446
000310 b9 8f e1 bd 67 50 60 bf 7a 99 a3 bd c2 a4 86 3f
       -0.11013741 -0.87622684 -0.07988258 1.051903
000320 99 ed 77 bd 98 ef 76 3d db 2d c9 3c 19 34 f1 3c
       -0.060529325 0.06028709 0.024557998 0.029443787
000330 73 e8 8b 3d 7d 87 19 bd d5 4d 47 be ee 5d e4 3c
       0.068314455 -0.037482727 -0.19463284 0.02787682
000340 7f 8b a8 3a bc 31 77 bd 31 67 b2 3b 9f 26 ad 3c
       0.0012858956 -0.060350165 0.0054444303 0.02113658
000350 0b 1a e1 bd c2 bf c4 bc e3 e9 36 bd 15 f7 4c be
       -0.109912954 -0.024017219 -0.044656646 -0.2001613
000360 e8 e6 a7 bd 87 92 f1 bd 05 6c f6 3c ed fd ce bd
       -0.08198339 -0.11795526 0.030080805 -0.10107026
000370 df c3 28 be 92 51 15 c0 e0 e2 57 3e d8 ab fd bd
       -0.16480969 -2.3331037 0.2108264 -0.12386292
000380 ef a0 a1 be 42 9d ee bd 6f 5f 54 bd 33 2b a1 be
       -0.31568095 -0.11651088 -0.051848825 -0.3147827
000390 4c 47 a1 bd 64 09 72 bd 9d c0 9a bd 99 a4 28 3d
       -0.07874927 -0.059090987 -0.07556269 0.041172598
0003a0 d2 66 b1 3c 5f 9f f0 bf bb aa 07 be 3f 97 99 3c
       0.021655474 -1.8798636 -0.13248722 0.018748878
0003b0 f9 0e 85 bd fb b0 71 bb ee 9f 40 bf d8 a6 88 be
       -0.064969964 -0.003687917 -0.75244033 -0.26689792
0003c0 3a e4 ea bd 8a 4f 43 bb 19 52 18 3d 6d 66 81 be
       -0.11469312 -0.0029802048 0.03718767 -0.25273457
0003d0 f8 22 c2 3a 58 83 51 bd 5b c3 90 3c 14 7d 1b be
       0.0014811447 -0.05115065 0.017671278 -0.15184432
0003e0 5e a8 d8 be f6 46 4f bf eb 14 0b 3c a6 ef 81 3c
       -0.42315954 -0.8096765 0.008488874 0.015861344
0003f0 40 65 62 3c 51 49 1b be 1e 77 1d be 8a dc 12 3d
       0.013818085 -0.15164687 -0.15377471 0.035854854

sequential.2.bias f4 [128]
000000 5d bd ef be 46 ca 6d bc 48 5b 2d bd ec 74 8b 3e
       -0.4682416 -0.014513558 -0.04232338 0.27237642
000010 8f 0a a5 be fd c9 ef be 61 9d 6d 3d 0e 38 0d be
       -0.32234618 -0.46833792 0.058011416 -0.13790914
000020 90 2e 42 bc a5 4a e9 be 11 67 a9 be 85 9c d5 be
       -0.011851922 -0.45564762 -0.33086446 -0.41720977
000030 76 70 34 bd 68 76 7a bc 03 53 f0 be 59 c4 95 bd
       -0.044052564 -0.015287019 -0.46938333 -0.07312841
000040 cb 9e 59 be f2 f8 a6 bd db d6 0d 3e b7 7a 84 bd
       -0.21251981 -0.08152951 0.13851492 -0.064687185
000050 0a 09 17 3e e7 1b 7d bd fc 81 8b be 5c 4e c5 bb
       0.14749542 -0.061794188 -0.27247608 -0.006021304
000060 64 ca cd bc 4f 35 ca be b8 8e a0 3b 2a 76 56 3d
       -0.025120921 -0.39493796 0.004899826 0.052358784
000070 05 9c a5 be 7a e1 aa bc 9e 1e 16 3e 6d 75 ea 3d
       -0.32345596 -0.020859469 0.14660117 0.114481784
000080 5a 8e 02 bf 7f b5 fc bc e9 73 5c 3c c4 05 db be
       -0.5099846 -0.030848263 0.0134553695 -0.42777836
000090 2b 9c 1a 3e 7f 51 a1 3e 27 61 19 3d a3 e2 db be
       0.15098636 0.3150749 0.037446167 -0.42946348
0000a0 a2 79 00 3e f1 7e dd be e1 47 72 bc 81 f1 c0 be
       0.12546399 -0.4326091 -0.014787645 -0.37684253
0000b0 87 5f a5 bd 86 a7 d1 ba d3 d1 97 bd 40 73 74 be
       -0.08074861 -0.001599536 -0.07413068 -0.2387209
0000c0 8f c4 51 bf bd 73 a5 be ab da 11 3c 35 e5 6a bd
       -0.8194055 -0.32314864 0.008902232 -0.057347495
0000d0 1c 29 67 bd d0 79 7b bd 80 3e f9 bc 8d c9 34 bd
       -0.05643569 -0.061395466 -0.03042531 -0.044137526
0000e0 d8 6d 0b bf 5f b8 29 bf 3b d8 a1 bb 69 44 9f be
       -0.54464483 -0.6629695 -0.0049391068 -0.3110688
0000f0 fe e7 bb bc 58 c2 08 be bf f1 d5 be d1 44 2b bc
       -0.022937771 -0.13355386 -0.41786 -0.010453419
000100 8e 5d 85 bd 14 42 9b bc 93 de 15 bf 1e 2f d9 be
       -0.06511985 -0.018952407 -0.58542746 -0.4241876
000110 09 c7 48 3d 71 f6 cc be 9c ff a8 be 7c f1 e0 b9
       0.04901794 -0.4003177 -0.33007514 -0.0004290453
000120 74 33 47 be 59 5b 4b bc ae 8a 5f 3b 87 0c d4 bd
       -0.19453222 -0.012411916 0.003410976 -0.10353952
000130 cc b5 02 bd 65 4a 21 be bb cb e2 bd 89 7d 80 bd
       -0.031911656 -0.15751036 -0.11074015 -0.06273944
000140 3f 2a 26 bf e6 4c d1 be 01 ed 5f be 0d 61 a5 be
       -0.6490821 -0.4087898 -0.21867754 -0.32300606
000150 1a 7f e9 be 8f c7 db be 3f 75 ca bd e1 b2 8a bd
       -0.45604783 -0.4292569 -0.09885644 -0.067724
000160 65 56 17 bd 43 2e 97 bd bc 6c 01 3a 05 ed 3a bd
       -0.036947627 -0.073818706 0.0004937162 -0.045636196
000170 84 18 d8 be c8 aa 0f bf cf 14 f4 be f4 5b 91 bd
       -0.42206204 -0.56119967 -0.47672126 -0.07097617
000180 4b d3 14 bd 19 b8 15 3e 7e 8f a2 ba 06 34 82 be
       -0.036334317 0.14621009 -0.0012402383 -0.25430316
000190 de 01 8d bd b1 ee a0 bd 13 1b 70 bd 72 1b ab bd
       -0.06885122 -0.07858027 -0.05861957 -0.08354844
0001a0 73 23 97 bc 25 1e 90 be b1 e1 25 be 58 7b 33 3d
       -0.01844952 -0.28147998 -0.16199376 0.0438188
0001b0 96 2f 1d be 59 51 ea be 4a f4 53 be d8 10 02 be
       -0.15350184 -0.45765188 -0.20698658 -0.12701738
0001c0 13 2d d8 bd 73 7f b4 bd 91 2a 6a be 4c 2e b3 bd
       -0.10555472 -0.088133715 -0.228678 -0.08749065
0001d0 ec ac e9 be 37 c6 cb be b7 cd e1 3d 91 d7 26 be
       -0.4563974 -0.39799663 0.11025565 -0.1629317
0001e0 d8 eb 82 be 84 6e 84 bc f1 58 e2 3d 45 74 62 bd
       -0.2557056 -0.01616598 0.110521205 -0.055286665
0001f0 a7 15 a3 3d bb ac b2 bd 57 e8 01 3c a4 ca f8 be
       0.07963114 -0.08724352 0.007928929 -0.48592103

sequential.4.weight f4 [1, 128]
000000 bc 08 5d 3e 86 48 c3 3c e8 65 2a bd 5b 47 8a bf
       0.21585363 0.023838293 -0.04160109 -1.0803026
000010 ae 23 77 3e 16 7e 93 be 16 13 57 bf 1e 17 aa 3b
       0.24134704 -0.28807133 -0.840135 0.005190744
000020 d2 24 39 3d 2d 3e e3 bf d6 a6 fb be e0 f6 e1 3e
       0.04520113 -1.775335 -0.49150723 0.44133663
000030 e2 d8 0f bb 27 70 63 3c 1e d9 94 3d 5f 5e 1c bd
       -0.002194934 0.01388172 0.07267974 -0.038175937
000040 68 f2 9d bf 32 94 99 3a c4 3a 7f bf 16 c6 bb 3c
       -1.2339602 0.0011717139 -0.99699044 0.022921603
000050 e4 17 7f bf 75 8a 30 3c 3b 0a 7e be 7c 14 c3 39
       -0.9964583 0.010775198 -0.2480859 0.0003720856
000060 98 1d 32 ba 3a da 6f 3f 00 fb 13 3d 37 36 53 3e
       -0.0006794571 0.9369236 0.036128044 0.2062615
000070 33 fa c4 bf 38 57 93 bc 2f 04 67 bf d8 96 80 3f
       -1.5388855 -0.017985925 -0.9024076 1.0046034
000080 42 c6 84 3e 3d 5b 63 3e e1 cd 02 3c 14 76 a0 3e
       0.2593251 0.22202773 0.007983656 0.31340086
000090 4a 57 5b be aa ca d1 be 5c 92 42 3d 98 71 e4 3e
       -0.21420017 -0.40974933 0.04750286 0.44617915
0000a0 b0 4a 18 3f 36 4b 25 3f 88 78 24 bc b2 30 48 3e
       0.59488964 0.6456789 -0.0100385025 0.19549826
0000b0 61 49 89 3d fd 46 28 bd c0 3b 97 bc a5 27 6c bd
       0.06703449 -0.041083325 -0.018461108 -0.057654995
0000c0 e7 3e 91 3f b9 7c d1 be 8d a5 12 3d 9e 36 ff 3b
       1.1347321 -0.40915468 0.035802413 0.0077884933
0000d0 99 7b 1d bd 2e 49 40 3c 03 c8 24 bd a6 d4 9d 3e
       -0.03844795 0.011736197 -0.04022981 0.308263
0000e0 98 c6 8f 3e a1 d0 a8 40 3e 87 00 bd 57 ac a5 bb
       0.28081203 5.2754674 -0.031378977 -0.005055945
0000f0 91 fe 9a bc 36 c8 ea be 72 4a c6 bf 38 3f 0f 3d
       -0.018920215 -0.45855874 -1.5491469 0.0349724
000100 42 f0 16 3b 7c 66 9d bf f7 69 85 3f 0b 4e 81 3e
       0.0023031388 -1.2296901 1.0422963 0.25254855
000110 0b ed 41 bc 27 2b 1d 3f ed 07 72 3e b8 e6 eb bc
       -0.011836301 0.6139397 0.23635836 -0.028796539
000120 a4 05 84 be 57 59 a1 bf 78 3f 29 bd 55 04 90 bc
       -0.25785553 -1.2605389 -0.041320294 -0.01758019
000130 42 b1 59 bd 45 f1 c0 3e f9 72 5e bc 49 dc 4c 3d
       -0.05314756 0.37684074 -0.013577216 0.050014768
000140 5b 54 38 3f 6c 5e 25 3e 43 79 40 3f f8 74 b8 bd
       0.72003716 0.161493 0.7518503 -0.09006685
000150 ee e3 52 3f 59 8d 34 3e 66 6e 93 3d bd f0 25 bc
       0.82379043 0.17632045 0.07198791 -0.010128197
000160 65 29 0c ba 2a 46 56 bd e8 c3 29 ba bb 44 90 bb
       -0.00053467444 -0.052313007 -0.00064760307 -0.0044027246
000170 87 1c 0f 3f 32 c3 54 3f 8a 32 19 40 5e e4 45 3d
       0.55902904 0.83110344 2.3937097 0.04831349
000180 c2 15 a3 3d 9b 78 1b 3f 08 2b a9 3c d3 57 bb 3f
       0.07963134 0.60730904 0.020650402 1.4636177
000190 31 7c e3 3b 61 be b3 3c 6b 2d a8 bd a2 bf fd bb
       0.006942295 0.021941366 -0.08211788 -0.0077437917
0001a0 16 8a da bc 52 0f e7 be 81 85 ec bb 64 ac 1f 3f
       -0.026677173 -0.45128876 -0.0072180633 0.6237242
0001b0 f0 94 4b bb 06 df e6 3e 6f b6 ab 3e 10 79 30 bd
       -0.0031064115 0.45092028 0.33537623 -0.043084204
0001c0 95 41 44 bd 9b 56 4b bd dc a4 07 3f 25 e4 9b bd
       -0.047914106 -0.04964314 0.5298593 -0.076118745
0001d0 80 1e 27 3e 26 cc c8 3e df 90 0e bf 60 ec 3f bf
       0.16320229 0.39218253 -0.55689806 -0.74970055
0001e0 e2 43 24 3d 7f 8f a7 39 66 95 96 3f b1 ea 55 3d
       0.0401038 0.00031959635 1.1764343 0.052225772
0001f0 f2 9c 53 bf 63 7d 5d bc 75 3c 81 3b 8e 4e d3 3e
       -0.82661355 -0.013518664 0.0039439746 0.4127087
