inverse_trainer/logs/model_logs/state_evaluators/state_evaluator_02.05-17:45.pth (torch, 77264 bytes, 5 tensors)

sequential.0.weight f4 [128, 14]
00000000: ec4f a4be fed1 543e fba1 133f 99bf fb3e
00000010: 0db3 223f 0858 b73d 9beb e13d cc67 a3be
00000020: 8d81 fabd db74 953e 2974 0d3e 5b8d b1bc
00000030: 8843 c13e 8117 1f3f d69e c1bc 432f b33d
00000040: 6d64 9240 30c9 3f3f 5ab3 52bf c150 023e
00000050: 936a 45c0 75f4 83bf 9bc9 4abf b01f a1bf
00000060: c7d5 6b3b d598 413f ec0c 4fbe d94a 203f
00000070: bd4d 173d 5663 783e c7ff 323e 0c3c 8bbd
00000080: 9e33 6abe d2ff 363d a137 e63d 3022 563e
00000090: d6b1 b23d 6e5b 843d b990 82be d9f3 813e
000000a0: 0930 d63d 67a0 62be dea6 00bf 0a72 e83b
000000b0: bc93 edbd 9988 10bf 77f4 cdbf 7180 983c
000000c0: 9eee eebe 5a6d 43bf c197 44be a3b4 9ebf
000000d0: 7691 1dbe 283d 573e 8bb4 0a3f 790a 063e
000000e0: 4c36 5e3e a763 70be ed7e b23d e469 253e
000000f0: f6b1 993e 3073 38be 3203 503e 575a c93d
00000100: e051 cb3d 8423 333e 862f 2a3e 400c d2be
00000110: 50ad 5f3e aae4 863e e2b8 06be c4ec 66be
00000120: dd7d fa3e b8fe 603e fd4b a23e 1911 903e
00000130: 410d 643e c4ec 0abe 13ee f3bd 4ea3 153e
00000140: 9374 5dbe 7497 b33c f9aa b03e bfbf 043f
00000150: 019a 423d a478 b8bd 455e f53d 8f99 33be
00000160: 8b2d 9b3e bd9b a73d 8804 a13e 35b0 90bd
00000170: affd aebd 88a6 84bd 2427 143d 3fb1 b0ba
00000180: 7bc3 243e 053d c43c a371 8abe e757 da3e
00000190: f004 773d 94f4 88bf 8aa4 57bf dbc7 05c0
000001a0: d346 b1c0 871c 313f be8c 243f a844 073f
000001b0: ec42 43be 6827 08bf 53b7 9f3d 54b3 44bf
000001c0: 8e4f 31be 54a4 513c c792 59bd 4ab5 24be
000001d0: ca6a 70bc fe4f ccbd 422c bf3d f898 713e
000001e0: 26a0 093e ee70 fa3d 92bb 65be c563 63be
000001f0: 95c6 523e 39da 99bc 54d6 97be 7863 fe3d
00000200: f7aa 7a3e d8af cfbe de02 6fbf e57e 19be
00000210: 1381 f2bf 3da5 e6be fc03 91be d3cc edbe
00000220: 1e90 343e 9a12 b4bd c308 643d f5f7 3fbb
00000230: d0bf 823d 452a 883e 6d1e bebd 22dd edbc
00000240: 3de6 b83d e7a8 50bd 1b8a d2bc 5524 aabd
00000250: 4cd1 bb3c 2568 6e3d 2500 5c3e 109f 833e
00000260: 787a 3a3d fdb8 07be b5bc 0dbe 9cda 21bf
00000270: 3bd2 c63e d5fe 3cbf 855a d8bf 4270 a9be
00000280: 9acf c0bf f819 e23f b7a6 963f 3cfb 2d3f
00000290: ac79 c13d 3385 38bf 222d 3fbd dd51 1cbf
000002a0: 7949 10bf bc70 b63e 31c3 87be bc68 61bf
000002b0: 79bd 1dc0 0b64 4fbf 9b9e 47c0 9159 043f
000002c0: 834b 603e 0010 a4be 6a60 463e 5d1d 3d3e
000002d0: 40a4 21bf 8914 28bf ab32 6ebe 15c3 743e
000002e0: 0352 a13e 0887 c43d f415 4cbe 486f 923e
000002f0: c1ea c1be a608 06be 25e6 983d 1ea8 bfbe
00000300: 4c9d 803d d0a0 9cbe 37a0 0d3d 6a37 e13e
00000310: 29e6 88be d315 3fbd a4c4 063f 8c5d 8b3e
00000320: 8f5f a7bf e3b1 bb3e c8c7 0cbf bf43 03bf
00000330: 89ae 4dbe 97de 81bf e58f 32bd caed 17be
00000340: 9454 9b3e ebde 283f b40b 283e af5f 403e
00000350: 5d95 40be 4267 fabd 8ac4 683e c8ee 07be
00000360: a58f 093e 0337 b83d 8b86 2d3e 8242 e73d
00000370: 280f 81be 69a4 79bd ed83 353e f5fb 4ebe
00000380: 72e9 533e 049d 623e 63e6 323e c6a8 123d
00000390: a5e2 89be 0823 72be c419 1e3d b614 093e
000003a0: dd17 f8bc 51fa 7d3e f719 ed3c 2591 c9be
000003b0: f44c 893d 6bdb 8bbd 9d13 2e3e 8069 843e
000003c0: abc6 d73c 1abf 86bd 7b62 0c3d c05f 173e
000003d0: ada2 b3bd acda 2bbe df27 21be d763 6dbe
000003e0: 45d4 663e b227 70bc dbd4 d63d dcb5 573e
000003f0: 276b 153e ed14 28be 4564 be3c 98f6 9abd
-0.32092226 0.2078323 0.5766904 0.49169615 0.6355446 0.089523375 0.11031266 -0.31915128
-0.12231741 0.29190716 0.13813843 -0.021673849 0.37746835 0.6214524 -0.02363531 0.08749249
4.574759 0.7491636 -0.8230492 0.12726118 -3.0846298 -1.0308977 -0.79213876 -1.2587795
0.0035985576 0.7562383 -0.20219773 0.6261421 0.03693937 0.24256644 0.17480384 -0.067985624
-0.22871253 0.044677563 0.11241079 0.20911479 0.08725326 0.06462751 -0.2550104 0.25381353
0.10458381 -0.22131501 -0.5025462 0.0070936726 -0.11600444 -0.5645843 -1.609023 0.018615933
-0.46666425 -0.7633873 -0.19198515 -1.2398876 -0.1538752 0.21019423 0.54181737 0.13089933
0.217004 -0.23475514 0.087156154 0.16153675 0.30018586 -0.1801269 0.20313719 0.09831684
0.09927726 0.17494017 0.16619691 -0.4102497 0.21843457 0.26346332 -0.13156465 -0.22551256
0.4892415 0.21972167 0.316986 0.28138044 0.22270681 -0.13566881 -0.119106434 0.14613077
-0.21626501 0.021922804 0.34505442 0.5185508 0.04751015 -0.090073854 0.11980871 -0.17539047
0.30308184 0.081840016 0.3144877 -0.07064859 -0.0854448 -0.06477076 0.03617014 -0.0013480558
0.16090195 0.023954878 -0.27039823 0.4264519 0.060307443 -1.0699639 -0.8423544 -2.0903232
-5.5398955 0.69184154 0.64277256 0.52839136 -0.19068497 -0.5318513 0.07798638 -0.76836133
-0.17315504 0.0127955265 -0.053118493 -0.16084781 -0.014673898 -0.09976195 0.093346134 0.23593509
0.13439998 0.12228571 -0.22434834 -0.22206028 0.20583566 -0.018780814 -0.29655707 0.12421316
0.2447928 -0.40563846 -0.9336375 -0.14989813 -1.894564 -0.45047942 -0.28323352 -0.4644533
0.17633101 -0.087926105 0.05567242 -0.002929208 0.063842416 0.2659475 -0.09283147 -0.029036108
0.090282895 -0.050942328 -0.02570062 -0.08307711 0.022926949 0.05820479 0.2148443 0.25707293
0.04552695 -0.13254161 -0.13841517 -0.63224196 0.38832268 -0.7382634 -1.6902624 -0.33093458
-1.5063355 1.7664175 1.1769627 0.6796148 0.09447035 -0.72078246 -0.0466739 -0.61062413
-0.5636211 0.35632885 -0.26516107 -0.88050437 -2.4646895 -0.8101203 -3.1190555 0.5169917
0.21903805 -0.32043457 0.19372717 0.18468232 -0.6314125 -0.65656334 -0.23261516 0.23902543
0.31507882 0.09596068 -0.1993025 0.28600526 -0.37874416 -0.13089237 0.074657716 -0.3743295
0.06280002 -0.3059144 0.03457662 0.4398759 -0.26738098 -0.046651673 0.526438 0.27219808
-1.3076037 0.36659154 -0.5499234 -0.5127525 -0.20086111 -1.0146054 -0.04359426 -0.14836803
0.30337965 0.65965146 0.16410714 0.187865 -0.18806978 -0.12226726 0.22731224 -0.13274682
0.13433702 0.08994868 0.16945855 0.11291982 -0.25206876 -0.06094781 0.17726107 -0.20213301
0.20694521 0.22130209 0.17470698 0.035805486 -0.2693073 -0.23646176 0.03859879 0.13386807
-0.030284816 0.2480252 0.028943045 -0.3936855 0.06704131 -0.0682896 0.1699967 0.2586174
0.02633985 -0.065794185 0.034273606 0.1478262 -0.08771262 -0.16782635 -0.15737866 -0.23182617
0.22541912 -0.014657902 0.10489818 0.21065468 0.14591657 -0.16414233 0.023241172 -0.07566565

sequential.0.bias f4 [128]
00000000: 7681 94be 6c48 173e f3c1 f6bd ce9b 723b
00000010: 4269 46be e33d 24be c6eb 6bbd f898 253e
00000020: 383f 87be feba 5cbd 3844 52be fc7b 03be
00000030: 6ae3 303f 0549 253c f9f2 cc3d 1dc5 21be
00000040: 5aac 4abe 3dd5 ac3d 0d3d e3bd 2ebc 5fbe
00000050: f2c5 05bf e007 88be 0d96 29bd 5fec 4bbe
00000060: 3574 4c3c b2dd 27be 8863 96be fb34 503e
00000070: e73b 27bf 5d2a 53be fb37 ddbd 6d41 4dbf
00000080: f244 e6be d846 803d 81b0 28bf 5dae 53be
00000090: 2802 f8bc f3d3 00be 64fc cfbe 7a70 4abe
000000a0: fa33 02bf 414d b33d 660f 713a c087 84be
000000b0: 9a52 27be 0f21 05bf 402e 7b3d 1820 1fbe
000000c0: f0bc cabd 4d05 3c3b 2080 673d 5c43 35be
000000d0: 29fa 8ebe 54ee 59bc cc6c be3c 4424 23bf
000000e0: 81b6 56be 4ec8 10be 048f 88bd b9e1 083d
000000f0: 06b4 05bf 8255 07bf aebf 34be c418 8fbe
00000100: e5e7 e7be 3122 1bbe 8960 8ebc e305 85be
00000110: c3a2 7ebe 817d 86be c788 a6bd 08eb 6abd
00000120: 5e80 563e f4e5 8cbe 1507 b43d 9b71 cfbd
00000130: aacc ea3e 93d3 ccbd 23be 383b 40b0 ccbd
00000140: 776e 7abf 623e b13c 8332 35bd c8db 3abe
00000150: ce89 ecbe 7f3d 64bd 1ee8 d23a fc2e 51be
00000160: 5e73 38be b6ab 13be 6275 87be ae53 30bd
00000170: 1d8e 4c3d d849 9a3b 57fc febe e281 bb3d
00000180: 9feb cbbe 1218 48be bd73 33bf ed0e f4bd
00000190: 2a70 80be 65ec 75bd 36c2 92be 17a1 d93d
000001a0: 1fb1 b53e 02cc 81be 6266 b13e beb3 1e3f
000001b0: df0e db3c 7ec5 45be e580 fa3d c778 eebe
000001c0: 920e 46be 5289 4dbf 00a5 76be 97d0 913d
000001d0: d2e2 23bf 08ab f9be 0fd1 2cbe d1ec 3cbe
000001e0: 40a8 c7bc e73b 8c3d 245f 11bd 41a3 3f3e
000001f0: b6bc bbbd b29e 22be f077 1c3f 6b8b 803c
-0.2900502 0.1477372 -0.12048712 0.0037019136 -0.1937609 -0.16039233 -0.057597898 0.16171634
-0.2641542 -0.053889267 -0.20533836 -0.12840265 0.69097006 0.01008821 0.10007281 -0.15797849
-0.1979231 0.084391095 -0.11095629 -0.21849129 -0.52255166 -0.26568508 -0.041402865 -0.19914387
0.012478878 -0.16393164 -0.2937281 0.2033271 -0.6532578 -0.20621629 -0.10801693 -0.80177957
-0.44974476 0.062635124 -0.65894324 -0.20671983 -0.030274466 -0.12580852 -0.40622246 -0.19769469
-0.5086056 0.087549694 0.0009195715 -0.2588482 -0.16340104 -0.5200357 0.061323404 -0.15539587
-0.09899318 0.0028689683 0.056518674 -0.17701477 -0.27925232 -0.013301451 0.023245238 -0.6372721
-0.20968057 -0.1413891 -0.06667903 0.03341839 -0.5222782 -0.5286485 -0.17651245 -0.27948582
-0.4529411 -0.15149762 -0.017380016 -0.25981054 -0.24866776 -0.26267627 -0.08131557 -0.05735305
0.20947406 -0.2751919 0.08790413 -0.101290904 0.4585927 -0.10001292 0.0028189502 -0.099945545
-0.97824806 0.021636192 -0.044237625 -0.18247902 -0.46198887 -0.05572271 0.0016090905 -0.2042808
-0.18012759 -0.14420971 -0.26456743 -0.043048553 0.049940217 0.00470851 -0.49801895 0.091556326
-0.39828202 -0.19540432 -0.7009848 -0.11916909 -0.25085574 -0.060039897 -0.28663796 0.106264286
0.35486695 -0.25350958 0.34648424 0.61993015 0.02674049 -0.19313619 0.12231616 -0.4657652
-0.19341496 -0.8028766 -0.2408638 0.071198635 -0.64017975 -0.487633 -0.16876625 -0.18449713
-0.02437222 0.06847363 -0.035491124 0.1871462 -0.09166853 -0.1588085 0.6112051 0.01569148

sequential.2.weight f4 [128, 128]
00000000: 4cef 61be 5905 2fbe 5ad5 f33b 7448 f13d
00000010: c582 8cbc b8f8 a7bd 884e 31bd 7476 4ebf
00000020: 36e9 a3bd 38c5 77be 1ff2 b43b 02cf 583d
00000030: 408f a8be 7a83 d43d 5834 4c3e f427 3d3c
00000040: c81c 103e 146f c2bd 0209 0f3d 827e 6bba
00000050: 5da3 55be 5f12 333d 8994 a03c 7b3c 373d
00000060: d308 a03d fa56 b0bc 93bd b1bb 7bb1 06bf
00000070: 4ce0 8bbf b7c4 403d b93e aabd 6ad7 1dbf
00000080: 5244 2fbd 215e 2ebc 997f fbbf 38e0 6ebd
00000090: e4a8 973d 3944 c1bd 7a3f c5bd 6531 373d
000000a0: ffb8 86be 4521 173e 0f17 fabc 6403 8cbd
000000b0: eade 793e 939a 1abf 013d 80bd e654 2a3e
000000c0: 1563 143e aba9 b8be 813f b03c 3b8d 40bb
000000d0: f0eb 123d 8c3e 4a3e bd24 4d3c 7f1e e9bf
000000e0: 6fc4 ffbd 5e76 36bd 5dc0 b73d a855 01bd
000000f0: f454 fdbf 1b55 bc3d ffd1 9a3d 0f06 2fbe
00000100: 3f4e 44be 1bea 66bd 9a72 7abd c4ed b5bc
00000110: d586 cb3c d20b 603e 9fdc 493d 32c7 943d
00000120: f5b9 8b3e 5940 c5bc 7cb7 103e 05bc 81bd
00000130: 845e 663e 502d 0d3d f152 f03c 5fac 41be
00000140: 0ff4 04be 09f9 b5bc 06e5 a53b 4e70 bdbd
00000150: 32ae 7fbe e54f 28bd a0e3 12bd 7761 a2bd
00000160: bf60 a0be 8ee9 af3e 8c7a cf3c 9665 cfbe
00000170: 47d2 4f3e 163f e63c f71f 04bf 6540 383e
00000180: 01a6 04be 52b7 18bd 8261 83bf 3082 0ebf
00000190: a532 b13d 634c 683c ffd1 da3c 045b a4be
000001a0: 6fb2 2d3e f9d9 cb3d a8ce 143e dc12 533e
000001b0: ad5f d8bc de42 1abd 891e 193d af41 babd
000001c0: b9cd f8bd c0fb b2bf 1150 183d e317 87ba
000001d0: e162 4cbf b046 20bf af26 32bd 691a 793a
000001e0: 5b51 103e 3edf f13c 65b7 4a3e b560 1ebf
000001f0: 3573 cebb eca8 82bf 50cb 8cbe 7a05 02bf
00000200: 5cc2 4abd 55e5 303c 797c 4a3d 5508 8abd
00000210: 1744 b53c ede6 a33d 27f0 34bc 3aea 37bb
00000220: 3c1b fabc f9a3 033e 47bd dcbc 1db1 94be
00000230: eb3d aebd 2672 483d dab9 143e 96a5 80bb
00000240: ba87 6f3d 174e 983d 4469 d83c 8631 49bd
00000250: e9c0 963d 89e0 71bd 5971 523d f6d4 bdbd
00000260: 1a7f a9be f014 223d 5671 a83d 0337 b9be
00000270: e1e5 8c3e d960 143d 2b7b 183d 78b9 333d
00000280: da72 26bd 5dc0 973d 85ec c83d 0acd a53d
00000290: 8dd6 2d3d 9803 99bd 84cd f23c b7fb 29bd
000002a0: 6bf5 8fbe d3bf bab9 dc18 963d 1f2e 24be
000002b0: e8a6 f3be 01e7 4fbe 2351 0abd 9716 8f3d
000002c0: 2f8c 43be 0c4e 2b3c e2c9 ffbd 1875 d83d
000002d0: 92d3 793d 3f4b 9dbe 5491 cc3d c6b6 933d
000002e0: bfae 5ebe 1e26 8ebd 4a5f 2cbc ae22 acbd
000002f0: 0dcf d3bc c239 d3be cda2 b33d 6aa5 8dbd
00000300: 5f06 53bd 0f14 e7bc a8f2 013d a3bd 13bd
00000310: e6e2 c5bb 6e3d 71be 19ab 243c 372d 89bd
00000320: 1c2d 773e 59bc c2bd c461 cbbd 840d 1bbd
00000330: 9265 fdbe d9ce 45bc 0eb7 a03d c659 00bf
00000340: d7bf 323b 1d8d dd3c df20 8cbd 2e97 a0bd
00000350: 8814 7bbc 6bc9 cdbc 0198 f0bc 0ea1 223d
00000360: 4e24 7bbe 8d73 49be 6052 68bd f687 09be
00000370: 26ef a4bd e1b0 37be d861 68bc c974 81bd
00000380: 789d 9abd 0a37 693e 427a cd3c 64e2 d3be
00000390: 8268 b0bd 68b8 a8bc 498d ba3d a17a d13b
000003a0: 84ca f3be 6239 973d 0ff5 9cbe b308 00bf
000003b0: d716 003d 672a 893d 1efa 953d bc0b 70be
000003c0: 9c57 af3d 7e49 f7bc 98e5 4dbc a407 973d
000003d0: f829 0dbe 2ddc 02be 8b43 c03d 38ac 093d
000003e0: c0dd a93a 0df6 97bd 050d fd3d 78d7 66be
000003f0: c4cf 09bc 9537 083e 0658 a3be ab12 f7bd
-0.22063941 -0.17091884 0.007441205 0.117813975 -0.0171522 -0.08201736 -0.043287784 -0.80649495
-0.08003466 -0.24196327 0.005522027 0.052931793 -0.3292179 0.1037664 0.19941843 0.01154517
0.14073479 -0.09493843 0.0349207 -0.00089833897 -0.208631 0.043718692 0.019602077 0.044735413
0.07814183 -0.021525849 -0.0054242103 -0.52614564 -1.0927825 0.047062602 -0.08312745 -0.6165682
-0.042789765 -0.010642559 -1.9648315 -0.0583193 0.0740526 -0.094368406 -0.09631248 0.04472484
-0.26313016 0.14758785 -0.030528573 -0.06836584 0.24401441 -0.6039211 -0.062616356 0.16633949
0.14490922 -0.36066946 0.021514656 -0.0029381055 0.03586954 0.19750422 0.012520966 -1.8212432
-0.124886386 -0.044546477 0.08972237 -0.03157583 -1.9791551 0.0919592 0.07559585 -0.17092155
-0.19170474 -0.056375604 -0.06114445 -0.022208102 0.024844566 0.21879509 0.049282666 0.07264556
0.2729031 -0.024078535 0.14132494 -0.0633469 0.22496992 0.03446704 0.029336425 -0.1891341
-0.12983726 -0.022213476 0.005062702 -0.09249936 -0.24968794 -0.04109182 -0.03586161 -0.07928746
-0.3132381 0.34357876 0.02532699 -0.4050719 0.20295058 0.028106254 -0.51611274 0.17993315
-0.1295395 -0.037284203 -1.0264132 -0.556674 0.08652238 0.014178368 0.026711462 -0.3210069
0.16962598 0.09953684 0.14531958 0.20612663 -0.02641281 -0.037661426 0.037382636 -0.090945594
-0.121486135 -1.3983078 0.037185732 -0.0010306801 -0.7983838 -0.6260786 -0.043493923 0.00095025316
0.14093535 0.029525395 0.19796522 -0.61866313 -0.006300355 -1.0207801 -0.27498865 -0.50789607
-0.04950176 0.0107968645 0.049435113 -0.067398705 0.022127194 0.0800303 -0.011043585 -0.0028063194
-0.030530564 0.1285552 -0.026945723 -0.29041377 -0.08507904 0.048936985 0.14524022 -0.0039259894
0.05847905 0.074367695 0.026417382 -0.049119495 0.073610134 -0.059052024 0.051377628 -0.09269135
-0.33104783 0.03957075 0.08224742 -0.36174783 0.27519134 0.036225174 0.037226837 0.04387805
-0.040636875 0.07409737 0.098107375 0.08095749 0.04244094 -0.074713886 0.029639013 -0.04149982
-0.28116927 -0.00035619605 0.0732896 -0.16033219 -0.47588277 -0.20302965 -0.033768784 0.069867305
-0.19096445 0.01045562 -0.12489678 0.10569209 0.060992785 -0.3072147 0.09988657 0.07212596
-0.21746348 -0.06940864 -0.010520766 -0.08405052 -0.025855565 -0.41255003 0.08771286 -0.06916316
-0.051519748 -0.028207807 0.031725556 -0.036069524 -0.0060390113 -0.2355859 0.0100505585 -0.06698077
0.24138302 -0.09508581 -0.09930757 -0.037854686 -0.49491554 -0.012073242 0.07847415 -0.50136983
0.002727499 0.027044827 -0.06842207 -0.07841335 -0.015324719 -0.025120458 -0.029369356 0.039704375
-0.24525568 -0.19672985 -0.056719184 -0.13430771 -0.080534264 -0.17938568 -0.014183484 -0.06321103
-0.07549566 0.22774902 0.025082711 -0.4138366 -0.08613683 -0.020595744 0.09108979 0.0063927923
-0.47615445 0.07383992 -0.30655715 -0.50013274 0.03127178 0.06697541 0.07323097 -0.23441976
0.08561632 -0.030186411 -0.012566946 0.07374504 -0.13785541 -0.12779303 0.09387883 0.033611506
0.0012959763 -0.07419977 0.12355999 -0.22543132 -0.008411352 0.13302453 -0.31903094 -0.120641075

sequential.2.bias f4 [128]
00000000: 55f6 8ebe 569c 9ebd 3ffe a2bc 4025 443c
00000010: 8cbf 973e 0b8a 01be 59e2 363f e195 a3bd
00000020: c580 12bf 4a96 fbbd 8d2e 993c 83c1 3d3f
00000030: 48e8 84be 7c05 c9bd 8077 203f 8a95 bbbd
00000040: 2f81 88be fd5d 02be fdde 08be 803b 9dbe
00000050: 521a 033d 8ea6 f1bd 8e5a 26be 1b8a cbbd
00000060: 48bb b1bd 1868 89bd 37c4 e4bd a9fd 7bbd
00000070: 9053 4bbd 91c6 94be e65e 6fbd 2c4c 423f
00000080: f9b1 b1bd 51fe f0bd 148c e33e bdde fdbd
00000090: d1a4 fbbd e976 c03e 271e 4dbe 2d1d 2bbe
000000a0: 454b b2bd a9d1 b2bd 67e7 8a3d 0790 c9bd
000000b0: 0726 413c 7b7e 07bd fecc c43d a35f 443f
000000c0: c22c 42bd 73fb 9bbd 25c7 23bd 582f d4bd
000000d0: 1390 713e 351e 87bd a06a 1abd 7ec9 cabd
000000e0: a9a5 abbd 90bd 2abe 6043 d9bc f4b6 08bd
000000f0: b374 8dbd fd07 1ebe ead6 e2bd cc34 d53b
00000100: 4679 09bd a04d f5be 7b6b 0ebe f50a 3cbd
00000110: 2c88 17bf cc21 31be fec3 37be fd5f a53e
00000120: 41c5 f73e 562a a6bd 0139 06be ceb5 2fbe
00000130: b29c d8bd 4972 10bd 979c 80be 79ea 2a3f
00000140: a8da 39bf a4e7 d03e a56d dbbe 940a ff3b
00000150: c3fa ccbd 36de 40bd b141 86bd e0d9 a0bd
00000160: 27dc 15bc 4160 7ebd 3f16 cabd 9ca3 6fbd
00000170: c72f 573e 2b34 183e 283f 1dbe 4ed5 71bd
00000180: 7b67 83be 5326 033f 5ea8 86bd d862 263b
00000190: 7517 b7bd c7c3 f3bd 24d6 c7bd 8c45 41bc
000001a0: 1123 44bd 4530 98bd 00c0 d6bc 5c7b c0bd
000001b0: 5b9d 09be 5f8a 3abd f2a3 1c3e 6952 8fbd
000001c0: 6574 bcbe 6961 04be 5be0 12be f156 4e3e
000001d0: 5376 38be 1725 0abe 1ccd a1bd c76e 19be
000001e0: 09a9 01bd b8dd 03bd 5e75 d5bd 3df3 4abd
000001f0: fdd5 b0bd 411b 5cbc a3d8 8cbd 6c37 743f
-0.2792231 -0.077446625 -0.019896625 0.011971772 0.29638326 -0.12650315 0.7143913 -0.079875715
-0.57227737 -0.12284525 0.018698955 0.741234 -0.25958467 -0.09815499 0.6268234 -0.09159382
-0.2666106 -0.12731166 -0.13366313 -0.30709457 0.032007523 -0.11799346 -0.16245481 -0.09938451
-0.08678299 -0.067093074 -0.111702375 -0.061521206 -0.04964024 -0.29057744 -0.05844011 0.7589748
-0.08676524 -0.11767257 0.4444281 -0.123959996 -0.122872956 0.3759072 -0.20031033 -0.16710348
-0.08705763 -0.08731396 0.06782418 -0.09841924 0.011788852 -0.033079606 0.09609412 0.7670843
-0.047405966 -0.076163195 -0.03998484 -0.103605926 0.23590116 -0.065975584 -0.03769934 -0.09901713
-0.083812065 -0.16673875 -0.026521385 -0.033377603 -0.06907024 -0.15432735 -0.11076148 0.006506538
-0.03356292 -0.47910786 -0.13908188 -0.045908887 -0.59192157 -0.17298049 -0.17945859 0.32299796
0.4839268 -0.08113544 -0.13107683 -0.17159197 -0.10576762 -0.03526524 -0.2511947 0.66764027
-0.7259927 0.40801728 -0.4285709 0.0077832434 -0.100087665 -0.047086917 -0.065554984 -0.07854056
-0.009146727 -0.062103514 -0.09867524 -0.05850564 0.2101432 0.1486365 -0.15356123 -0.059041314
-0.25664887 0.51230353 -0.06575082 0.0025388505 -0.08940021 -0.11902576 -0.09757641 -0.011796366
-0.047885004 -0.07431082 -0.0262146 -0.09398529 -0.13438933 -0.045542117 0.15296915 -0.0699814
-0.36807552 -0.12927784 -0.14343397 0.20150353 -0.18013887 -0.13490711 -0.0790045 -0.14983664
-0.031655345 -0.03219387 -0.10422777 -0.049548376 -0.08634565 -0.013434232 -0.06877258 0.9539707

sequential.4.weight f4 [1, 128]
00000000: 8385 0bbc 0aee da3d bd4e e43c 5f79 a13d
00000010: 94c5 8bbe 862e b4bc 4e5b 9dbe 0f1a 273d
00000020: 3b6b 4f3e 26ca d73c 1067 19be 7b5e 2e3e
00000030: 95fe 983b 1632 dcbd 55da ef3e 150b e1bc
00000040: 3e89 e63c 0598 c6bc 987e b7bb e63e 003d
00000050: 0d2f 9c3d 7f22 15bb f786 103c 5d67 5d3d
00000060: b967 2a3b 464e 71bb a157 d63c 2a77 51bd
00000070: b82d 47bc 8e4c 00bd 10ba e9bb 506c 20bf
00000080: d4ee e7bc ff02 6ebb e184 1c3e 5f0c 383b
00000090: 45cb b23c f33e 5fbe ed0d a43d 202c 863c
000000a0: 307c f5bc 6efe 1dbc 3fd6 703e c917 ad3b
000000b0: 4a5b 3ebc 4261 cebc 8393 813e 512a 693e
000000c0: dfb9 063c d92d 633b 1819 f5bc 3c22 e23c
000000d0: cf64 19bf 0ee0 55bc 44b6 58bd baa2 acbc
000000e0: b848 163d 57fc ac3e 1e2b 6e3a d354 6fbb
000000f0: 8958 563a 629f fcba aed2 9b3c c212 293e
00000100: 9ecc 2cbb 060a 9e3f 13bf 643e f276 423d
00000110: d4ea d7bb 01ee 163e 4a3e dc3a f981 41bf
00000120: 5bf8 333f 232f b6bc 50dd 1abe 4898 e03e
00000130: 168e babc 34db bc3c 0939 f3bb 97dd e43e
00000140: b9a5 afbf 23e2 f8be 1f17 9f3d 0c40 4cbe
00000150: df29 bbbc 2278 3ebb e400 dd3c b2ef 01ba
00000160: a026 52ba 7b77 093d e723 fb3e 2007 d0bc
00000170: 213d 17be 8649 883e 4320 29bd bc6b b3bc
00000180: 5800 133e 7a7c a8bd 4235 a03a 5379 76bc
00000190: fd0d ef3d 9fb4 c03c 4c75 d4bc bc63 ac3e
000001a0: dcb3 af3c 3d87 f0bc f5b1 aabb eeed ae3c
000001b0: cc73 5c3c 6981 ff3d da0f d33e 0e1b 093d
000001c0: 7dfe f13c ba52 4a3c 2043 2fbd f0d3 e03e
000001d0: a859 26bb 7916 15bc 612f 84ba e941 f5bc
000001e0: 7386 75bb e76b 8b3a ba68 fcbb a3f2 9d3c
000001f0: 6f21 ae3b 24f4 72bc b977 37bc dc7e 6c3e
-0.008515718 0.106899336 0.027869577 0.07884478 -0.27299178 -0.02199484 -0.30733722 0.040796336
0.20255749 0.02634151 -0.14980721 0.17028229 0.0046690204 -0.10751741 0.46846262 -0.027471105
0.028141614 -0.02424241 -0.005599808 0.031309985 0.07626162 -0.0022756157 0.008821241 0.054053653
0.0026001765 -0.0036820336 0.026164832 -0.051139034 -0.012156896 -0.03132301 -0.007132776 -0.6266527
-0.028312124 -0.0036317704 0.15285064 0.0028083546 0.021825442 -0.21801357 0.08010469 0.016378462
-0.029966444 -0.00964318 0.23519228 0.0052823764 -0.011618445 -0.02519286 0.25307855 0.22770049
0.008223026 0.0034664779 -0.029919192 0.027604215 -0.59919447 -0.013053907 -0.052908197 -0.021073688
0.036690444 0.3378627 0.00090854045 -0.0036519065 0.0008176645 -0.0019273574 0.019021358 0.16511062
-0.0026367079 1.2346809 0.22338514 0.047476716 -0.006589273 0.14739229 0.0016803232 -0.7558895
0.70300835 -0.022239273 -0.15123487 0.4386618 -0.02277283 0.023053743 -0.0074225706 0.4470031
-1.372245 -0.4861003 0.07768082 -0.19946307 -0.022847114 -0.0029063304 0.026977964 -0.0004956677
-0.000801662 0.03356121 0.4905083 -0.025394022 -0.14769413 0.26618594 -0.041290533 -0.021901958
0.143556 -0.08226867 0.0012222903 -0.015043574 0.1167259 0.023523627 -0.025934838 0.3366984
0.021448068 -0.029361362 -0.0052092024 0.021353688 0.0134553425 0.12475855 0.4122303 0.033473067
0.029540295 0.012348825 -0.042788625 0.43911695 -0.002538303 -0.009099596 -0.0010084921 -0.029938655
-0.0037464171 0.0010637016 -0.007702914 0.019280737 0.005314044 -0.0148287155 -0.011197978 0.23095268
