inverse_trainer/logs/model_logs/state_evaluators/state_evaluator_02.09-21:50.pth (torch, 71696 bytes, 5 tensors)

sequential.0.weight f4 [128, 3]
0	0xbebb9359	-0.36635855
1	0x3db54492	0.088509694
2	0xbf802919	-1.0012542
3	0xbd96590b	-0.07341202
4	0xbe2639f2	-0.16233042
5	0xbf75ea85	-0.96060973
6	0xbea79e76	-0.32738084
7	0x3e9599b6	0.29218835
8	0xbdfca92f	-0.12336957
9	0x3ed72b28	0.42025113
10	0xbf8ea644	-1.114449
11	0xbfd4c6f0	-1.6623211
12	0x3c690782	0.014222981
13	0x3e0c2da0	0.1368928
14	0x3dd05f35	0.10174409
15	0x3e228dc9	0.15874399
16	0xbd9d56d6	-0.07682578
17	0xbf7def74	-0.991935
18	0x3e92cde9	0.28672722
19	0x3e4fb860	0.20285177
20	0x3f12c4bf	0.5733146
21	0x3ad54f2c	0.0016274205
22	0x3f42bc0c	0.76068187
23	0xbfed6479	-1.8546287
24	0x3ed26e13	0.41099605
25	0x3f58c89c	0.84681106
26	0x402221eb	2.5333202
27	0xbf0837f7	-0.53210396
28	0x3e97ce9c	0.29649818
29	0x3e9bd116	0.30432957
30	0x3db5b7d8	0.08872956
31	0x3e415adf	0.18882321
32	0xc0382a20	-2.877571
33	0x3f875670	1.0573254
34	0x3f475de6	0.7787765
35	0xbf88f4e4	-1.0699735
36	0xbc420f56	-0.011844477
37	0xbe250bdf	-0.1611781
38	0xbf41be06	-0.7568058
39	0xbbd23624	-0.0064151455
40	0x3ed00686	0.40629977
41	0x40a5ead5	5.184916
42	0x3f8360d1	1.0263921
43	0xbf21aa75	-0.6315072
44	0xbf206284	-0.6265032
45	0x3e69b895	0.22824319
46	0x3dc3352c	0.09531626
47	0xc000b372	-2.0109525
48	0x3da91f76	0.08257954
49	0x3f43cabf	0.7648124
50	0x3eb63d23	0.3559352
51	0x3f9dc506	1.2325752
52	0x3d157cb1	0.036495868
53	0x4028aa40	2.6353912
54	0x3ebab9ff	0.3647003
55	0x3e7e5f2c	0.24840993
56	0x3e087fe8	0.13330042
57	0xbcf3a342	-0.029740933
58	0x3f8d68a3	1.1047558
59	0xc04e5c5c	-3.2243872
60	0x3e91ed4c	0.28501356
61	0x3ecc1925	0.39862934
62	0x3e50ce1e	0.20391127
63	0xbdea00c5	-0.11425928
64	0xbf830409	-1.0235606
65	0xbe828396	-0.25491017
66	0x3e006331	0.12537839
67	0x3ed2046a	0.41018993
68	0xbe21fd70	-0.15819335
69	0x3e5fa7b3	0.21841316
70	0x3e15ea0b	0.14640062
71	0xc00dcea1	-2.2157366
72	0xbf847f35	-1.035132
73	0xbe66dc0c	-0.22544879
74	0x405fbf21	3.4960406
75	0x3e1fdd59	0.15611781
76	0xbe4dba73	-0.20090656
77	0x3ef9194d	0.48652115
78	0xbe7ed7bd	-0.24886985
79	0xbf6fb940	-0.93642044
80	0x3f8d0fda	1.1020463
81	0xbcaa0d87	-0.020758403
82	0x3f21c03b	0.63183945
83	0xbfb63b9b	-1.423694
84	0x3d9c2b37	0.0762543
85	0x3debd4d1	0.11515201
86	0xbfc57bfd	-1.5428463
87	0x3f56b668	0.8387208
88	0x3f5dd6b4	0.86655736
89	0xc00be2d0	-2.1857185
90	0x3db7ed72	0.08980836
91	0xbde972f8	-0.11398882
92	0xbe32cbe9	-0.17460598
93	0xbe0ad560	-0.13557959
94	0xbe924010	-0.285645
95	0x3ea4e956	0.3220927
96	0x3f3f136e	0.7463902
97	0x3f414d3b	0.7550847
98	0x3edc2704	0.42998517
99	0xbe1f8f6c	-0.15582055
100	0xbd483b5e	-0.048884742
101	0xbfb11b73	-1.3836502
102	0x3e031525	0.12801035
103	0x3f8ec0bc	1.1152568
104	0x3feae3f7	1.8350819
105	0x3bd8d3ab	0.0066170297
106	0xbe0d061f	-0.13771866
107	0xbfff9066	-1.9965942
108	0x3cfb79c6	0.030697715
109	0xbe939b15	-0.28829256
110	0xc02ce541	-2.7014925
111	0xbd771c02	-0.060329445
112	0xbcf50e5e	-0.029914077
113	0xbf0d0f8d	-0.55101854
114	0xbda77c98	-0.08178061
115	0x3e0b0571	0.13576294
116	0x3ebf56ad	0.37370816
117	0x3fae4fac	1.3618064
118	0x3e0796af	0.13241075
119	0xbed6ad83	-0.41929254
120	0x3e5bd0b4	0.21466333
121	0x3c2fa01e	0.010719327
122	0xbf71d6f8	-0.9446864
123	0xbf6ea749	-0.93224007
124	0xbf3d6c75	-0.7399362
125	0x3ec4ed77	0.3846242
126	0xbf189c5e	-0.596136
127	0x3f2bda44	0.6712992
128	0x3ffd3e7a	1.9784691
129	0x3e00eb4a	0.12589756
130	0xbd9dc80a	-0.0770417
131	0x3d12e48e	0.035862498
132	0xbea0b6b3	-0.31389388
133	0x3e9eacba	0.30991155
134	0xbe442002	-0.19152835
135	0x3f65ecf4	0.89814687
136	0x3f03d8c5	0.5150264
137	0x3ea293d9	0.31753424
138	0xbe0b32d7	-0.13593613
139	0xbf33c53a	-0.7022282
140	0x3f4502dc	0.7695749
141	0x3da6f32d	0.08151851
142	0x3ec463b7	0.38357326
143	0xc0cfadc1	-6.48996
144	0xbec50313	-0.38478908
145	0x3edbccd0	0.42929697
146	0x40297da8	2.6482944
147	0xbf04e75b	-0.5191552
148	0x3f1585dd	0.58407384
149	0x3fbd74d7	1.4801282
150	0x3e95fcf4	0.2929455
151	0x3f52a350	0.82280445
152	0x3f7a9304	0.9788058
153	0x3f2942bc	0.66117454
154	0x3f729185	0.94753295
155	0x3fd998fb	1.6999811
156	0xbe80bdf4	-0.25144923
157	0xbf2b37ac	-0.66881824
158	0x3ea2f976	0.3183095
159	0x3e8b8809	0.27252224
160	0x3f85254a	1.0402005
161	0x3fe474bf	1.7848128
162	0x3d3fa65c	0.046789512
163	0xbaf81dc4	-0.0018929769
164	0x3ed246d0	0.4106965
165	0x3e29c9fb	0.16580956
166	0x3f731b43	0.94963473
167	0xbf6803fd	-0.90631086
168	0xbf8ea9f7	-1.1145619
169	0x3f6aca0f	0.91714567
170	0x3fe6db4b	1.8035673
171	0x3c8aef81	0.016959907
172	0xbe17deca	-0.14831081
173	0xbfc76a56	-1.5579326
174	0x3d8878a5	0.06663636
175	0xbe3eff3e	-0.18652055
176	0xbff8299e	-1.93877
177	0x3bc2ff52	0.0059508467
178	0xbdf127e6	-0.11775188
179	0x3e6dce2d	0.23223181
180	0xbe7d6c75	-0.24748404
181	0xbf52b877	-0.8231272
182	0x3e9db80a	0.30804473
183	0x3de2c94d	0.11073551
184	0xbf29b384	-0.66289544
185	0xbf155b36	-0.583423
186	0x3c7aed25	0.015315329
187	0x3ded1ec9	0.115781374
188	0x3edbed42	0.4295445
189	0x3d221051	0.03956634
190	0x3e5beba0	0.21476603
191	0x3ecf23f8	0.4045713
192	0xbeff8432	-0.49905545
193	0x3ec82044	0.39087117
194	0x3ec4991a	0.38398057
195	0xbf759837	-0.95935386
196	0x3cd2947d	0.02570557
197	0x3f5ddac2	0.8666192
198	0x3f259ff0	0.6469717
199	0x3f3e994c	0.7445266
200	0xbf84daa2	-1.0379221
201	0x3df800b6	0.121095106
202	0x3f17fd62	0.59371006
203	0xbf9ce774	-1.2258134
204	0x3dff9743	0.12480023
205	0x3ee70f4e	0.45128864
206	0xc0ac3c3f	-5.3823543
207	0xbe1b824c	-0.15186423
208	0xbf801523	-1.000645
209	0xbe5295c5	-0.20564945
210	0xbeaf2a06	-0.3421175
211	0x3ebe2252	0.3713556
212	0x3e6de00d	0.2323
213	0x3f224ef7	0.6340174
214	0xbf548189	-0.83010155
215	0x3f0cb13c	0.5495794
216	0x3daa7b3d	0.08324287
217	0x3e38fa76	0.18064293
218	0xbefe883f	-0.49713323
219	0x3ef4590f	0.47724196
220	0x3ef27919	0.47358015
221	0xbea6f108	-0.32605767
222	0x3df3d053	0.11904969
223	0x3da62462	0.08112408
224	0x3d656759	0.056006763
225	0x3e9c7aa7	0.30562326
226	0x3e7a3791	0.2443526
227	0x3eab209e	0.33423322
228	0xbcc15ea5	-0.0236047
229	0xbe10b9c1	-0.1413336
230	0xbf3dc598	-0.7412963
231	0xbe31087f	-0.17288397
232	0x3fa82b9a	1.3138306
233	0xbfe8678a	-1.8156598
234	0xbdacde64	-0.08440855
235	0x3ea5d88e	0.3239178
236	0x40a15799	5.041943
237	0xbdc23762	-0.0948322
238	0x3ef5a3bc	0.47976482
239	0x3eec7a45	0.46187034
240	0x3d7adbf8	0.061244935
241	0xbd2add2a	-0.041714825
242	0xbd5d8f39	-0.054091666
243	0xbe4dc3d0	-0.20094228
244	0x3d4fb3b9	0.050708506
245	0x3e28071a	0.16408959
246	0xbd457a63	-0.04821242
247	0xbf2e5c8a	-0.68109953
248	0xc01a7d3b	-2.4138935
249	0xbd20da10	-0.03927046
250	0x3de3147f	0.11087894
251	0x3e6fcd34	0.23418123
252	0xbcef638e	-0.029222276
253	0xbd9904ae	-0.07471596
254	0xbffd8980	-1.9807587
255	0x3d721aa3	0.059107434

sequential.0.bias f4 [128]
0	0xbed25902	-0.41083533
1	0xbe401d4e	-0.18761179
2	0xbe7a35a3	-0.24434523
3	0x3ca85c91	0.020551952
4	0xbc40d5d7	-0.011769733
5	0xbe58ebcc	-0.211837
6	0xbeb40880	-0.35162735
7	0x3ee3245d	0.4436368
8	0x3ec461be	0.3835582
9	0xbeb4bd84	-0.3530084
10	0x3d0ad7bb	0.033897143
11	0x3ee91c1e	0.45529264
12	0xbe2e4cfc	-0.17021555
13	0x3e7197ce	0.23593065
14	0xbf2a2763	-0.6646635
15	0xbe21bc48	-0.1579448
16	0x3ee25e3b	0.44212517
17	0xbdc8ba87	-0.09801202
18	0xbe6e1a34	-0.23252183
19	0x3ea2b81e	0.31781095
20	0xbf0339ef	-0.51260275
21	0xbf1bf7dd	-0.60925084
22	0xbe84aff4	-0.25915492
23	0x3dcd70bb	0.10031267
24	0xbeb7250c	-0.35770452
25	0xbee5e9f7	-0.44905064
26	0xbf1e2e7c	-0.6178968
27	0x3d8ee8d8	0.06978005
28	0xbdffe29e	-0.12494396
29	0x3e024778	0.12722576
30	0xbf0e5723	-0.5560171
31	0xbed73216	-0.420304
32	0xbc958039	-0.018249618
33	0xbe6761c6	-0.22595891
34	0x3ea51e1e	0.3224954
35	0xbe2ee3bb	-0.1707906
36	0xbe1bb526	-0.15205821
37	0xbe64f619	-0.22359504
38	0xbe95dd1b	-0.29270253
39	0xbe7b65f0	-0.24550605
40	0xbe619f44	-0.22033411
41	0xbf24dcd3	-0.6439945
42	0x3e89aa26	0.26887625
43	0xbe23293c	-0.15933698
44	0xbeb69ad0	-0.35664988
45	0x3df1b326	0.11801748
46	0xbf110c3f	-0.5665931
47	0x3e0f1bf5	0.13975509
48	0x3e39b171	0.18134095
49	0x3e6fcc7e	0.23417851
50	0x3e2efcfa	0.1708869
51	0x3e93dab5	0.28877798
52	0xbf0f99fd	-0.5609434
53	0x3e91f85f	0.28509805
54	0xbe6a91ee	-0.2290723
55	0x3ede8a28	0.4346478
56	0x3e1f8238	0.15577018
57	0xbe07ec10	-0.13273644
58	0xbe415573	-0.18880253
59	0xbe202036	-0.15637287
60	0xbf0b2a96	-0.54361856
61	0xbd95c1c5	-0.07312349
62	0xbe0f13ce	-0.13972399
63	0xbefa6d71	-0.48911622
64	0xbefde5b4	-0.49589312
65	0xbc921c9c	-0.017835908
66	0x3de51c94	0.111870915
67	0x3eb2327c	0.34804142
68	0x3e289e7f	0.16466711
69	0xbf1c9322	-0.61162007
70	0x3e132e92	0.14373234
71	0xbef78d28	-0.4834988
72	0xbdd2c5e1	-0.10291649
73	0xbf099b06	-0.5375217
74	0xbe0b4b03	-0.13602833
75	0xbe99257e	-0.29911417
76	0xbe2fdb8c	-0.17173594
77	0x3ebfc3e1	0.3745413
78	0x3ded9f73	0.11602678
79	0xbf0c7b73	-0.5487587
80	0xbe17d7fb	-0.14828484
81	0xbe5db5c1	-0.21651365
82	0xbd62b10f	-0.055344637
83	0xbdf65605	-0.12028126
84	0xbdc31eba	-0.09527345
85	0xbe340424	-0.17579705
86	0x3e2e4cc6	0.17021474
87	0x3d627f51	0.0552972
88	0xb9da832f	-0.0004167794
89	0xbe309618	-0.17244756
90	0xbe3edf97	-0.1863998
91	0xbc4487e7	-0.011995292
92	0x3dd47cbd	0.103753544
93	0xbf4ea7f6	-0.8072504
94	0x3df244e9	0.1182955
95	0x3eac1022	0.33606058
96	0xbe9e51b6	-0.30921715
97	0xbd8c7bc9	-0.06859548
98	0x3ebafec0	0.36522484
99	0xbf0dc4eb	-0.553786
100	0xbdab8924	-0.08375767
101	0x3eb56dd8	0.35435367
102	0xbe0708c5	-0.13186939
103	0xbaa8c03a	-0.0012874671
104	0xbe07a77f	-0.13247488
105	0xbf34895d	-0.705221
106	0x3f022dfa	0.50851405
107	0xbeb5eb7d	-0.35531226
108	0xbe62c025	-0.2214361
109	0xbf07ac14	-0.52996945
110	0x3e8504f8	0.25980353
111	0x3e940a5a	0.28914148
112	0x3e80f6c2	0.2518826
113	0xbdc88936	-0.09791796
114	0xbed0bcca	-0.40769035
115	0xbeb577a7	-0.3544285
116	0xbe205c5c	-0.15660232
117	0x3dae644b	0.08515223
118	0x3eb2576b	0.3483232
119	0x3e70076a	0.23440328
120	0xbf1c9410	-0.61163425
121	0xbef08f10	-0.46984148
122	0xbe09cc30	-0.13456798
123	0xbd18c829	-0.037300263
124	0x3eb301a1	0.3496218
125	0xbe9ba036	-0.3039567
126	0x3ee7040a	0.4512027
127	0xbd7ee93d	-0.062234152

sequential.2.weight f4 [128, 128]
0	0xbe6773ce	-0.2260277
1	0xbd716075	-0.05892988
2	0x3da91e49	0.082577296
3	0xbee9274f	-0.45537803
4	0x3d91b3dc	0.071143836
5	0xbd182b49	-0.037150655
6	0x3c2d4036	0.010574391
7	0xbdb3cbdd	-0.08779118
8	0x3e132a92	0.14371708
9	0xbca03d57	-0.0195605
10	0x3cf5e4ed	0.030016387
11	0x3d01da57	0.031702366
12	0x3bb2e67d	0.0054596053
13	0xbdd00c78	-0.10158628
14	0x3f4bacf5	0.79560786
15	0xbe821827	-0.25409052
16	0xbe1950a7	-0.14972173
17	0xbdeac826	-0.114639565
18	0x3d674853	0.056465458
19	0x3f241982	0.6410142
20	0xbd62e8b6	-0.05539771
21	0xbe526d72	-0.20549563
22	0x3d5075ea	0.0508937
23	0xbd808631	-0.06275595
24	0x3dad6df1	0.08468235
25	0x3d301406	0.042987846
26	0xbebe91b6	-0.37220544
27	0x3b478354	0.0030443268
28	0xbdb1ff7b	-0.08691307
29	0x3f29365b	0.66098565
30	0x3dc1c4c2	0.09461357
31	0x3d89a997	0.067218
32	0x3dd654b8	0.104653776
33	0xbe92e05a	-0.28686792
34	0x3ee625a5	0.44950595
35	0xbe9d5169	-0.30726174
36	0x3d2ea074	0.04263349
37	0xbdfa9636	-0.12235682
38	0xbb90345d	-0.0044007734
39	0x3e9e3d53	0.30906162
40	0xbecf6a01	-0.40510562
41	0x4056fa8d	3.3590424
42	0x3e994f4e	0.29943317
43	0xbd831365	-0.064001836
44	0x3d2eec16	0.042705618
45	0x3eb28d18	0.3487327
46	0xbed13add	-0.40865222
47	0x3e5fa0f3	0.21838741
48	0x3e5ee9f3	0.21768932
49	0x3e3fdf9a	0.18737641
50	0x3e7867e0	0.24258375
51	0x3f2b4a17	0.6690993
52	0xbdefed42	-0.11715175
53	0x3f0e97f2	0.557006
54	0xbd05884e	-0.032600693
55	0x3ebb7b93	0.36617717
56	0x3f1014ef	0.5628194
57	0xbe881993	-0.26582012
58	0xbe7da39a	-0.2476944
59	0x3de5eed8	0.112271965
60	0xbe696b43	-0.22794823
61	0xbe7cb65b	-0.24678938
62	0xbd9ae0d4	-0.07562414
63	0xbd2c0562	-0.04199732
64	0x3db3fdc4	0.08788636
65	0x3ea6f188	0.3260615
66	0x3eec704e	0.46179432
67	0xbe04b298	-0.12958753
68	0x3dc207f3	0.094741724
69	0xbdc38a09	-0.095478125
70	0xbce32265	-0.027726362
71	0x3e97f9e9	0.29682854
72	0xbe2aa67d	-0.16665073
73	0x3d1416f3	0.0361547
74	0xbd8ce2b3	-0.06879177
75	0xbd019e25	-0.03164496
76	0x3de57511	0.11203969
77	0x3f4096db	0.7523019
78	0x3dfebb73	0.12438097
79	0x3d4b48d1	0.04962999
80	0xbd293fe7	-0.041320708
81	0x3be824b3	0.007084453
82	0xbe82a051	-0.25512937
83	0x3d9f65a1	0.07783056
84	0xbdc46b0c	-0.0959073
85	0xbd69a2dd	-0.057040084
86	0xbf41a80a	-0.7564703
87	0x3e999803	0.29998788
88	0x3eac414c	0.33643568
89	0xbe28b801	-0.16476442
90	0xbef6db99	-0.48214415
91	0xbea0cc3e	-0.31405824
92	0x3e9d1ec0	0.30687523
93	0x40243748	2.565874
94	0x3e5660a3	0.20935301
95	0xbacf1e04	-0.0015801792
96	0xbe0994be	-0.13435647
97	0x3cd6832a	0.02618559
98	0x3e9a76ef	0.30168864
99	0xbf488c49	-0.7833906
100	0xbe59da8e	-0.21274778
101	0x3f4e1505	0.80500823
102	0xbdf0ac7f	-0.11751651
103	0x3c7dab96	0.015482804
104	0xbc7f2a1d	-0.015574005
105	0x3fa08083	1.2539219
106	0xbd3bff18	-0.045897573
107	0xbd4b53f1	-0.0496406
108	0x3db6f9c3	0.08934357
109	0x3ca8d9ee	0.02061173
110	0x3f76d4db	0.9641854
111	0x3ecf5642	0.40495497
112	0x3e8a900f	0.27063033
113	0xbe6801b4	-0.226569
114	0x3c2f4ccc	0.010699462
115	0x3d3cee28	0.04612556
116	0x3d17a38e	0.037021212
117	0xbee25899	-0.4420822
118	0xbd203b97	-0.03911933
119	0x3d9d856f	0.07691466
120	0x3ed4c1f7	0.41554233
121	0xbeab893f	-0.33503148
122	0xbe486ca8	-0.19572699
123	0x3d514597	0.051091757
124	0x3f0d6200	0.5522766
125	0x3e3af102	0.18256
126	0xbc037fff	-0.008026122
127	0xbed51bb4	-0.41622698
128	0x3bdc8c5b	0.006730599
129	0x3c3a0ad7	0.0113551235
130	0x3d0bbd23	0.03411592
131	0xbd4848ad	-0.048897434
132	0xbd6ece9f	-0.058302518
133	0x3d3d32d5	0.046191055
134	0xbdabbc71	-0.08385552
135	0xbe27bee4	-0.16381413
136	0xbe81abc3	-0.25326356
137	0x3db1ac55	0.08675448
138	0x3d887ffd	0.06665037
139	0xbe74bf66	-0.23901138
140	0xbda9e061	-0.0829475
141	0x3d081854	0.033226326
142	0xbf7f0c90	-0.99628544
143	0xbd7a3625	-0.061086792
144	0xbe0efa6e	-0.13962719
145	0xbc801565	-0.015635202
146	0x3d86cf78	0.0658254
147	0x3ccf52b5	0.025307992
148	0xbdad3156	-0.08456676
149	0xbf45170a	-0.7698828
150	0x3cca085d	0.024662191
151	0x3dce8ffe	0.10086058
152	0xbe9862bb	-0.29762825
153	0xbc7852d8	-0.01515647
154	0xbf84d2df	-1.0376853
155	0xbd946f23	-0.0724776
156	0xbd2dd9f3	-0.04244418
157	0xbe6dd999	-0.23227538
158	0xbd67993d	-0.056542624
159	0x3d30c856	0.043159805
160	0xbf18fd0e	-0.5976113
161	0x3cdfa8ee	0.027302232
162	0xbdc6bd1a	-0.09704037
163	0xbd979eb7	-0.07403319
164	0xbcab248a	-0.020891447
165	0xbb179eca	-0.0023135417
166	0xbd9f4d49	-0.07778413
167	0x3ca720ad	0.020401323
168	0xbdc3e7c0	-0.09565687
169	0x3ff16dcd	1.8861634
170	0xbe2e65fb	-0.1703109
171	0x3d2fb304	0.042895332
172	0x3d6f4f6e	0.05842536
173	0xbe29f077	-0.16595636
174	0xbf47e255	-0.7807973
175	0xbd8e9b50	-0.06963217
176	0xbe483bad	-0.19554015
177	0xbdef56f1	-0.11686505
178	0xbdc307a6	-0.09522943
179	0xbce5199b	-0.027966311
180	0xbee3fec0	-0.44530296
181	0x3ca72e30	0.020407766
182	0x3c61c36a	0.0137795005
183	0x3e69779c	0.22799534
184	0xbdc7ff9f	-0.09765553
185	0xbda3f466	-0.080056
186	0x3d0f3b65	0.034968752
187	0xbcaa0e5e	-0.020758804
188	0xbf475a9c	-0.77872634
189	0xbc9c5b16	-0.019086402
190	0x3d7b4373	0.06134362
191	0x3c5f44c4	0.013627235
192	0x3d1c36b0	0.03813809
193	0xbe07f4e9	-0.1327702
194	0xbe4673e6	-0.19380149
195	0xbe0635c3	-0.13106446
196	0xbde18fb9	-0.11013741
197	0xbf605067	-0.87622684
198	0xbda3997a	-0.07988258
199	0x3f86a4c2	1.051903
200	0xbd77ed99	-0.060529325
201	0x3d76ef98	0.06028709
202	0x3cc92ddb	0.024557998
203	0x3cf13419	0.029443787
204	0x3d8be873	0.068314455
205	0xbd19877d	-0.037482727
206	0xbe474dd5	-0.19463284
207	0x3ce45dee	0.02787682
208	0x3aa88b7f	0.0012858956
209	0xbd7731bc	-0.060350165
210	0x3bb26731	0.0054444303
211	0x3cad269f	0.02113658
212	0xbde11a0b	-0.109912954
213	0xbcc4bfc2	-0.024017219
214	0xbd36e9e3	-0.044656646
215	0xbe4cf715	-0.2001613
216	0xbda7e6e8	-0.08198339
217	0xbdf19287	-0.11795526
218	0x3cf66c05	0.030080805
219	0xbdcefded	-0.10107026
220	0xbe28c3df	-0.16480969
221	0xc0155192	-2.3331037
222	0x3e57e2e0	0.2108264
223	0xbdfdabd8	-0.12386292
224	0xbea1a0ef	-0.31568095
225	0xbdee9d42	-0.11651088
226	0xbd545f6f	-0.051848825
227	0xbea12b33	-0.3147827
228	0xbda1474c	-0.07874927
229	0xbd720964	-0.059090987
230	0xbd9ac09d	-0.07556269
231	0x3d28a499	0.041172598
232	0x3cb166d2	0.021655474
233	0xbff09f5f	-1.8798636
234	0xbe07aabb	-0.13248722
235	0x3c99973f	0.018748878
236	0xbd850ef9	-0.064969964
237	0xbb71b0fb	-0.003687917
238	0xbf409fee	-0.75244033
239	0xbe88a6d8	-0.26689792
240	0xbdeae43a	-0.11469312
241	0xbb434f8a	-0.0029802048
242	0x3d185219	0.03718767
243	0xbe81666d	-0.25273457
244	0x3ac222f8	0.0014811447
245	0xbd518358	-0.05115065
246	0x3c90c35b	0.017671278
247	0xbe1b7d14	-0.15184432
248	0xbed8a85e	-0.42315954
249	0xbf4f46f6	-0.8096765
250	0x3c0b14eb	0.008488874
251	0x3c81efa6	0.015861344
252	0x3c626540	0.013818085
253	0xbe1b4951	-0.15164687
254	0xbe1d771e	-0.15377471
255	0x3d12dc8a	0.035854854

sequential.2.bias f4 [128]
0	0xbeda937a	-0.4269064
1	0xbc6dca46	-0.014513558
2	0xbd2d5b48	-0.04232338
3	0x3e80c63d	0.25151244
4	0xbe80eaf9	-0.2517927
5	0xbed2cc02	-0.4117127
6	0x3d4c6092	0.049896784
7	0xbe0d380e	-0.13790914
8	0xbc422e90	-0.011851922
9	0xbed577d6	-0.4169299
10	0xbe89b3ab	-0.26894888
11	0xbec3eb1b	-0.3826531
12	0xbd347076	-0.044052564
13	0xbc6f920b	-0.014622222
14	0xbedf4c12	-0.43612725
15	0xbd95c459	-0.07312841
16	0xbe37b4c1	-0.17940046
17	0xbda6f8f2	-0.08152951
18	0x3df2daa0	0.11858106
19	0xbd847ab7	-0.064687185
20	0x3e0f9f22	0.14025548
21	0xbd3d6f4f	-0.04624873
22	0xbe8b4fa6	-0.27209204
23	0xbbc54e5c	-0.006021304
24	0xbccdca64	-0.025120921
25	0xbebf4364	-0.37356102
26	0x3ba08eb8	0.004899826
27	0x3d1290ad	0.035782505
28	0xbe8e1fe4	-0.27758706
29	0x3bc4fb49	0.006011401
30	0x3e06b43b	0.1315469
31	0x3ddfd18a	0.10928638
32	0xbee9b502	-0.4564591
33	0xbd28e36a	-0.041232504
34	0x3c5c73e9	0.0134553695
35	0xbec604b0	-0.3867545
36	0x3e1324ba	0.14369479
37	0x3e9be16a	0.30445415
38	0x3d196127	0.037446167
39	0xbebdffe4	-0.37109292
40	0x3e05a9b6	0.13053021
41	0xbed1fff8	-0.410156
42	0xbc7247e1	-0.014787645
43	0xbeae6d81	-0.3406792
44	0xbda55f87	-0.08074861
45	0xbad1a786	-0.001599536
46	0xbd97d1d3	-0.07413068
47	0xbe3f4137	-0.18677221
48	0xbf3db6c4	-0.74107003
49	0xbea6e4f2	-0.32596546
50	0x3c11daab	0.008902232
51	0xbd6ae535	-0.057347495
52	0xbd67291c	-0.05643569
53	0xbd7b79d0	-0.061395466
54	0xbcf93e80	-0.03042531
55	0xbd24d2f3	-0.04024024
56	0xbef5a476	-0.47977036
57	0xbf16f69c	-0.58970046
58	0xbba1d83b	-0.0049391068
59	0xbe8dfab6	-0.2773034
60	0xbcbbe7fe	-0.022937771
61	0xbe1f1f36	-0.1553925
62	0xbecd2fb1	-0.40075448
63	0xbc2b44d1	-0.010453419
64	0xbd855d8e	-0.06511985
65	0x3c3bef07	0.011470563
66	0xbf06da52	-0.5267688
67	0xbec59681	-0.38591388
68	0x3d48c709	0.04901794
69	0xbebfb3dd	-0.37441912
70	0xbe991562	-0.29899126
71	0xb9e0f17c	-0.0004290453
72	0xbe56113a	-0.20905009
73	0x3b4da9c2	0.00313817
74	0x3b5f8aae	0.003410976
75	0xbdd40c87	-0.10353952
76	0xbd02b5cc	-0.031911656
77	0xbdfd14b5	-0.12357465
78	0xbde2cbbb	-0.11074015
79	0xbd807d89	-0.06273944
80	0xbf1c1f05	-0.6098483
81	0xbebcd155	-0.36878458
82	0xbe4526e8	-0.19253123
83	0xbe9fff44	-0.3124944
84	0xbed7ccc1	-0.42148402
85	0xbec7fe1e	-0.39061064
86	0xbdca753f	-0.09885644
87	0xbd8ab2e1	-0.067724
88	0xbd35729d	-0.044298757
89	0xbd972e43	-0.073818706
90	0xbd0eddde	-0.034879558
91	0xbd3aed05	-0.045636196
92	0xbebe9380	-0.3722191
93	0xbf01b416	-0.50665414
94	0xbee016a4	-0.43767273
95	0xbd915bf4	-0.07097617
96	0xbd14d34b	-0.036334317
97	0x3e0d6490	0.13807893
98	0x3cce7f67	0.025207235
99	0xbe7beb55	-0.24601491
100	0xbd314db1	-0.043286983
101	0xbda0eeb1	-0.07858027
102	0xbd701b13	-0.05861957
103	0xbdab1b72	-0.08354844
104	0xbc972373	-0.01844952
105	0xbe844f8a	-0.25841933
106	0xbe009b66	-0.1255928
107	0x3d244c3b	0.04011176
108	0xbe1d2f96	-0.15350184
109	0xbed30d81	-0.4122124
110	0xbe4f4d90	-0.20244431
111	0xbe0210d8	-0.12701738
112	0xbdd82d13	-0.10555472
113	0xbdb47f73	-0.088133715
114	0xbe4be932	-0.19913176
115	0xbdadbfa8	-0.08483821
116	0xbecc9a78	-0.399616
117	0xbeb47002	-0.35241705
118	0x3dcd93ff	0.10037994
119	0xbe23222a	-0.15931001
120	0xbe6a229d	-0.22864766
121	0x3c4c1b1d	0.012457636
122	0x3dbf29a7	0.093341164
123	0xbd627445	-0.055286665
124	0x3d9cc689	0.07655055
125	0xbdb2acbb	-0.08724352
126	0x3c01e857	0.007928929
127	0xbedd29ed	-0.4319605

sequential.4.weight f4 [1, 128]
0	0x3e418a9f	0.18900536
1	0x3cc34886	0.023838293
2	0xbd2a65e8	-0.04160109
3	0xbf8ab60b	-1.0836805
4	0x3e07c07a	0.13257018
5	0xbdc4b637	-0.09605067
6	0xbf1ce282	-0.61283123
7	0x3baa171e	0.005190744
8	0x3d3924d2	0.04520113
9	0xbfd624de	-1.6730001
10	0xbe705908	-0.23471463
11	0x3ebd3f67	0.36962435
12	0xbb0fd8e2	-0.002194934
13	0x3c6b462f	0.014359995
14	0x3ddafbae	0.10692535
15	0xbd1c5e5f	-0.038175937
16	0xbf97ab1f	-1.1849097
17	0x3a999432	0.0011717139
18	0xbf5ab7f3	-0.85436934
19	0x3cbbc616	0.022921603
20	0xbf729f8b	-0.94774693
21	0xbbfcbe67	-0.0077131274
22	0xbe73709c	-0.23773426
23	0x39c3147c	0.0003720856
24	0xba321d98	-0.0006794571
25	0x3f691bfd	0.9105833
26	0x3d13fb00	0.036128044
27	0x3e1e5676	0.1546267
28	0xbfb2ef48	-1.3979273
29	0x3aff691e	0.0019486283
30	0xbf681e06	-0.9067081
31	0x3f581ba7	0.84417194
32	0x3e558383	0.20850949
33	0x3e6af1a8	0.22943747
34	0x3c02cde1	0.007983656
35	0x3e84c495	0.2593123
36	0xbe2acc23	-0.16679434
37	0xbecb5d82	-0.39719778
38	0x3d42925c	0.04750286
39	0x3eead098	0.4586227
40	0x3f14bb35	0.58098155
41	0x3efc26c4	0.49248326
42	0xbc247888	-0.0100385025
43	0x3e6ac130	0.22925258
44	0x3d894961	0.06703449
45	0xbd2846fd	-0.041083325
46	0xbc973bc0	-0.018461108
47	0xbd169126	-0.036759518
48	0x3f913a85	1.1345984
49	0xbebf3f86	-0.37353152
50	0x3d12a58d	0.035802413
51	0x3bff369e	0.0077884933
52	0xbd1d7b99	-0.03844795
53	0x3c40492e	0.011736197
54	0xbd24c803	-0.04022981
55	0x3e977abe	0.29585832
56	0x3e80db6c	0.25167406
57	0x4091af50	4.5526505
58	0xbd00873e	-0.031378977
59	0x3ca13914	0.019680537
60	0xbc9afe91	-0.018920215
61	0xbf1f895a	-0.62318957
62	0xbfbf5dff	-1.495056
63	0x3d0f3f38	0.0349724
64	0x3b16f042	0.0023031388
65	0xbfa2984f	-1.2702731
66	0x3fa82938	1.3137579
67	0x3e9c4164	0.3051864
68	0xbc41ed0b	-0.011836301
69	0x3f2018fd	0.6253813
70	0x3e739640	0.23787785
71	0xbcebe6b8	-0.028796539
72	0xbe42859c	-0.1899628
73	0xbf9730a6	-1.1811721
74	0xbd293f78	-0.041320294
75	0xbc900455	-0.01758019
76	0xbd59b142	-0.05314756
77	0x3dbd27a3	0.09236076
78	0xbc5e72f9	-0.013577216
79	0x3d4cdc49	0.050014768
80	0x3f62796d	0.8846653
81	0x3e11b6f2	0.14229944
82	0x3f23a342	0.63920987
83	0xbdbbcf67	-0.09170418
84	0x3f318798	0.69347525
85	0x3e4e5b4d	0.20152016
86	0x3d936e66	0.07198791
87	0xbc25f0bd	-0.010128197
88	0xbc2f453e	-0.010697661
89	0xbd56462a	-0.052313007
90	0x3d523587	0.05132058
91	0xbb9044bb	-0.0044027246
92	0x3f061a51	0.52383906
93	0x3f81ad5f	1.0131034
94	0x3fadbfae	1.3574121
95	0x3d45e45e	0.04831349
96	0x3da315c2	0.07963134
97	0x3efc60e2	0.49292666
98	0x3d99776b	0.0749348
99	0x3faf7798	1.3708372
100	0xbc500473	-0.012696373
101	0x3cb3be61	0.021941366
102	0xbda82d6b	-0.08211788
103	0xbbfdbfa2	-0.0077437917
104	0xbcda8a16	-0.026677173
105	0xbed9247b	-0.42410645
106	0x3ad4e183	0.0016241524
107	0x3f149d28	0.580523
108	0xbb4b94f0	-0.0031064115
109	0x3eeda92f	0.4641814
110	0x3eba53fc	0.363922
111	0xbd307910	-0.043084204
112	0xbd444195	-0.047914106
113	0xbd4b569b	-0.04964314
114	0x3ee41632	0.44548184
115	0xbd9bf996	-0.07615964
116	0x3da54fd3	0.08071866
117	0x3eb189d6	0.34675473
118	0xbf08b94e	-0.5340775
119	0xbf3e2bca	-0.74285567
120	0x3d15a465	0.036533732
121	0xbaef66ad	-0.0018264853
122	0x3f7f4466	0.9971374
123	0x3d55eab1	0.052225772
124	0xbf46c75b	-0.7764794
125	0xbc5d7d63	-0.013518664
126	0x3b813c75	0.0039439746
127	0x3edef9f3	0.4355007
