inverse_trainer/models/state_evaluators/best_probabilistic_state_evaluator_02.09-23:52.pth (torch, 72398 bytes, 6 tensors)

sequential.0.weight f4 [128, 3]
0.06258241 -0.06718149 -0.022926673 0.48852748 0.107482806 0.32021567 -0.54390776 0.104916856
0.13961469 0.14243743 0.16299258 -0.12370453 -0.15204298 -0.22915033 -0.13857268 -0.25478005
0.12813476 -0.21969762 -0.2548216 0.37699273 0.39988813 0.1647714 -0.5511722 0.43069077
0.3201382 -0.09636448 -0.40363982 -0.31476474 0.28096777 0.45578113 -0.19834135 0.16067426
-0.08833535 0.23526181 0.0039496096 -0.030926175 0.11605642 0.04241051 0.29205194 0.3698777
0.3051254 -0.19053021 -0.4844951 -0.26068056 -0.15399516 -0.15153185 -0.024911389 -0.028572667
-0.45560983 -0.48345333 -0.12493395 0.08911194 -0.3083193 0.51122725 0.22977564 0.3300589
-0.030735977 0.45330486 0.34329537 0.08399898 0.45629773 0.5028598 -0.42103922 0.51644707
0.072100095 -0.53003824 0.24910465 -0.23465909 -0.28007188 0.33559117 0.21413419 -0.46336144
-0.23139884 0.05948784 0.18449473 -0.23224647 -0.034174263 -0.114006095 0.3646514 0.22468922
0.08929876 0.35732523 0.41957724 0.3614924 0.51317704 -0.30029914 -0.1711688 0.073928356
0.06972971 -0.34665772 -0.2766463 -0.2422305 0.06480363 0.13815917 -0.022529824 -0.609668
-0.34767792 0.34745756 -0.49746054 -0.2662352 0.5280234 -0.5477713 -0.5573098 0.22076474
-0.35311317 -0.28277582 -0.19946733 0.34500736 0.19044778 0.4503409 -0.27087036 -0.028584095
-0.4551049 0.42514798 0.04899243 0.64719 0.42677322 -0.37038547 -0.2297064 0.00010091332
-0.14408052 0.0057827854 -0.41301256 -0.28436273 -0.24204564 -0.015528686 0.21390447 0.17281392
0.2216039 -0.2627606 -0.5659435 -0.31055257 0.3179505 0.022707516 0.24449162 0.27797455
0.315312 0.12158969 0.10192855 -0.41450715 -0.609237 -0.022655834 0.026077794 0.006634492
-0.13646142 -0.16798034 -0.06267329 0.26781687 0.6170846 0.26260075 0.3696873 -0.57965606
-0.33247364 0.35890418 0.30463246 -0.41575152 -0.3861219 0.07274946 0.027189493 -0.3212387
0.06006288 0.16497588 0.3993289 0.3097181 -0.36780992 -0.16018972 0.21361548 -0.15113199
-0.35450384 0.4293368 0.39808106 0.47691792 -0.32249704 -0.5294199 -0.22470443 -0.114223786
0.3503585 -0.3135549 -0.34620976 -0.45929122 0.12650833 -0.33273736 0.4678328 -0.3134949
-0.50842303 -0.40873396 -0.051872607 -0.0069492734 -0.12098692 0.33400348 -0.16162172 0.18878108
0.06904653 -0.0072712456 -0.21665978 -0.037575603 0.50327337 0.4493207 -0.36034396 -0.3626593
-0.19571963 0.32193658 -0.22934641 -0.03823846 -0.2052135 -0.26362264 -0.4498412 0.329756
0.07255626 -0.26563832 0.14052694 -0.06488282 -0.3593309 0.4628972 0.30252263 -0.038312797
0.3036314 0.19774015 -0.41577965 -0.042169366 0.52586645 -0.17699766 -0.30551818 0.19045231
0.045193102 0.13895644 0.43741086 0.3621196 -0.2027607 -0.48455396 0.047165208 0.050028026
-0.21313314 -0.12231563 0.022923704 0.07779691 -0.17271018 -0.18926364 0.56877124 -0.34152633
-0.3952612 -0.07442314 -0.20825365 -0.18172377 -0.52865726 0.35079038 0.37155193 0.11195584
0.08658848 -0.18499605 0.23595376 0.10438044 0.269755 0.10884522 -0.42797887 -0.18184865
00000000: 352b 803d 7396 89bd b8d0 bbbc 4620 fa3e
00000010: f21f dc3d 4ff3 a33e 8a3d 0bbf a6de d63d
00000020: 27f7 0e3e 1edb 113e 87e7 263e cd58 fdbd
00000030: 28b1 1bbe 62a6 6abe ffe5 0dbe 8872 82be
00000040: c235 033e 6af8 60be fa77 82be 3105 c13e
00000050: 23be cc3e d5b9 283e 9f19 0dbf 8083 dc3e
00000060: 27e9 a33e be5a c5bd e1a9 cebe d828 a1be
00000070: 02db 8f3e 255c e93e ff19 4bbe cb87 243e
00000080: 2ae9 b4bd 79e8 703e ba6b 813b e458 fdbc
00000090: fdae ed3d a5b6 2d3d d587 953e 9c60 bd3e
000000a0: 6539 9c3e 5a1a 43be be0f f8be ec77 85be
000000b0: e8b0 1dbe 2a2b 1bbe f812 ccbc 3a11 eabc
000000c0: b145 e9be 3287 f7be 5fdd ffbd 5280 b63d
000000d0: 07dc 9dbe cadf 023f 4e4a 6b3e 7bfd a83e
000000e0: 04ca fbbc 9317 e83e 69c4 af3e a807 ac3d
000000f0: db9f e93e 6bbb 003f 7492 d7be e035 043f
00000100: 37a9 933d 96b0 07bf 4a15 7f3e 794a 70be
00000110: 9565 8fbe 9bd2 ab3e fe45 5b3e b63d edbe
00000120: d1f3 6cbe 85a9 733d 30ec 3c3e 05d2 6dbe
00000130: 50fa 0bbd 077c e9bd 97b3 ba3e ee14 663e
00000140: 45e2 b63d 55f3 b63e d4d2 d63e 8815 b93e
00000150: 925f 033f cfc0 99be e046 2fbe c067 973d
00000160: 73ce 8e3d 1f7d b1be 95a4 8dbe 460b 78be
00000170: c4b7 843d 9979 0d3e 7790 b8bc 3413 1cbf
00000180: d702 b2be f5e5 b13e 26b3 febe fb4f 88be
00000190: 8b2c 073f bd3a 0cbf dbab 0ebf 2710 623e
000001a0: 40cb b4be fec7 90be 2a41 4cbe cea4 b03e
000001b0: be04 433e 1593 e63e 85af 8abe 3129 eabc
000001c0: 8203 e9be ffac d93e 49ac 483d 3eae 253f
000001d0: 0582 da3e 2aa3 bdbe 2838 6bbe 6da1 d338
000001e0: d889 13be 857d bd3b 6276 d3be fe97 91be
000001f0: d0da 77be 086c 7ebc c609 5b3e 22f6 303e
00000200: 22ec 623e 8f88 86be ace1 10bf bf00 9fbe
00000210: 68ca a23e 1d05 ba3c 035c 7a3e ae52 8e3e
00000220: 9370 a13e 0404 f93d eabf d03d 483a d4be
00000230: f5f6 1bbf ba98 b9bc 19a1 d53c 2766 d93b
00000240: 8bbc 0bbe 0a03 2cbe db5a 80bd 4b1f 893e
00000250: 42f9 1d3f 9b73 863e a747 bd3e 5764 14bf
00000260: fc39 aabe 4ac2 b73e c9f8 9b3e 62dd d4be
00000270: c5b1 c5be abfd 943d 80bc de3c 6679 a4be
00000280: 7f04 763d 70ef 283e d674 cc3e 5f93 9e3e
00000290: 9551 bcbe c608 24be 04be 5a3e 58c2 1abe
000002a0: 8781 b5be 08d2 db3e 48d1 cb3e 962e f43e
000002b0: 551e a5be 1088 07bf eb18 66be 29ee e9bd
000002c0: 3062 b33e 458a a0be 6842 b1be 3828 ebbe
000002d0: 668b 013e 8d5c aabe c887 ef3e 6782 a0be
000002e0: 0328 02bf 9445 d1be 5f78 54bd bbb6 e3bb
000002f0: fec7 f7bd 8102 ab3e 2a80 25be d44f 413e
00000300: 4468 8d3d a143 eebb 10dc 5dbe e0e8 19bd
00000310: 86d6 003f 5d0d e63e 017f b8be 7bae b9be
00000320: ba6a 48be dfd4 a43e c9d9 6abe ee9f 1cbd
00000330: 7d23 52be 8cf9 86be 9651 e6be c7d5 a83e
00000340: 6098 943d bf01 88be 4be6 0f3e 49e1 84bd
00000350: 38fa b7be dd00 ed3e 3fe4 9a3e e1ed 1cbd
00000360: 9375 9b3e 657c 4a3e 12e1 d4be c9b9 2cbd
00000370: 2f9f 063f e03e 35be e16c 9cbe ee05 433e
00000380: 671c 393d 994a 0e3e 51f4 df3e bd67 b93e
00000390: 80a0 4fbe 7517 f8be 4e30 413d 30ea 4c3d
000003a0: 933f 5abe 9e80 fabd 7eca bb3c fd53 9f3d
000003b0: f0da 30be 54ce 41be fe9a 113f 8adc aebe
000003c0: ad5f cabe 296b 98bd 7240 55be cc15 3abe
000003d0: 1556 07bf cc9a b33e 0e3c be3e 1a49 e53d
000003e0: 4d55 b13d 9b6f 3dbe dd9d 713e 6ac5 d53d
000003f0: 541d 8a3e 3eea de3d 0c20 dbbe 8836 3abe

sequential.0.bias f4 [128]
-0.25981095 -0.4141166 -0.37621003 -0.0652954 -0.0458594 -0.31346545 0.38696817 0.036479793
-0.016488917 -0.3189392 0.0698918 -0.1729138 0.39766008 -0.13503185 -0.4915546 0.4433272
0.2615775 -0.23856395 0.28903493 0.36224473 0.28695506 -0.4776861 -0.29000482 0.438694
0.45615414 0.1821169 -0.23395829 0.10120485 -0.5295334 0.066511996 -0.5130366 -0.2533826
0.1933979 0.21663713 -0.021350356 -0.13533704 0.020710047 -0.33572385 0.14170873 -0.5287298
-0.31391802 0.14799795 -0.021727081 -0.25850478 0.580296 -0.07083128 -0.46017545 -0.005121443
0.4324574 -0.009078961 -0.4710245 0.112472676 0.073406085 -0.19193736 -0.49318972 0.2928241
-0.23968513 -0.17945413 -0.50427496 -0.40468505 -0.3141658 -0.3322586 -0.31103152 -0.5372407
0.38862166 0.2948571 -0.35752308 0.26267567 0.37942597 -0.08963785 -0.08721411 0.39541337
0.07388369 0.30501455 -0.20472659 -0.25360152 0.38208804 0.13441199 0.028964708 0.21049246
0.38150764 -0.54547715 -0.10357754 -0.036547214 0.27894408 -0.4938902 0.13410951 -0.4441459
-0.31675777 0.35321033 -0.45420092 0.03823411 -0.0568994 -0.10128606 -0.001616031 0.0061215754
-0.3328282 0.06311166 0.5158597 -0.37904632 -0.4522872 0.6230772 0.42374012 0.10250635
-0.1365411 0.1451969 -0.08678244 -0.38210633 -0.48064312 -0.4611593 0.43018258 -0.5279156
-0.5389367 -0.32849008 -0.4004508 -0.23056118 0.037723664 -0.14667578 0.24264993 0.0490056
0.20010895 -0.20136079 -0.08114665 -0.54425204 -0.35794526 0.027916817 0.46719927 -0.40267575
00000000: f105 85be 1707 d4be 9a9e c0be 98b9 85bd
00000010: 11d7 3bbd 8b7e a0be b120 c63e d66b 153d
00000020: c413 87bc 004c a3be 6f23 8f3d 5110 31be
00000030: 1a9a cb3e ca45 0abe 0bad fbbe c8fb e23e
00000040: 7ced 853e 1c4a 74be 63fc 933e 2478 b93e
00000050: c6eb 923e 4693 f4be 837b 94be 809c e03e
00000060: 098d e93e da7c 3a3e c392 6fbe 7d44 cf3d
00000070: 808f 07bf 7137 883d 5e56 03bf 5dbb 81be
00000080: 190a 463e 20d6 5d3e f1e6 aebc cb95 0abe
00000090: 1ea8 a93c ffe3 abbe 181c 113e d65a 07bf
000000a0: ddb9 a0be c68c 173e fefc b1bc bd5a 84be
000000b0: 478e 143f fd0f 91bd 1e9c ebbe c7d1 a7bb
000000c0: 0e6b dd3e ecbf 14bc 202a f1be 1358 e63d
000000d0: ee55 963d 3a8b 44be 5d83 fcbe 0aed 953e
000000e0: 0570 75be d3c2 37be 2a18 01bf e132 cfbe
000000f0: 57da a0be cd1d aabe 863f 9fbe 9b88 09bf
00000100: 6bf9 c63e 83f7 963e 440d b7be 6d7d 863e
00000110: 1f44 c23e 0d94 b7bd 509d b2bd 9f73 ca3e
00000120: 5550 973d de2a 9c3e d9a3 51be 0fd8 81be
00000130: 0ba1 c33e 4ca3 093e 6547 ed3c 568b 573e
00000140: f854 c33e 64a4 0bbf 7620 d4bd 88b2 15bd
00000150: c2d1 8e3e 2ddf fcbe 0154 093e 1767 e3be
00000160: 132e a2be fcd7 b43e 068d e8be 5f9b 1c3d
00000170: 580f 69bd 116f cfbd 01d1 d3ba 7f97 c83b
00000180: 7568 aabe b040 813d 620f 043f 5c12 c2be
00000190: 3092 e7be fd81 1f3f 77f4 d83e d9ee d13d
000001a0: 6ed1 0bbe 7fae 143e feba b1bd 71a3 c3be
000001b0: db16 f6be 121d ecbe e440 dc3e 7a25 07bf
000001c0: c1f7 09bf da2f a8be e307 cdbe 3b18 6cbe
000001d0: 2184 1a3d 2d32 16be 3979 783e 19ba 483d
000001e0: 5ce9 4c3e 8631 4ebe 3730 a6bd 1a54 0bbf
000001f0: 9a44 b7be cfb1 e43c be34 ef3e 842b cebe

sequential.2.weight f4 [128, 128]
0.012800767 0.031253237 0.020229802 0.08739988 -0.015629979 -0.03300922 0.086488575 -0.032581463
0.00091747363 0.058471903 0.08116757 -0.07296435 0.053942613 0.08184611 -0.046667952 -0.06864512
0.070170835 -0.078974806 0.038879223 -0.04921103 -0.061036285 -0.061962284 0.042337615 0.003769909
-0.0008364674 0.034427516 0.065070964 0.023755018 -0.027524589 -0.07517471 -0.007201042 0.0045143804
-0.0035109904 -0.027075367 0.08185376 -0.06819756 0.04536948 0.042756766 0.07224877 0.0766006
0.006066038 0.027714713 -0.023406621 0.035960197 -0.060022034 0.01565474 -0.028473377 -0.08415149
-0.0034058024 -0.054776676 -0.02545207 0.057482548 0.018302785 -0.017774738 0.035964526 -0.060776293
0.053721435 -4.4654586e-05 0.04792539 -0.08597214 0.05691265 0.06745074 -0.008891046 0.047760986
-0.07323544 -0.050604086 0.066455014 -0.05990337 -0.065486684 -0.021158624 0.020501629 0.0017296118
-0.07458591 -0.001093363 -0.04755135 0.04355428 0.01940088 0.0028977434 -0.048176575 -0.033056077
0.041218963 0.011622067 -0.06750189 0.027479196 0.06287214 0.013616224 0.005144381 0.07853084
0.082452856 -0.019072829 -0.042405494 -0.007504889 -0.05886745 -0.019371344 0.021943882 0.084923
0.08500651 0.044601332 0.009652766 -0.025425097 -0.08528294 0.0075797522 -0.07367798 -0.002253613
0.041354496 -0.03385826 -0.021558324 0.07566478 -0.053463478 -0.038028553 -0.081514835 -0.010181214
0.022491928 -0.07875569 -0.066750355 0.018270036 0.03552779 -0.07733673 -0.055681393 0.013681878
0.081238426 -0.07156214 -0.01944646 0.014918414 -0.064506635 -0.019647513 0.04365544 0.080279775
-0.09193998 -0.06672049 -0.06283303 -0.0721393 -0.07195076 -0.10899544 -0.052282143 -0.038093984
-0.023079071 0.048110954 0.010729498 -0.0731729 -0.007973583 0.04514375 -0.0053564934 -0.08771155
0.08083536 0.015996488 -0.10623257 0.07982987 -0.10820479 -0.01193741 -0.066811025 0.030397974
-0.05625956 -0.09410619 0.050870594 0.032880988 0.009508054 -0.011071109 0.025070483 -0.071903504
-0.09679038 0.04859283 -0.06434552 0.025012901 -0.03592019 -0.021385575 -0.049815193 0.002012501
-0.05800816 -0.10658589 0.031866074 0.05468208 -0.0847777 0.0019277969 0.0055959662 0.028327521
-0.095421106 0.07423204 -0.033505034 -0.036999185 -0.018753827 -0.044205446 -0.038706258 -0.046937216
0.08722078 -0.032954276 -0.08728413 0.01438503 -0.07981013 -0.058644608 0.042876367 0.013324452
0.05098126 -0.053720415 -0.030661525 0.030780127 -0.027616318 -0.017546834 -0.03494313 0.013533039
-0.04558878 0.023394506 0.06473588 0.045901172 -0.08334221 -0.09152902 0.051325507 -0.112335406
-0.11026415 -0.020346655 0.0033816628 -0.011920572 -0.04828242 -0.018212957 0.0681243 -0.029350948
-0.03647089 -0.057358243 -0.08971794 -0.067550965 -0.040198937 0.039057076 0.049103383 0.04782896
-0.06470404 -0.08767509 0.07149206 -0.05230073 -0.0065358616 0.046680164 -0.035099074 0.017366868
-0.0059454977 0.054792345 -0.0031065005 0.024687663 -0.08363173 0.058611505 -0.0066226185 0.08295606
0.008853071 -0.064039215 -0.08584217 -0.002093728 0.040599152 0.022192229 -0.020320829 -0.05825294
0.04860538 -0.086830355 -0.052191358 -0.07702413 0.018665021 -0.07081931 -0.03452974 -0.06191141
00000000: 4fba 513c 6503 003d f8b8 a53c b5fe b23d
00000010: 710a 80bc ad34 07bd ec20 b13d 2474 05bd
00000020: 9d82 703a 3c80 6f3d 2f3b a63d 556e 95bd
00000030: eef2 5c3d ef9e a73d e526 3fbd d095 8cbd
00000040: bab5 8f3d 8bbd a1bd d23f 1f3d 8191 49bd
00000050: 2f01 7abd 2acc 7dbd 356a 2d3d 9410 773b
00000060: 6146 5bba de03 0d3d ed43 853d e299 c23c
00000070: 3f7b e1bc 33f5 99bd b8f6 ebbb 5eed 933b
00000080: a518 66bb 29cd ddbc f2a2 a73d 2aab 8bbd
00000090: 59d5 393d b821 2f3d 2af7 933d c6e0 9c3d
000000a0: 9dc5 c63b f709 e33c 3ebf bfbc 004b 133d
000000b0: aad9 75bd 5f3e 803c 0041 e9bc 9e57 acbd
000000c0: e233 5fbb 825d 60bd dc80 d0bc d272 6b3d
000000d0: b9ef 953c 549c 91bc 8a4f 133d 90f0 78bd
000000e0: 020b 5c3d 7f4b 3bb8 6a4d 443d 2912 b0bd
000000f0: 3d1d 693d 9d23 8a3d c0ab 11bc 06a1 433d
00000100: 76fc 95bd 3b46 4fbd 9119 883d 3c5d 75bd
00000110: e21d 86bd da54 adbc 08f3 a73c 24b4 e23a
00000120: 7fc0 98bd 2d4f 8fba 34c5 42bd f965 323d
00000130: 98ee 9e3c 11e8 3d3b cd54 45bd cf65 07bd
00000140: 37d5 283d 7b6a 3e3c 6e3e 8abd 0d1c e13c
00000150: 1cc3 803d 9516 5f3c 3292 a83b c7d4 a03d
00000160: 0bdd a83d 9f3e 9cbc 62b1 2dbd 92eb f5bb
00000170: ff1e 71bd a7b0 9ebc a8c3 b33c 1cec ad3d
00000180: e517 ae3d e3af 363d a326 1e3c 4b48 d0bc
00000190: d2a8 aebd 925f f83b 7be4 96bd 5ab1 13bb
000001a0: 5563 293d f5ae 0abd 159b b0bc 23f6 9a3d
000001b0: 85fc 5abd d4c3 1bbd 40f1 a6bd 1bcf 26bc
000001c0: fe40 b83c aa4a a1bd 69b4 88bd 0bab 953c
000001d0: 9785 113d b862 9ebd 2c12 64bd f529 603c
000001e0: 5560 a63d 2c8f 92bd 2f4e 9fbc 5d6c 743c
000001f0: 0e1c 84bd d2f3 a0bc 0cd0 323d b969 a43d
00000200: 074b bcbd c1a4 88bd 9bae 80bd c5bd 93bd
00000210: ec5a 93bd 0039 dfbd cd25 56bd 7008 1cbd
00000220: 5210 bdbc fe0f 453d c7ca 2f3c acdb 95bd
00000230: a2a3 02bc a7e8 383d 8685 afbb 1da2 b3bd
00000240: 028d a53d 110b 833c 7690 d9bd d87d a33d
00000250: 799a ddbd 2095 43bc 38d4 88bd 2c05 f93c
00000260: 6d70 66bd bfba c0bd af5d 503d 37ae 063d
00000270: abc7 1b3c 9963 35bc 9d60 cd3c 2542 93bd
00000280: 093a c6bd 4609 473d 96c7 83bd dbe7 cc3c
00000290: 0d21 13bd cd30 afbc 040b 4cbd 2ae4 033b
000002a0: f799 6dbd b449 dabd 0086 023d 51fa 5f3d
000002b0: ee9f adbd 21ae fc3a 5e5e b73b 1e0f e83c
000002c0: 246c c3bd f806 983d 933c 09bd 758c 17bd
000002d0: a0a1 99bc c510 35bd 748a 1ebd 3d41 40bd
000002e0: cfa0 b23d 10fb 06bd 06c2 b2bd 30af 6b3c
000002f0: 7e73 a3bd 5435 70bd 219f 2f3d cd4e 5a3c
00000300: bad1 503d f009 5cbd e12d fbbc 9b26 fc3c
00000310: 9e3b e2bc 61be 8fbc 8720 0fbd aeb9 5d3c
00000320: 4dbb 3abd d6a5 bf3c 3f94 843d de02 3c3d
00000330: 52af aabd 9173 bbbd b23a 523d 1b10 e6bd
00000340: 2cd2 e1bd 07ae a6bc e39e 5d3b 814e 43bc
00000350: c9c3 45bd 5733 95bc c184 8b3d 6671 f0bc
00000360: 8062 15bd 7af0 6abd 0abe b7bd 2958 8abd
00000370: a4a7 24bd 50fa 1f3d a120 493d 4de8 433d
00000380: 8d83 84bd ff8e b3bd 6e6a 923d 4a39 56bd
00000390: c82a d6bb b333 3f3d 0cc4 0fbd f644 8e3c
000003a0: 73d2 c2bb f06d 603d 6e96 4bbb c83d ca3c
000003b0: 1d47 abbd 9e12 703d 8d02 d9bb dee4 a93d
000003c0: 790c 113c fe26 83bd 05ce afbd ed36 09bb
000003d0: 4c4b 263d 7acc b53c de77 a6bc a39a 6ebd
000003e0: 6f16 473d 1dd4 b1bd 9bc6 55bd d4be 9dbd
000003f0: 63e7 983c b709 91bd 0f6f 0dbd d296 7dbd

sequential.2.bias f4 [128]
-0.011030062 -0.060315993 0.011326159 -0.022311484 0.0024058053 -0.06173983 -0.002381422 -0.061510615
0.081872635 0.064020135 0.012047065 -0.025995642 -0.03148877 0.044254683 -0.080611944 0.028329741
-0.019422628 0.044079054 -0.060480844 0.06460136 0.01786155 -0.016877336 -0.060382552 -0.02330452
0.054362554 -0.068511896 -0.07204949 0.05216948 -0.05968789 0.047534272 -0.052409865 -0.019603362
-0.034911923 -0.054727357 0.06942019 -0.05740564 -0.0007834361 -0.046926185 0.031344958 -0.035819374
0.031802636 0.015264249 0.032879073 -0.03257576 -0.016556045 -0.05410514 0.029183889 0.059656095
-0.018723097 -0.0024035668 0.00927045 -0.07803213 -0.063745245 0.06967509 -0.07165784 -0.054299377
0.018259054 -0.01096958 0.03763249 0.10377974 -0.047739625 0.032777775 0.042737156 -0.076244816
0.0679843 0.022671456 0.098920524 -0.054168005 -0.046112277 -0.018960187 -0.00899477 0.0054041087
-0.07905343 0.06115921 -0.06487588 -0.06736082 -0.018475337 0.050879553 -0.056831118 0.019134857
-0.022861958 0.042369872 -0.08340934 -0.064071536 -0.0061230916 0.037330486 0.027180277 0.06369499
-0.06817171 0.03561742 -0.09669745 -0.082792655 -0.010737545 0.035275146 0.08281408 0.0614816
-0.044667445 -0.019720897 0.03912324 -0.07378187 -0.0149231395 -0.018342467 0.028225942 0.10342861
-0.030668749 -0.0042092507 -0.054747704 -0.048995953 -0.055059113 -0.0080458615 0.118628696 0.008390255
0.04983414 -0.015860576 0.046100892 -0.023294166 0.052655324 0.06615883 0.08838084 0.065051235
0.0011742385 0.030818269 -0.04834416 0.021535058 -0.030341605 0.03778831 0.06758827 0.06288979
00000000: 6fb7 34bc e70d 77bd 5b91 393c 93c6 b6bc
00000010: b7aa 1d3b e7e2 7cbd a211 1cbb 8ef2 7bbd
00000020: d7ac a73d fd1c 833d 0e61 453c d0f4 d4bc
00000030: 5efa 00bd 6644 353d e017 a5bd c613 e83c
00000040: 341c 9fbc 3d8c 343d c3ba 77bd b84d 843d
00000050: 6352 923c 5742 8abc b253 77bd 1fe9 bebc
00000060: 45ab 5e3d f74f 8cbd af8e 93bd aaaf 553d
00000070: 4a7b 74bd 4cb3 423d baab 56bd 3b97 a0bc
00000080: ceff 0ebd cb29 60bd 2c2c 8e3d 2d22 6bbd
00000090: 825f 4dba ac35 40bd 9263 003d 56b7 12bd
000000a0: 7b43 023d e716 7a3c 35ac 063d 296e 05bd
000000b0: 8ba0 87bc 5a9d 5dbd 0d13 ef3c f359 743d
000000c0: 2e61 99bc 2985 1dbb 16e3 173c 4fcf 9fbd
000000d0: de8c 82bd d0b1 8e3d 58c1 92bd 0669 5ebd
000000e0: 0394 953c c1b9 33bc 8724 1a3d 798a d43d
000000f0: a08a 43bd fd41 063d 280d 2f3d 3e26 9cbd
00000100: 5a3b 8b3d 7db9 b93c d896 ca3d 45df 5dbd
00000110: 3ae0 3cbd 6552 9bbc cd5e 13bc f314 b13b
00000120: c4e6 a1bd 1482 7a3d a5dd 84bd 78f4 89bd
00000130: 9759 97bc 1467 503d bfc7 68bd b4c0 9c3c
00000140: 0049 bbbc 088c 2d3d 84d2 aabd f037 83bd
00000150: 37a4 c8bb dae7 183d 2ca9 de3c 8572 823d
00000160: 9c9d 8bbd 92e3 113d 5009 c6bd 328f a9bd
00000170: 87ec 2fbc ac7c 103d 6e9a a93d 21d4 7b3d
00000180: 36f5 36bd b88d a1bc b13f 203d f31a 97bd
00000190: 2f80 74bc f142 96bc 173a e73c 61d2 d33d
000001a0: 073d fbbc c1ed 89bb 213f 60bd fbaf 48bd
000001b0: aa85 61bd cad2 03bc 9af3 f23d 4877 093c
000001c0: e21e 4c3d 0aee 81bc 4ad4 3c3d 68d3 bebc
000001d0: 1cad 573d 487e 873d 0401 b53d 9539 853d
000001e0: e8e8 993a 9876 fc3c 8704 46bd 4a6a b03c
000001f0: f58e f8bc eac7 1a3d b86b 8a3d 5dcc 803d

sequential.4.weight f4 [2, 128]
0.009490448 0.04580717 -0.04048146 0.0037823473 0.022901228 -0.030520603 0.042862415 0.037104715
0.02743472 0.09909294 -0.08092764 -0.018722696 0.048712138 -0.037709195 0.011490487 -0.05108258
0.07920994 -0.0377178 0.018459257 -0.0318618 0.04048947 0.046143424 0.007849509 0.019154467
0.06308248 -0.060817983 0.0456284 -0.07944736 0.0072352723 -0.04738962 0.03163633 0.024645302
0.07269995 0.074812025 -0.00011230027 -0.018462343 -0.053559728 0.09543553 -0.016662544 -0.039064724
-0.076081835 0.06226171 0.021873409 0.05518359 0.029776387 0.040422928 -0.021837562 -0.010203002
-0.06035834 -0.0018546332 0.08652117 -0.068469256 0.033124965 0.07187358 0.04804344 -0.051629923
-0.014393707 -0.07116836 0.021757925 -0.047031876 0.0811535 0.042097654 -0.015142788 0.007650342
-0.018379929 -0.04334043 -0.030857349 0.060748257 0.081458054 -0.010843728 -0.055569693 0.08116555
0.01143426 -0.0055899024 -0.07945196 -0.010063971 -0.017449645 0.052664742 0.04312383 0.0083285915
0.052487757 0.0599026 0.07942448 0.006401632 -0.07096481 -0.04244473 -0.019645674 -0.012812602
-0.002669223 0.08736055 -0.0028598148 0.080399 -0.003517291 -0.0015824549 -0.0031766763 0.03325812
-0.038194966 0.027880147 -0.042064253 -0.0049430863 -0.024570914 -0.017902607 -0.04232342 -0.0065365518
0.034049954 -0.04836728 0.04119463 0.03876763 -0.03695996 0.0038704784 0.0032239158 0.0374968
0.013872596 -0.0063174963 -0.07177048 0.17531118 0.038967725 0.01079199 -0.055073265 -0.0027078164
-0.027323948 -0.02495013 0.024503682 -0.046483014 0.002918778 -0.0010784167 0.012514257 0.034833178
-0.053792033 -0.016333258 0.06970877 -0.0055932845 -0.03979813 -0.025924942 0.07789019 0.005663926
0.15907165 0.0012030238 -0.009636003 0.102894396 0.023721768 -0.02397529 -0.012541155 0.016941853
0.023289524 -0.035237797 -0.0044380412 0.03390132 -0.084274516 -0.008903145 -0.022144035 -0.023342157
0.058038328 0.014167364 0.007522564 0.03823715 0.055631492 0.13888025 -0.045409516 0.0680394
-0.010926522 -0.0073136985 -0.024873447 -0.010965504 0.054551456 -0.06474518 -0.06709808 0.021138456
0.059355617 0.002848579 0.055805467 0.024596218 0.00055622973 -0.06052853 -0.15842588 0.11376337
-0.0069760326 -0.0049982057 -0.063486055 -0.014110197 0.015605169 0.010321634 -0.0045691393 0.02304887
0.052433334 -0.0325138 0.056690626 -0.067077294 0.08293958 -0.08019909 0.032879874 0.011997705
-0.0026597648 0.0058222176 -0.08654125 -0.019633686 0.009964705 0.005822344 -0.053967565 -0.06379897
0.003219365 -0.0076987795 0.053109385 -0.008330725 0.0067861434 -0.03077123 -0.05003519 0.0032080212
0.07082184 -0.01935099 -0.051064108 0.021906255 0.0129748965 -0.069638565 -0.001920662 -0.023473004
-0.0047660614 0.052774906 0.00050600455 -0.027990986 0.048940245 -0.004720025 -0.037435275 -0.081987694
-0.021561366 0.06345991 0.064963885 0.005468822 -0.02415162 0.012083977 0.0062537002 -0.08729407
0.07959557 0.009813757 -0.0136987455 0.046525083 0.070094705 -0.006825187 -0.095518395 -0.0814866
-0.04852201 0.01995572 -0.063996814 -0.0075157667 -0.0047883447 0.11221881 -0.049506914 -0.0029043343
-0.049083386 0.05000129 -0.061233174 -0.03487941 -0.008490695 -0.004863046 -0.09276957 0.0024765218
00000000: d37d 1b3c 4da0 3b3d e3cf 25bd 42e1 773b
00000010: 5b9b bb3c 5806 fabc 8090 2f3d 1dfb 173d
00000020: c7be e03c 3df1 ca3d 64bd a5bd 5760 99bc
00000030: 6186 473d f574 1abd 9842 3c3c f83b 51bd
00000040: d238 a23d fb7d 1abd de37 973c 8581 02bd
00000050: 49d8 253d e300 3d3d 3a9b 003c d4e9 9c3c
00000060: 6331 813d 471c 79bd d8e4 3a3d 4cb5 a2bd
00000070: dd15 ed3b 9e1b 42bd 1995 013d f2e4 c93c
00000080: b6e3 943d 0c37 993d c082 ebb8 573e 97bc
00000090: 7261 5bbd b473 c33d e37f 88bc 5502 20bd
000000a0: cbd0 9bbd 2306 7f3d dd2f b33c 3008 623d
000000b0: 9ced f33c 8392 253d b0e4 b2bc 7e2a 27bc
000000c0: 4f3a 77bd 2a17 f3ba 0332 b13d 9c39 8cbd
000000d0: 0bae 073d 7532 933d 33c9 443d e679 53bd
000000e0: 95d3 6bbc b8c0 91bd ad3d b23c 7fa4 40bd
000000f0: ce33 a63d 976e 2c3d 7519 78bc b8af fa3b
00000100: 8191 96bc bc85 31bd 8dc8 fcbc 2ad3 783d
00000110: 7bd3 a63d e4a9 31bc 0c9d 63bd 203a a63d
00000120: c356 3b3c 802b b7bb b6b7 a2bd 5be3 24bc
00000130: 8ff2 8ebc fcb6 573d 9da2 303d a574 083c
00000140: 67fd 563d 6e5c 753d 4da9 a23d c8c4 d13b
00000150: 0056 91bd 86da 2dbd f7ef a0bc f3eb 51bc
00000160: 21ee 2ebb 17ea b23d bb6b 3bbb 3ba8 a43d
00000170: 5a82 66bb 606a cfba c92f 50bb ab39 083d
00000180: 5372 1cbd e864 e43c 914b 2cbd 9df9 a1bb
00000190: f148 c9bc 7da8 92bc 535b 2dbd 9230 d6bb
000001a0: f777 0b3d c51c 46bd b3bb 283d ceca 1e3d
000001b0: 5463 17bd daa7 7d3b 5548 533b 3f96 193d
000001c0: e349 633c 0003 cfbb 67fc 92bd c684 333e
000001d0: 9f9c 1f3d e3d0 303c 8194 61bd 9f75 31bb
000001e0: 79d6 dfbc 3764 ccbc f2bb c83c f964 3ebd
000001f0: f848 3f3b a959 8dba 9908 4d3c 3cad 0e3d
00000200: 0955 5cbd 53cd 85bc 79c3 8e3d df47 b7bb
00000210: 5d03 23bd 8b60 d4bc e484 9f3d 7498 b93b
00000220: aee3 223e c8ae 9d3a 53e0 1dbc 4cba d23d
00000230: 2754 c23c d467 c4bc 6b79 4dbc a4c9 8a3c
00000240: acc9 be3c 8255 10bd fd6c 91bb 1cdc 0a3d
00000250: 1e98 acbd 7fde 11bc 6867 b5bc 0d38 bfbc
00000260: 99b9 6d3d 3b1e 683c d77f f63b 8f9e 1c3d
00000270: d9dd 633d a036 0e3e 54ff 39bd 3e58 8b3d
00000280: 2805 33bc c0a7 efbb 66c3 cbbc a8a8 33bc
00000290: 5971 5f3d 1f99 84bd b86a 89bd 8e2a ad3c
000002a0: e01e 733d 3aaf 3a3b 4694 643d 027e c93c
000002b0: f2cf 113a c4ec 77bd 653a 22be c5fc e83d
000002c0: 3497 e4bb fdc7 a3bb fa04 82bd 752e 67bc
000002d0: d3ac 7f3c 121c 293c b8b8 95bb fcd0 bc3c
000002e0: 56c4 563d 312d 05bd 6e34 683d d25f 89bd
000002f0: 3adc a93d 6c3f a4bd 0cad 063d 0692 443c
00000300: 734f 2ebb 4dc8 be3b 8a3c b1bd d3d6 a0bc
00000310: 0143 233c 5dc9 be3b 180d 5dbd 09a9 82bd
00000320: fbfb 523b 0b46 fcbb 3a89 593d 987d 08bc
00000330: 4c5e de3b f213 fcbc b3f1 4cbd aa3d 523b
00000340: 0a0b 913d f885 9ebc 9928 51bd bf74 b33c
00000350: a994 543c aa9e 8ebd b9be fbba 754a c0bc
00000360: 9f2c 9cbb 802a 583d 64a5 043a 5a4d e5bc
00000370: 9175 483d 71aa 9abb bb55 19bd 2ae9 a7bd
00000380: 76a1 b0bc 45f7 813d c90b 853d ce33 b33b
00000390: 9ed9 c5bc e0fb 453c d7eb cc3b 3cc7 b2bd
000003a0: 0103 a33d e1c9 203c b470 60bc 1691 3e3d
000003b0: d08d 8f3d d1a5 dfbb 269f c3bd 72e2 a6bd
000003c0: 04bf 46bd 2e7a a33c c310 83bd d246 f6bb
000003d0: 8ce7 9cbb fad2 e53d c3c7 4abd a556 3ebb
000003e0: a90b 49bd 27ce 4c3d a3cf 7abd b6dd 0ebd
000003f0: 8e1c 0bbc 305a 9fbb f9fd bdbd 244d 223b

sequential.4.bias f4 [2]
0.048898973 0.02447311
00000000: 4a4a 483d d57b c83c
