inverse_trainer/models/state_evaluators/best_state_evaluator_02.17-06:50.pth (torch, 71682 bytes, 5 tensors)

sequential.0.weight f4 [128, 3]
-0.012120305 -0.3112226 -0.17916259 0.34899 -0.51657486 0.12164586 0.20958446 -0.22842751
-0.0023802724 -0.42316195 -0.08126136 -0.2716775 -0.057624713 0.59674495 -0.23125418 0.46755105
-0.030928671 -0.052362178 -0.30273268 -0.6438517 -0.40273142 -0.13164559 -0.098858215 -0.5573739
0.52483624 -0.06826268 0.14587767 0.5466822 0.31692773 -0.4923792 0.49967313 -0.16494033
-0.68143696 -0.2279768 0.32417887 0.15660842 -0.069516934 0.13030322 -0.16703677 -0.28260574
0.5278233 0.5455776 0.5104697 -0.1395073 0.07351647 -0.17703278 -0.17285803 0.109935544
0.18015105 0.03385244 -0.43206993 0.626219 -0.25014004 0.12062874 -0.48144582 0.11485519
0.49718183 0.35727134 -0.3578335 0.2334895 -0.6070223 -0.060121942 0.22343163 -0.2048335
-0.21573578 0.25116542 -0.16966818 0.55769265 -0.4873715 -0.070585765 -0.6082332 -0.67992955
0.1294409 0.18058991 -0.4330662 -0.124405935 0.40225756 -0.3141055 0.632265 -0.047651164
-0.37160668 0.17662932 -0.21633738 -0.5306487 -0.08585088 -0.23615892 0.051050883 -0.58096033
-0.22658417 0.16152954 0.33768585 -0.02577027 -0.32442027 0.14406984 0.27351445 -0.2686893
-0.009445466 -0.32006407 -0.291203 0.30887878 -0.29380974 -0.511026 -0.058973487 -0.54074836
0.37432566 0.28718355 -0.17827968 -0.2807034 0.16487476 -0.20912792 -0.09092208 -0.5001535
0.01197686 0.44395554 -0.42282295 0.46658498 0.6606133 -0.40110132 0.53857064 0.54805183
-0.6371358 0.43133134 0.35821423 -0.060748704 -0.14292692 0.12442056 0.24992211 -0.109979294
0.5584799 0.39995518 -0.36205956 -0.32570538 0.305609 0.029933035 0.60203946 -0.2355261
-0.35094577 -0.58807695 0.40356523 0.50674194 -0.27149054 -0.5943804 -0.31820112 -0.03451284
0.12208284 -0.123681925 -0.5578487 -0.20761423 0.3947186 0.21578044 -0.51018 0.14969006
0.1766382 0.4785478 -0.48432603 0.20932084 -0.30401385 -0.33440453 0.09080937 0.03720919
-0.42293957 0.44411078 0.05879268 0.027926365 -0.46980578 0.13201801 -0.5159873 0.07777759
-0.429416 -0.30942667 -0.55743676 -0.19277355 0.57610136 0.34102762 -0.18489099 -0.44831303
-0.20113656 -0.22517926 -0.19850421 0.42997804 -0.6617401 0.48034438 0.54643404 0.10611947
0.17684777 0.3722225 -0.22083148 0.33076763 -0.5095272 0.13607389 0.1304037 -0.4876097
0.5371054 -0.07159971 0.4029703 0.1956463 -0.21473822 0.3146898 0.05749792 0.1572883
0.19773963 -0.41093656 -0.18644704 0.5203978 -0.45043686 -0.047710024 0.28230843 -0.45128143
0.5389762 -0.13369557 -0.1444481 -0.02391549 -0.4350873 0.1537023 0.23860511 -0.34212434
0.3081222 -0.5146687 -0.55037946 0.22343047 0.093396775 0.38102424 -0.45139772 0.13081175
0.29295954 0.15654969 0.1393546 0.42963833 -0.16772157 -0.5001282 0.27718997 0.17553769
-0.04995928 -0.14093737 -0.041076183 0.10987691 0.23829338 -0.16392761 -0.34224653 0.13037345
0.5767 -0.22472191 -0.25845084 -0.16297165 -0.27917817 0.22390944 0.2354944 -0.28268966
0.15227894 0.12441855 0.55293244 0.06479993 -0.6199247 0.42276317 0.088017225 0.21481578
00000000: 3e94 46bc 9258 9fbe 6676 37be d1ae b23e
00000010: 403e 04bf 7721 f93d 4f9d 563e e7e8 69be
00000020: 58fe 1bbb afa8 d8be 5b6c a6bd 5019 8bbe
00000030: e407 6cbd 47c4 183f e5cd 6cbe da62 ef3e
00000040: 205e fdbc b979 56bd c7ff 9abe 77d3 24bf
00000050: d032 cebe 1ace 06be 2d76 cabd 0eb0 0ebf
00000060: ab5b 063f 4ecd 8bbd f560 153e 5df3 0b3f
00000070: 5a44 a23e 2019 fcbe 28d5 ff3e 1ee6 28be
00000080: a772 2ebf c072 69be c6fa a53e f55d 203e
00000090: e55e 8ebd 356e 053e b00b 2bbe b3b1 90be
000000a0: 6e1f 073f f9aa 0b3f 24ae 023f 00db 0ebe
000000b0: ce8f 963d 1548 35be b201 31be e325 e13d
000000c0: 8479 383e dba8 0a3d 4538 ddbe e34f 203f
000000d0: 5b12 80be 330c f73d 1180 f6be 3339 eb3d
000000e0: 9e8e fe3e 45ec b63e f435 b7be df17 6f3e
000000f0: d065 1bbf 6d42 76bd 43cb 643e dfbf 51be
00000100: d7e9 5cbe c198 803e 7fbd 2dbe f2c4 0e3f
00000110: c288 f9be 458f 90bd 2cb5 1bbf dd0f 2ebf
00000120: 288c 043e 90ec 383e daba ddbe 8ac8 febd
00000130: b4f4 cd3e 70d2 a0be 1edc 213f de2d 43bd
00000140: 3b43 bebe 51de 343e 8c87 5dbe 98d8 07bf
00000150: 96d2 afbd a5d3 71be bb1a 513d d1b9 14bf
00000160: ae05 68be 0068 253e 29e5 ac3e 2c1c d3bc
00000170: 6a1a a6be 0b87 133e 160a 8c3e a591 89be
00000180: 28c1 1abc 70df a3be 8f18 95be 5c25 9e3e
00000190: 3b6e 96be 9ad2 02bf 2f8e 71bd 7c6e 0abf
000001a0: 9da7 bf3e b909 933e f38e 36be 5bb8 8fbe
000001b0: eed4 283e a125 56be 5b35 babd 0f0a 00bf
000001c0: 983a 443c 244e e33e 407c d8be 3ae4 ee3e
000001d0: f41d 293f 275d cdbe c4df 093f 204d 0c3f
000001e0: 551b 23bf 76d7 dc3e db67 b73e a2d3 78bd
000001f0: 6f5b 12be 35d0 fe3d 95eb 7f3e d33c e1bd
00000200: 8af8 0e3f edc6 cc3e df5f b9be dbc2 a6be
00000210: c878 9c3e 2036 f53c 421f 1a3f c12d 71be
00000220: 2aaf b3be 368c 16bf 1aa0 ce3e d7b9 013f
00000230: cf00 8bbe 5029 18bf 42eb a2be 565d 0dbd
00000240: 9106 fa3d f34c fdbd 2ccf 0ebf d398 54be
00000250: 8e18 ca3e 8cf5 5c3e 289b 02bf 5a48 193e
00000260: a5e0 343e 3804 f53e 95f9 f7be 3458 563e
00000270: b4a7 9bbe 1237 abbe 43fa b93d aa68 183d
00000280: 898b d8be 7d62 e33e 98d0 703d d5c5 e43c
00000290: 628a f0be bb2f 073e be17 04bf db49 9f3d
000002a0: 6adc dbbe 2c6d 9ebe 2db4 0ebf 6e66 45be
000002b0: 617b 133f 2c9b ae3e 1054 3dbe 4989 e5be
000002c0: bef6 4dbe 6495 66be b044 4bbe 1526 dc3e
000002d0: cd67 29bf b3ef f53e 1ae3 0b3f 2a55 d93d
000002e0: 9517 353e f393 be3e a621 62be 605a a93e
000002f0: 6070 02bf f456 0b3e 8c88 053e fba7 f9be
00000300: bd7f 093f dea2 92bd 2052 ce3e 8157 483e
00000310: 56e4 5bbe 051f a13e f082 6b3d 2f10 213e
00000320: 427c 4a3e 4766 d2be f9eb 3ebe ca38 053f
00000330: a99f e6be 966b 43bd bb8a 903e 5c0e e7be
00000340: 58fa 093f 7ee7 08be 34ea 13be 6bea c3bc
00000350: c3c3 debe 2364 1d3e e654 743e ec2a afbe
00000360: 31c2 9d3e 54c1 03bf abe5 0cbf f5ca 643e
00000370: cf46 bf3d 9c15 c33e 9a1d e7be 84f3 053e
00000380: cbfe 953e 904e 203e f9b2 0e3e 8ef9 db3e
00000390: 34bf 2bbe 6708 00bf d8eb 8d3e 27c0 333e
000003a0: 1aa2 4cbd e351 10be 803f 28bd 2507 e13d
000003b0: 2e03 743e a4dc 27be f03a afbe 9e80 053e
000003c0: 9ca2 133f 801d 66be ab53 84be 0ae2 26be
000003d0: 71f0 8ebe 8448 653e 7225 713e b3bc 90be
000003e0: 03ef 1b3e 27cf fe3d fb8c 0d3f d3b5 843d
000003f0: 63b3 1ebf 6a74 d83e 6042 b43d abf8 5b3e

sequential.0.bias f4 [128]
0.22895202 -0.0016978465 0.3556047 0.54208964 0.36120114 -0.49329185 0.2549582 -0.2504813
-0.062016718 -0.4432099 0.33718154 0.5378095 -0.4851666 -0.36928806 -0.19743687 -0.45192719
0.54860026 -0.029825069 -0.48761046 0.49508965 -0.017694248 -0.086248085 -0.50836086 0.5174208
0.07744192 0.40695533 -0.28394228 -0.36292505 -0.2132465 0.36282903 -0.3665384 -0.047370467
0.21517569 0.22775002 -0.4241539 0.30054456 0.061647538 -0.14128637 0.14277299 -0.56485814
0.0129609 -0.5057554 -0.08584351 -0.14501223 -0.01841585 0.2141054 0.24542697 -0.09629018
-0.4419095 -0.21389043 -0.5249875 0.19613391 0.39232293 -0.03969874 -0.27480486 0.21865433
0.18364066 0.5686339 -0.13563228 -0.5000948 -0.0068604853 0.4197744 -0.45337644 -0.35920635
-0.09649654 0.5521647 0.089160405 0.013029969 -0.11889129 0.17020422 -0.2575485 -0.48180956
-0.16443631 -0.5293056 0.32374218 -0.1884245 -0.08381195 0.19471224 0.37349263 0.1622106
0.22665009 -0.16197781 0.06256403 0.51713777 0.04525651 -0.15576825 -0.39893758 0.09608367
0.27887598 -0.09021834 -0.3291802 -0.34652594 0.41858724 0.051844716 0.3168051 0.43027773
-0.018857399 0.54304945 0.46597552 -0.11044664 0.21680883 -0.5208125 -0.048653353 0.19106025
0.58370584 -0.5197163 0.16259302 -0.032315407 0.015055574 -0.28440365 0.4963221 0.1862936
-0.0138634285 -0.22245914 -0.20064606 0.108575955 0.09016258 0.32135716 0.24964443 0.1170287
-0.084425576 -0.06309552 -0.5630873 -0.20497409 -0.32052213 0.07663054 -0.52480716 0.12936357
00000000: 6672 6a3e 468a deba d211 b63e 63c6 0a3f
00000010: 5bef b83e c090 fcbe e289 823e 163f 80be
00000020: 3e05 7ebd 68ec e2be 0fa3 ac3e e2ad 093f
00000030: c267 f8be 5313 bdbe e42c 4abe 0063 e7be
00000040: 1171 0c3f b453 f4bc 14a8 f9be 647c fd3e
00000050: 87f3 90bc d6a2 b0bd f023 02bf b175 043f
00000060: df99 9e3d 735c d03e e260 91be 50d1 b9be
00000070: 4a5d 5abe bac4 b93e ecaa bbbe 8907 42bd
00000080: 0457 5c3e 4d37 693e b32a d9be fae0 993e
00000090: 2182 7c3d 60ad 10be 1533 123e 8b9a 10bf
000000a0: f459 543c 3079 01bf b9ce afbd 167e 14be
000000b0: d6dc 96bc 723e 5b3e 3551 7b3e c933 c5bd
000000c0: f641 e2be 1806 5bbe 9565 06bf 54d7 483e
000000d0: 8dde c83e 259b 22bd 39b3 8cbe ece6 5f3e
000000e0: 4c0c 3c3e fe91 113f 30e3 0abe 3606 00bf
000000f0: eccd e0bb acec d63e f520 e8be e5e9 b7be
00000100: fa9f c5bd aa5a 0d3f bb99 b63d a77b 553c
00000110: 477d f3bd 044a 2e3e 66dd 83be beaf f6be
00000120: fe61 28be 9280 07bf 89c1 a53e 5af2 40be
00000130: 9aa5 abbd a562 473e 6d3a bf3e 891a 263e
00000140: f616 683e 83dd 25be 9221 803d 2463 043f
00000150: e45e 393d b681 1fbe 8c41 ccbe 84c7 c43d
00000160: d5c8 8e3e 65c4 b8bd 4f8a a8be d96b b1be
00000170: 1151 d63e 205b 543d 4734 a23e 5d4d dc3e
00000180: d57a 9abc 4a05 0b3f 5894 ee3e d931 e2bd
00000190: 2203 5e3e f853 05bf bd48 47bd 4ca5 433e
000001a0: bf6d 153f 210c 05bf c97e 263e 295d 04bd
000001b0: a7ab 763c 5b9d 91be ee1d fe3e c0c3 3e3e
000001c0: 6f23 63bc 54cc 63be 2976 4dbe 125d de3d
000001d0: 29a7 b83d ed88 a43e caa2 7f3e beac ef3d
000001e0: 51e7 acbd 3938 81bd 7d26 10bf bae4 51be
000001f0: 7a1b a4be 79f0 9c3d c359 06bf e277 043e

sequential.2.weight f4 [128, 128]
-0.07328266 0.020246271 -0.08191416 0.005773671 0.16275702 0.027691364 -0.00089387177 0.0578611
0.084604174 0.07905786 -0.071690984 0.105208516 0.08510206 0.010691106 0.17564502 -0.052234665
0.095816374 0.0030156674 0.021288658 0.07633478 0.019667784 0.016672824 0.04496156 -0.010256286
0.118915044 0.048299212 0.10302927 0.027494054 -0.014953285 0.04232892 0.01842341 0.023474952
-0.036383033 0.06809808 0.03250188 0.087724954 0.029791309 0.057481945 0.02018334 -0.044584297
0.102344245 -0.084924676 0.053706042 0.07266244 0.095380835 -0.040745214 0.11100428 0.06332969
0.0062925033 -0.08405315 0.016465351 -0.04717428 -0.019238917 -0.024034465 -0.042385146 0.0062893
0.034948897 0.112833776 0.04560683 0.037040167 0.15016735 -0.028390544 -0.007204519 0.07917915
0.1403289 0.02020231 0.11982145 0.002983103 -0.018296627 0.09729335 0.000657554 -0.06051692
0.037354596 -0.0802803 0.1069513 0.07161056 -0.06262747 -0.023006298 0.012701357 -0.013781332
0.0069513796 0.09587653 -0.005081505 0.07929988 0.15955193 0.0064327363 0.04654994 -0.0778741
0.0126110045 -0.07393485 0.12569122 0.040062744 -0.032747924 -0.053999186 -0.096873894 -0.046741832
0.18976565 0.028359381 -0.030735796 0.083129115 0.025458118 -0.041791275 0.012301483 -0.006269375
-0.020545263 0.022023719 0.15014285 0.09536167 -0.047761068 0.05934822 0.06660422 0.09393636
-0.12027976 0.109772444 0.03604547 0.10273126 0.03807661 -0.034029286 0.01571637 -0.0045376094
0.040976737 0.0046530226 0.07553713 -0.08129708 0.070875816 0.11252397 0.049894862 0.14011517
0.050494988 0.03358423 0.021181915 -0.046199176 -0.013852014 -0.0134265525 -0.00031483817 -0.07315605
0.0033207117 0.082707666 -0.052139997 0.053202268 -0.008080172 0.026671695 0.10761305 0.056139622
0.004176014 0.07659041 -0.044855468 0.06533299 0.13161623 0.095819525 -0.05830517 -0.021405047
0.021892408 -0.034436684 0.032820094 -0.05562681 -0.015117787 -0.05375204 -0.05286068 -0.03374242
0.047757145 -0.007273116 -0.0707613 0.0028687173 -0.047397945 0.087319255 0.055688128 0.08230737
0.097445875 -0.0019501346 0.009201141 0.06443591 0.09992152 0.012793348 0.060905207 -0.043042455
-0.07570721 -0.013045019 -0.061017666 -0.024362488 -0.0057399943 -0.116939396 -0.05277035 -0.115947515
-0.05781646 0.009744801 -0.061292093 -0.058127142 0.085199885 0.010852447 -0.0670504 0.0036137023
0.1564837 -0.076717414 0.12401043 -0.008130622 0.10651105 0.122464955 -0.012254165 -0.014095529
-0.029606894 -0.012709698 0.033008628 -0.057070278 0.032136887 0.04685433 1.6756585e-05 -0.09274294
-0.05624479 0.10137737 -0.06548127 0.13814847 0.12129224 0.049624596 0.031073838 -0.09315096
0.044527348 -0.049558043 0.023817347 0.07035311 -0.0056623053 -0.065596715 0.06817627 -0.019985253
0.056434717 0.035147604 -0.02322071 -0.07319226 0.034544494 0.08514525 0.12937446 0.076724194
0.10364057 -0.07144906 0.1991987 0.00824962 0.031225393 0.04679853 0.05794693 0.13499777
-0.10191719 0.10196693 0.05379654 0.12888026 0.05275039 -0.06662398 0.062762566 0.056255285
0.0057061035 -0.066551805 0.033452965 -0.0635534 -0.045822285 0.12956904 0.012600253 -0.026014915
00000000: 3815 96bd 82db a53c 9cc2 a7bd 1031 bd3b
00000010: c7a9 263e 00d9 e23c b852 6aba c3ff 6c3d
00000020: f444 ad3d 16e9 a13d b9d2 92bd 9077 d73d
00000030: fd49 ae3d c029 2f3c 4adc 333e 04f4 55bd
00000040: 603b c43d 81a2 453b 8d65 ae3c 6955 9c3d
00000050: 551e a13c 7295 883c 9d29 383d fb09 28bc
00000060: bb89 f33d 65d5 453d 0301 d33d 363b e13c
00000070: a0fe 74bc 1761 2d3d b1ec 963c 8b4e c03c
00000080: 6006 15bd 0277 8b3d b120 053d 24a9 b33d
00000090: e70c f43c 3072 6b3d 8857 a53c 069e 36bd
000000a0: dc99 d13d fdec adbd defa 5b3d 0cd0 943d
000000b0: 0757 c33d 74e4 26bd 3656 e33d ffb2 813d
000000c0: 5831 ce3b 0f24 acbd 58e2 863c d139 41bd
000000d0: ef9a 9dbc ede3 c4bc 0c9c 2dbd 7916 ce3b
000000e0: 9326 0f3d 6515 e73d 3ace 3a3d 6eb7 173d
000000f0: 78c5 193e 4993 e8bc e313 ecbb ae28 a23d
00000100: 61b2 0f3e 517f a53c f364 f53d 2a80 433b
00000110: cfe2 95bc bc41 c73d b45f 2c3a 97e0 77bd
00000120: 2201 193d ff69 a4bd 4809 db3d 8fa8 923d
00000130: d542 80bd b477 bcbc 5a19 503c 19cb 61bc
00000140: 66c8 e33b ea5a c43d c182 a6bb fa67 a23d
00000150: 9561 233e b4c9 d23b 26ab 3e3d 757c 9fbd
00000160: 639e 4e3c 286b 97bd 33b5 003e d518 243d
00000170: b022 06bd 402e 5dbd d265 c6bd 5d74 3fbd
00000180: ed51 423e ef51 e83c a3c9 fbbc 993f aa3d
00000190: 8b8d d03c 542d 2bbd 298c 493c 546f cdbb
000001a0: 8a4e a8bc 166b b43c 0cbf 193e fb4c c33d
000001b0: 1ca1 43bd 1e17 733d cb67 883d b561 c03d
000001c0: 3c55 f6bd 60d0 e03d 6aa4 133d c464 d23d
000001d0: 38f6 1b3d 4b62 0bbd 9ebf 803c 3ab0 94bb
000001e0: 39d7 273d 6278 983b 36b3 9a3d 157f a6bd
000001f0: 5727 913d f872 e63d 8e5e 4c3d 5a7a 0f3e
00000200: d5d3 4e3d 9e8f 093d b285 ad3c 593b 3dbd
00000210: 8ff3 62bc 0bfb 5bbc dd10 a5b9 d7d2 95bd
00000220: 4ca0 593b a362 a93d c090 55bd 9fea 593d
00000230: b362 04bc 997e da3c 3b64 dc3d a9f2 653d
00000240: f2d6 883b 6fdb 9c3d 5eba 37bd 4dcd 853d
00000250: 68c6 063e 073d c43d 67d1 6ebd a359 afbc
00000260: b557 b33c 7b0d 0dbd 5d6e 063d f0d8 63bd
00000270: 98b0 77bc 192b 5cbd 7184 58bd 7e35 0abd
00000280: ff9c 433d 5253 eebb 4deb 90bd 1701 3c3b
00000290: 5924 42bd 70d4 b23d 3c19 643d c490 a83d
000002a0: b491 c73d a99b ffba 62c0 163c f9f6 833d
000002b0: a7a3 cc3d 319b 513c bd77 793d 494d 30bd
000002c0: 620c 9bbd c6ba 55bc a9ed 79bd d793 c7bc
000002d0: 9016 bcbb ec7d efbd b925 58bd e475 edbd
000002e0: f4d0 6cbd a8a8 1f3c 6b0d 7bbd ba16 6ebd
000002f0: 477d ae3d 76ce 313c b851 89bd ddd3 6c3b
00000300: 433d 203e 051e 9dbd 2ef9 fd3d 4d36 05bc
00000310: 7722 da3d e8ce fa3d b1c5 48bc eff0 66bc
00000320: 288a f2bc 563c 50bc 0e34 073d 86c2 69bd
00000330: f8a1 033d 53ea 3f3d 7e90 8c37 03f0 bdbd
00000340: f060 66bd f09e cf3d 0b1b 86bd cb76 0d3e
00000350: 1168 f83d 2943 4b3d 908e fe3c eec5 bebd
00000360: 4f62 363d 60fd 4abd 991c c33c 4b15 903d
00000370: dc8a b9bb 9257 86bd 00a0 8b3d 1db8 a3bc
00000380: 1728 673d eff6 0f3d 5c39 bebc d3e5 95bd
00000390: 877e 0d3d a260 ae3d bd7a 043e 9321 9d3d
000003a0: 8241 d43d e353 92bd befa 4b3e 6a29 073c
000003b0: 65cc ff3c d1af 3f3d c359 6d3d db3c 0a3e
000003c0: f6b9 d0bd 0ad4 d03d c359 5c3d 30f9 033e
000003d0: cb10 583d 2772 88bd a989 803d f16b 663d
000003e0: 44fa ba3b 504c 88bd fa05 093d 4928 82bd
000003f0: 26b0 3bbd bfad 043e 4b71 4e3c 3b1d d5bc

sequential.2.bias f4 [128]
-0.050412197 0.04942509 0.073123336 -0.047469366 0.054218605 0.05278692 0.09252395 -0.072171584
-0.014763615 -0.029440427 0.036387693 0.027296985 -0.013886017 -0.076361455 -0.053593248 0.041816738
-0.069045916 -0.04108355 -0.0017954663 0.003336526 0.036354575 0.050553944 0.020291757 -0.047730148
-0.047025662 0.08095794 -0.024037223 0.010462344 -0.081601545 0.05074265 -0.0134363305 0.07633053
-0.050259832 -0.035143673 0.07024271 0.04469298 0.035783216 0.08288801 0.008752384 0.08077296
0.05041335 -0.0868589 -0.06923232 0.016577905 0.06286724 0.053618502 0.04189092 0.006856976
-0.01614691 -0.0021019685 0.09629864 -0.037149385 0.066567995 -0.05785941 -0.053651474 -0.048721526
-0.08678057 0.059271753 -0.032739103 -0.07525432 0.012116997 0.06429643 -0.034278214 -0.062115934
0.057952642 -0.009177218 -0.047733728 0.09193291 -0.025588114 0.06417835 0.00468085 -0.0057561216
-0.028566547 0.05051915 0.06455163 0.00056398805 0.009559085 -0.033728518 -0.07065653 -0.01189436
0.062529154 0.02823742 -0.05396076 0.013899862 0.007056254 0.014664446 0.0055122487 0.054196294
-0.019381765 0.07786615 -0.0017785759 0.080535695 0.040609118 0.08946928 -0.054294087 -0.07071456
0.008774985 -0.0206285 -0.015367552 0.07453661 -0.022062922 -0.019264046 0.02610168 0.08718513
-0.004269682 -0.08511026 0.04684556 -0.0644915 0.03679261 -0.004825763 -0.08208261 0.027632896
0.0043370863 0.030889668 0.03515791 -6.2985346e-05 0.05866939 -0.035008878 -0.011436297 -0.0534246
-0.05549657 0.00056838186 0.07122609 0.03448483 -0.03246127 0.073323555 -0.018272419 -0.074661925
00000000: 057d 4ebd f771 4a3d b0c1 953d 3d6f 42bd
00000010: 5414 5e3d 1937 583d 327d bd3d b2ce 93bd
00000020: 17e3 71bc 0d2d f1bc 430b 153d ed9d df3c
00000030: 2d82 63bc 6563 9cbd 9884 5bbd 0748 2b3d
00000040: f267 8dbd 3947 28bd da55 ebba 9ea9 5a3b
00000050: 89e8 143d a711 4f3d e63a a63c b080 43bd
00000060: fb9d 40bd 47cd a53d b6e9 c4bc 406a 2b3c
00000070: b61e a7bd 86d7 4f3d 0e24 5cbc 2e53 9c3d
00000080: 41dd 4dbd d0f2 0fbd 69db 8f3d fc0f 373d
00000090: 6c91 123d 30c1 a93d 2966 0f3c 4b6c a53d
000000a0: 3b7e 4e3d 14e3 b1bd adc9 8dbd 63ce 873c
000000b0: 8ac0 803d 139f 5b3d d095 2b3d 7cb0 e03b
000000c0: 8646 84bc 2ec1 09bb 3938 c53d f429 18bd
000000d0: cd54 883d fdfd 6cbd a6c1 5bbd 3990 47bd
000000e0: 03ba b1bd f0c6 723d 7019 06bd f01e 9abd
000000f0: 5e86 463c d9ad 833d 5067 0cbd 476d 7ebd
00000100: c05f 6d3d 0b5c 16bc 7184 43bd 5247 bc3d
00000110: 2a9e d1bc f06f 833d d161 993b d99d bcbb
00000120: 6404 eabc 2bed 4e3d a533 843d 99d8 133a
00000130: b59d 1c3c ea26 0abd 5fb4 90bd 90e0 42bc
00000140: 490f 803d 2952 e73c f505 5dbd 3fbc 633c
00000150: 2638 e73b 2543 703c 18a0 b43b effc 5d3d
00000160: 82c6 9ebc 4a78 9f3d 1b1f e9ba e6ef a43d
00000170: bf55 263d ab3b b73d 7a63 5ebd ccd2 90bd
00000180: f4c4 0f3c 1afd a8bc 2fc8 7bbc a6a6 983d
00000190: 4dbd b4bc a2cf 9dbc 31d3 d53c 1e8e b23d
000001a0: b0e8 8bbb 4a4e aebd 21e1 3f3d 1f14 84bd
000001b0: d9b3 163d 6f21 9ebb ed1a a8bd 625e e23c
000001c0: 1e1e 8e3b 540c fd3c be01 103d 0017 84b8
000001d0: 504f 703d 7865 0fbd 4e5f 3bbc c1d3 5abd
000001e0: 5f50 63bd 76ff 143a fcde 913d f73f 0d3d
000001f0: 1cf6 04bd a92a 963d 0ab0 95bc 5ae8 98bd

sequential.4.weight f4 [1, 128]
0.11443387 0.15916471 0.040852286 -0.093526445 -0.0059238505 -0.06933075 -0.10917965 -0.06272364
-0.15830514 -0.07092313 -0.12994124 -0.046728145 0.07959315 -0.07900526 -0.017184692 -0.112956874
0.06501887 0.15508254 -0.050762475 -0.078673966 -0.09307975 -0.039518684 0.16265398 -0.15460303
-0.078035966 0.07379256 -0.062329147 -0.06356355 0.033882767 0.12526289 0.01973623 0.06990415
0.02346883 0.07269911 0.14713138 0.114665724 0.1633759 0.13397448 -0.08736477 0.1457103
0.13077627 0.06745755 -0.07939074 0.08759618 0.18137553 -0.14756846 -0.065081194 0.0631558
0.025563657 0.13573709 0.16293994 0.14810963 0.08152455 -0.085073106 -0.07880847 -0.0006689653
-0.05370994 -0.10880354 0.051561326 0.12041109 0.020534411 -0.110637866 0.16178563 0.13299106
-0.00763232 0.08721915 0.08224203 0.17814972 -0.070119046 0.09207212 0.08628361 -0.0029495417
-0.10602008 -0.058016907 -0.04341357 -0.05490554 0.07615921 0.1649318 0.0983476 0.12747285
0.1588156 0.093725994 -0.1319061 0.037899993 0.042341016 0.08583275 -0.14159836 -0.031107122
0.051204354 0.115503795 0.058771566 0.12384866 -0.09354706 0.11543368 0.036639415 0.005196327
-0.055658557 -0.0028950458 -0.07812844 -0.08242844 -0.09888087 -0.098667935 0.073831424 -0.092645034
0.118041575 -0.05243191 0.07057482 -0.07188284 0.14599365 0.0970239 0.06520602 0.040618762
-0.07616886 0.134614 -0.055494215 0.1806006 0.10036106 -0.083278604 0.06983528 -0.064083576
0.106548764 0.07452596 0.016424775 -0.08126846 -0.08685846 -0.06932506 -0.0061313137 -0.010430323
00000000: 4e5c ea3d 13fc 223e ba54 273d cb8a bfbd
00000010: dc1c c2bb 48fd 8dbd 9599 dfbd 4075 80bd
00000020: be1a 22be 2540 91bd 510f 05be 0366 3fbd
00000030: bc01 a33d 82cd a1bd e9c6 8cbc ef55 e7bd
00000040: 9d28 853d f5cd 1e3e 50ec 4fbd d11f a1bd
00000050: 99a0 bebd 58de 21bd c48e 263e 4250 1ebe
00000060: 52d1 9fbd 8e20 973d d94c 7fbd 9b2d 82bd
00000070: a8c8 0a3d ea44 003e e0ad a13c e829 8f3d
00000080: b441 c03c 45e3 943d 9ca9 163e ddd5 ea3d
00000090: 034c 273e 9b30 093e 4dec b2bd 1535 153e
000000a0: 37ea 053e 2f27 8a3d 9d97 a2bd a065 b33d
000000b0: 82ba 393e 301c 17be 4a49 85bd d457 813d
000000c0: e06a d13c aafe 0a3e bad9 263e 0daa 173e
000000d0: 58f6 a63d cf3a aebd 5666 a1bd 805d 2fba
000000e0: f4fe 5bbd 64d4 debd f831 533d 179a f63d
000000f0: c837 a83c 1b96 e2bd 22ab 253e cf2e 083e
00000100: 8a18 fabb f49f b23d 826e a83d e16c 363e
00000110: 939a 8fbd 4f90 bc3d 76b5 b03d 194d 41bb
00000120: 0e21 d9bd 23a3 6dbd 6dd2 31bd a2e4 60bd
00000130: 5cf9 9b3d e2e3 283e 776a c93d 3e88 023e
00000140: 8fa0 223e 6af3 bf3d 6512 07be 063d 1b3d
00000150: c66d 2d3d 15c9 af3d 29ff 10be 5dd4 febc
00000160: a8bb 513d 418d ec3d 74ba 703d 5ea4 fd3d
00000170: 9a95 bfbd 7e68 ec3d 3613 163d f345 aa3b
00000180: 3afa 63bd cfba 3dbb ce01 a0bd 3ed0 a8bd
00000190: 0e82 cabd 6a12 cabd ee34 973d aebc bdbd
000001a0: c8bf f13d d8c2 56bd 8889 903d 4f37 93bd
000001b0: 5c7f 153e 77b4 c63d bc8a 853d dc5f 263d
000001c0: 6bfe 9bbd 41d8 093e e74d 63bd 5def 383e
000001d0: 198a cd3d f98d aabd cd05 8f3d 403e 83bd
000001e0: 3d36 da3d 11a1 983d 408d 863c 1470 a6bd
000001f0: d9e2 b1bd 4cfa 8dbd 30e9 c8bb f2e3 2abc
