inverse_trainer/models/state_evaluators/probabilistic_state_evaluator_02.09-23:52.pth (torch, 72348 bytes, 6 tensors)

sequential.0.weight f4 [128, 3]
0	0x3d80785d	0.062729575
1	0xbd894ebd	-0.06704471
2	0xbcbb09db	-0.022831848
3	0x3efa2046	0.48852748
4	0x3ddc1ff2	0.107482806
5	0x3ea3f34f	0.32021567
6	0xbf0b3d8a	-0.54390776
7	0x3dd6dea6	0.104916856
8	0x3e0ef727	0.13961469
9	0x3e1424a1	0.14467098
10	0x3e290f38	0.16509712
11	0xbdfa6e19	-0.12228031
12	0xbe16f72f	-0.1474273
13	0xbe6b94ab	-0.23005931
14	0xbe0f0f69	-0.13970722
15	0xbe82ab97	-0.25521538
16	0x3e02f3d0	0.1278832
17	0xbe614f11	-0.22002818
18	0xbe903fb7	-0.2817361
19	0x3ec246cf	0.37944648
20	0x3ebc80a7	0.36816904
21	0x3e0a3f96	0.13500819
22	0xbf0b05d3	-0.5430576
23	0x3ee9659a	0.45585328
24	0x3ea2b362	0.31777483
25	0xbdc5e70c	-0.09663209
26	0xbecef5ac	-0.40421808
27	0xbea128d8	-0.31476474
28	0x3e8fdb02	0.28096777
29	0x3ee95c25	0.45578113
30	0xbe49d713	-0.1971095
31	0x3e249276	0.16071495
32	0xbdb59500	-0.0886631
33	0x3e6b1f81	0.22961237
34	0xba6ba446	-0.0008989017
35	0xbd0deb48	-0.03464821
36	0x3daf822b	0.085697494
37	0x3d530f07	0.051528003
38	0x3e989ec3	0.29808626
39	0x3ebd634a	0.36989814
40	0x3e9c44f5	0.3052136
41	0xbe431d4d	-0.19054146
42	0xbef90b0f	-0.4864125
43	0xbe85f82c	-0.26165903
44	0xbe1f496d	-0.15555353
45	0xbdfcb0fc	-0.123384446
46	0x3cb0f272	0.021599982
47	0xbe7d6ca7	-0.24748479
48	0xbed613a9	-0.41811875
49	0xbee534d9	-0.44766882
50	0xbebda56e	-0.37040275
51	0x3d05c49d	0.03265821
52	0xbeb00920	-0.34381962
53	0x3f3f5bcd	0.7474945
54	0x3e687131	0.22699429
55	0x3ea92675	0.33037153
56	0xbcff7229	-0.031182365
57	0x3eb4420e	0.35206646
58	0x3eb43f22	0.35204417
59	0x3d7d875f	0.061896678
60	0x3ee653a7	0.44985697
61	0x3f00f25a	0.503698
62	0xbed7df23	-0.42162427
63	0x3f03fb09	0.51554924
64	0x3d9263dc	0.07147953
65	0xbf07dc4f	-0.5307054
66	0x3e7fc995	0.24979241
67	0xbe6faf78	-0.2340678
68	0xbe8f28e3	-0.27960882
69	0x3eaa359d	0.3324403
70	0x3e5b23f2	0.21400431
71	0xbeedc091	-0.4643598
72	0xbe7fee7e	-0.24993321
73	0x3d68937d	0.05678128
74	0x3e16f4ca	0.14741817
75	0xbe701119	-0.23444022
76	0xbd0f69fa	-0.035013177
77	0xbdeb0ad7	-0.11476677
78	0x3ebab397	0.3646514
79	0x3e6614ee	0.22468922
80	0x3db6e245	0.08929876
81	0x3ebd6233	0.36988983
82	0x3ee8afd6	0.45446652
83	0x3ebe3920	0.37152958
84	0x3f03abae	0.5143384
85	0xbe9913aa	-0.29897815
86	0xbe2e99fe	-0.17050931
87	0x3d8b0de9	0.067897625
88	0x3d9223e4	0.07135752
89	0xbeb258a3	-0.3483325
90	0xbe8da495	-0.2766463
91	0xbe780b46	-0.2422305
92	0x3d84b7c4	0.06480363
93	0x3e0bc66e	0.13649914
94	0xbcbfbf3e	-0.023406621
95	0xbf1c6b52	-0.6110126
96	0xbeb0abad	-0.34505978
97	0x3eb13e66	0.3461792
98	0xbeff56a2	-0.49870783
99	0xbe86414e	-0.262217
100	0x3f0677c3	0.5252649
101	0xbf0d095e	-0.5509242
102	0xbf0d7d9e	-0.552698
103	0x3e61de6a	0.220575
104	0xbeb5269e	-0.35381025
105	0xbe61e592	-0.2206023
106	0xbe25cabd	-0.1619062
107	0x3ed39a8e	0.41328853
108	0x3e41f499	0.18940963
109	0x3ee69886	0.4503824
110	0xbe8ab74c	-0.2709297
111	0xbd0f41d6	-0.034974895
112	0xbef5d242	-0.48011976
113	0x3f286e2a	0.65793097
114	0xbdc284e1	-0.09498001
115	0x3f3390f3	0.7014305
116	0x3ef9f25c	0.48817718
117	0xbebda32a	-0.37038547
118	0xbe6b3828	-0.2297064
119	0x38d3a16d	0.00010091332
120	0xbe1430aa	-0.14471689
121	0x3baee680	0.0053375363
122	0xbed3b423	-0.4134837
123	0xbe92158e	-0.2853207
124	0xbe773e12	-0.24144772
125	0xbc7d5843	-0.015462938
126	0x3e3dfbc5	0.18553074
127	0x3e50db7b	0.20396225
128	0x3e854aca	0.26033622
129	0xbe866b0c	-0.26253545
130	0xbf110cd8	-0.56660223
131	0xbe9f75b0	-0.31144476
132	0x3e9a8fdf	0.3018789
133	0x3c5b8571	0.013398514
134	0x3e5750aa	0.21026865
135	0x3e8e52ae	0.27797455
136	0x3ea17093	0.315312
137	0x3df90404	0.12158969
138	0x3dd11c49	0.10210473
139	0xbed41299	-0.4142044
140	0xbf1bf43c	-0.6091955
141	0xbcb6f106	-0.022331726
142	0x3cd610f9	0.02613114
143	0x3bd96137	0.0066339034
144	0xbe102c16	-0.14079317
145	0xbe2d4165	-0.16919477
146	0xbd8464d9	-0.06464548
147	0x3e891f4b	0.26781687
148	0x3f1df942	0.6170846
149	0x3e86739b	0.26260075
150	0x3ebd3426	0.3695385
151	0xbf146469	-0.57965714
152	0xbeaa4697	-0.3325698
153	0x3eb1cb05	0.34725204
154	0x3e9a405e	0.30127233
155	0xbed6648f	-0.41873595
156	0xbec8f314	-0.39247954
157	0x3d96f81c	0.07371542
158	0x3cdebe5c	0.02719038
159	0xbea47966	-0.3212387
160	0x3d76047f	0.06006288
161	0x3e28ef70	0.16497588
162	0x3eccc37d	0.39992896
163	0x3e9ee9d0	0.3103776
164	0xbebc24ab	-0.36746725
165	0xbe249555	-0.1607259
166	0x3e5ab987	0.21359836
167	0xbe1ad1c7	-0.15119086
168	0xbeb58187	-0.35450384
169	0x3edbd208	0.4293368
170	0x3ecbd148	0.39808106
171	0x3ee85a97	0.45381615
172	0xbea3ed47	-0.32016966
173	0xbf07b2c3	-0.53007144
174	0xbe6618eb	-0.22470443
175	0xbde9ee29	-0.114223786
176	0x3eb36230	0.3503585
177	0xbea07a25	-0.3134319
178	0xbeb1298c	-0.3460201
179	0xbeeb2232	-0.45924526
180	0x3ded6ed0	0.115934014
181	0xbeb62cd6	-0.35581082
182	0x3ea37967	0.3192856
183	0xbea2ecd2	-0.31821305
184	0xbf02c34c	-0.5107925
185	0xbed25df3	-0.41087303
186	0xbd61e496	-0.055149637
187	0xbc1befb7	-0.009517602
188	0xbdfc7663	-0.12327268
189	0x3eab0281	0.33400348
190	0xbe25802a	-0.16162172
191	0x3e414fd4	0.18878108
192	0x3d8d7560	0.06907153
193	0xbbeed7ec	-0.0072889235
194	0xbe5da2ef	-0.21644185
195	0xbe4e3541	-0.20137502
196	0x3f110d68	0.5666108
197	0x3efeb49f	0.49747178
198	0xbeb8d1f1	-0.36097673
199	0xbeba01f0	-0.36329603
200	0xbe491625	-0.19637354
201	0x3ea4c099	0.3217819
202	0xbe6a78e4	-0.22897679
203	0xbd1ba82d	-0.03800218
204	0xbe536f4f	-0.2064793
205	0xbe86f124	-0.2635585
206	0xbee6627d	-0.44997016
207	0x3ea54bb6	0.32284325
208	0x3d9547a8	0.07289058
209	0xbe882688	-0.26591897
210	0x3e1e5c93	0.15465002
211	0xbd8e8932	-0.06959762
212	0xbeb9e76c	-0.36309373
213	0x3eec3c26	0.4613964
214	0x3e9aa930	0.30207205
215	0xbd1e90bf	-0.03871226
216	0x3e9ae332	0.3025146
217	0x3e4b289a	0.19839707
218	0xbed4d6e0	-0.41570187
219	0xbd40fd34	-0.047116473
220	0x3f069767	0.5257477
221	0xbe386896	-0.18008646
222	0xbe9c6ce1	-0.30551818
223	0x3e4305ee	0.19045231
224	0x3d391c67	0.045193102
225	0x3e0e4a99	0.13895644
226	0x3edff451	0.43741086
227	0x3eb967bd	0.3621196
228	0xbe502932	-0.20328215
229	0xbef83af7	-0.48482487
230	0x3d4121ba	0.047151305
231	0x3d462213	0.04837234
232	0xbe5a95d9	-0.21346225
233	0xbdfaf4c0	-0.122537136
234	0x3bb516a7	0.005526382
235	0x3d99133f	0.07474374
236	0xbe3b3a74	-0.18284017
237	0xbe480585	-0.19533356
238	0x3f10c888	0.56555986
239	0xbeb02732	-0.34404904
240	0xbecaef65	-0.3963577
241	0xbd989297	-0.07449835
242	0xbe560daa	-0.2090365
243	0xbd93d027	-0.07217436
244	0xbf0fcedc	-0.5617502
245	0x3e6bc375	0.2302378
246	0x3eadfb17	0.3398063
247	0x3e111fb8	0.14172256
248	0x3dcf8704	0.10133174
249	0xbe3d6f9b	-0.18499605
250	0x3e719ddd	0.23595376
251	0x3dd5c56a	0.10438044
252	0x3e88e4f7	0.26737186
253	0x3dde69a9	0.10859997
254	0xbedb8779	-0.42876795
255	0xbe3a68d3	-0.1820405

sequential.0.bias f4 [128]
0	0xbe851985	-0.25996032
1	0xbed40717	-0.4141166
2	0xbec09e9a	-0.37621003
3	0xbd8a70b7	-0.0675978
4	0xbd3fe686	-0.046850704
5	0xbea05ace	-0.31319278
6	0x3ec2f2f6	0.3807599
7	0x3cc72806	0.024311077
8	0xbc8a44fc	-0.016878597
9	0xbea34c00	-0.3189392
10	0x3d8be611	0.06830991
11	0xbe2b9b95	-0.16758569
12	0x3ec59e49	0.38597324
13	0xbe0a5f9c	-0.13513035
14	0xbefb259f	-0.4905214
15	0x3ed3dc5d	0.4137906
16	0x3e7770f2	0.24164179
17	0xbe73ae05	-0.23796852
18	0x3e92212e	0.2854094
19	0x3eaf9a7c	0.3429755
20	0x3e8f8f31	0.28038934
21	0xbef43b60	-0.4770155
22	0xbe94d000	-0.2906494
23	0x3edeb929	0.4350064
24	0x3ee87ea8	0.4540913
25	0x3e3ac7a8	0.18240225
26	0xbe6f92c3	-0.23395829
27	0x3d533e2e	0.05157297
28	0xbf07ee48	-0.53097963
29	0x3d669c6a	0.05630151
30	0xbf03565e	-0.5130366
31	0xbe8140ac	-0.25244653
32	0x3e46d17e	0.19415852
33	0x3e5c8955	0.21536763
34	0xbcb8ad39	-0.022543536
35	0xbe48e6fb	-0.19619362
36	0x3ca5d9ac	0.020245396
37	0xbea4e506	-0.3220598
38	0x3e1441eb	0.1447827
39	0xbf075ad6	-0.5287298
40	0xbea07a8d	-0.313435
41	0x3e151a24	0.14560753
42	0xbd512107	-0.051056888
43	0xbe84555b	-0.2584637
44	0x3f1674df	0.5877208
45	0xbd910ffd	-0.07083128
46	0xbeebc90a	-0.46051818
47	0xbbaa783f	-0.0052023227
48	0x3edb163e	0.42790407
49	0xbc14bfec	-0.009078961
50	0xbef12ddb	-0.47105297
51	0x3dea46bd	0.114392735
52	0x3d8b7341	0.06809092
53	0xbe448b3a	-0.19193736
54	0xbefce251	-0.49391416
55	0x3e95d372	0.29262882
56	0xbe757005	-0.23968513
57	0xbe41f898	-0.18942487
58	0xbf01182a	-0.50427496
59	0xbecf4e95	-0.4048964
60	0xbeaddc6e	-0.33957237
61	0xbea866d7	-0.3289096
62	0xbe9dd0bb	-0.3082331
63	0xbf09889b	-0.5372407
64	0x3ec776f8	0.38957953
65	0x3e5be1da	0.21472874
66	0xbeb6bbda	-0.35690194
67	0x3e8625a2	0.26200587
68	0x3ec1fc5b	0.37887844
69	0xbdbbd8a6	-0.09172182
70	0xbd9e1f63	-0.0772083
71	0x3eca42f8	0.39504218
72	0x3d9348d6	0.07191627
73	0x3e95b22f	0.29237506
74	0xbe51a3d9	-0.20472659
75	0xbe81d80f	-0.25360152
76	0x3ec41399	0.38296202
77	0x3e0a61eb	0.13513915
78	0x3c691ce2	0.014228078
79	0x3e59085c	0.21194595
80	0x3ec151d9	0.37757757
81	0xbf109433	-0.56476134
82	0xbe1e66e4	-0.15468937
83	0xbd15b288	-0.036547214
84	0x3e8d870c	0.27642095
85	0xbefcc84d	-0.49371567
86	0x3d457648	0.048208505
87	0xbee379cd	-0.44428864
88	0xbe991f75	-0.29906812
89	0x3eb1af3a	0.34704
90	0xbee8fd07	-0.45505545
91	0x3d1ddffb	0.038543683
92	0xbd1bc7c0	-0.038032293
93	0xbdd032f9	-0.10165972
94	0xbb542fd6	-0.0032377145
95	0xbc6f6c8c	-0.014613282
96	0xbeac6a17	-0.3367469
97	0x3d7d74ea	0.061879076
98	0x3efa4456	0.4888026
99	0xbec2125c	-0.37904632
100	0xbee80ee2	-0.45323855
101	0x3f1ca56b	0.6118991
102	0x3ed6342e	0.41836685
103	0x3dd3e761	0.103468664
104	0xbe0bd16e	-0.1365411
105	0x3e1072a4	0.14106232
106	0xbdb27965	-0.087145604
107	0xbec3beef	-0.38231608
108	0xbef6c143	-0.48194322
109	0xbeec1d12	-0.4611593
110	0x3edb8950	0.428782
111	0xbf07257a	-0.5279156
112	0xbf09f7c1	-0.5389367
113	0xbea82fda	-0.32849008
114	0xbecd07e3	-0.4004508
115	0xbe6e1c5b	-0.23253004
116	0x3c7d2705	0.0154511975
117	0xbe17a258	-0.14808023
118	0x3e77cd07	0.24199305
119	0x3d48e0f7	0.04904267
120	0x3e4d27da	0.20034733
121	0xbe4e3186	-0.20136079
122	0xbdad330f	-0.08457004
123	0xbf0b689e	-0.5445651
124	0xbebb222f	-0.36549518
125	0x3cc35569	0.023844438
126	0x3eef5e1a	0.4675148
127	0xbeeae323	-0.45876417

sequential.2.weight f4 [128, 128]
0	0x3c51ba4f	0.012800767
1	0x3d000365	0.031253237
2	0x3ca5b8f8	0.020229802
3	0x3db2feb5	0.08739988
4	0xbd4114d8	-0.04713902
5	0xbd0734ad	-0.03300922
6	0x3db120ec	0.086488575
7	0xbd838bca	-0.06423147
8	0xbcf9292a	-0.030415136
9	0x3d6f803c	0.058471903
10	0x3da63b2f	0.08116757
11	0xbd956e55	-0.07296435
12	0x3cb871d5	0.022515217
13	0x3da79eef	0.08184611
14	0xbd3f26e5	-0.046667952
15	0xbdcd4f64	-0.10024908
16	0x3d1da257	0.038484897
17	0xbde08169	-0.10962183
18	0x3d1f3fd2	0.038879223
19	0xbd499181	-0.04921103
20	0xbd7a012f	-0.061036285
21	0xbd7dcc2a	-0.061962284
22	0x3c3a4efd	0.011371371
23	0xbce1ea17	-0.027577443
24	0xbd048313	-0.032351565
25	0x3b4305ca	0.002975809
26	0x3d8543ed	0.065070964
27	0x3cc299e2	0.023755018
28	0xbce17b3f	-0.027524589
29	0xbdd68f40	-0.104765415
30	0xbbebf6b8	-0.007201042
31	0x3b93ed5e	0.0045143804
32	0xbb6618a5	-0.0035109904
33	0xbcddcd29	-0.027075367
34	0x3da7a2f2	0.08185376
35	0xbdca253d	-0.09870384
36	0x3d39d559	0.04536948
37	0x3c39164f	0.011296823
38	0x3d93f72a	0.07224877
39	0x3d9ce0c6	0.0766006
40	0x3bc6c59d	0.006066038
41	0xbb7eca36	-0.0038877851
42	0xbcbfbf3e	-0.023406621
43	0x3b8dadad	0.0043236823
44	0xbdbb9c65	-0.09160689
45	0x3c803e5f	0.01565474
46	0xbd75830b	-0.059939425
47	0xbdac579e	-0.08415149
48	0xbd0f8f63	-0.035048854
49	0xbd605d82	-0.054776676
50	0xbd699009	-0.05702213
51	0x3d6b72d2	0.057482548
52	0x3c95efb9	0.018302785
53	0xbc919c54	-0.017774738
54	0x3d134f8a	0.035964526
55	0xbdb5e774	-0.08882037
56	0x3d5c0b02	0.053721435
57	0xbd01631e	-0.031588666
58	0x3d444d6a	0.04792539
59	0xbdf0601b	-0.11737081
60	0x3cd67f65	0.026183793
61	0x3d12d397	0.03584632
62	0xbc11abc0	-0.008891046
63	0x3d43a106	0.047760986
64	0xbdd6a505	-0.10480694
65	0xbd4f463b	-0.050604086
66	0x3d0f80ea	0.03503505
67	0xbdbb7056	-0.09152286
68	0xbdc6f919	-0.0971548
69	0xbcad54da	-0.021158624
70	0xbc27b776	-0.010236612
71	0x3ae2b424	0.0017296118
72	0xbd98c07f	-0.07458591
73	0xba8f4f2d	-0.001093363
74	0xbd42c534	-0.04755135
75	0x3d3265f9	0.04355428
76	0xbc494d01	-0.012286426
77	0xbceaffba	-0.028686393
78	0xbd4554cd	-0.048176575
79	0xbd0765cf	-0.033056077
80	0x3c1d6326	0.009606158
81	0xbc9e3d4f	-0.019316344
82	0xbd8a3e6e	-0.06750189
83	0x3ce11c0d	0.027479196
84	0x3d013039	0.03154013
85	0x3c5f1695	0.013616224
86	0x3ba89232	0.005144381
87	0x3da0d4c7	0.07853084
88	0x3d50747a	0.05089233
89	0xbc9c3e9f	-0.019072829
90	0xbd2db162	-0.042405494
91	0xbd204f33	-0.03913803
92	0xbd711eff	-0.05886745
93	0xbc9eb0a7	-0.019371344
94	0xbc1f1db3	-0.009711671
95	0x3dadec1c	0.084923
96	0x3d5e9e4f	0.054350194
97	0x3d36afe3	0.044601332
98	0x3c1e26a3	0.009652766
99	0xbcd0484b	-0.025425097
100	0xbde1f47d	-0.110329606
101	0xbcc4db98	-0.024030492
102	0xbdd6700e	-0.104705915
103	0xbb13b15a	-0.002253613
104	0x3d296355	0.041354496
105	0xbd0aaef5	-0.03385826
106	0xbd582131	-0.05276603
107	0x3d38c049	0.045105252
108	0xbd5afc85	-0.053463478
109	0xbd1bc3d4	-0.038028553
110	0xbda6f140	-0.081514835
111	0xbc26cf1b	-0.010181214
112	0x3cb840fe	0.022491928
113	0xbda14aaa	-0.07875569
114	0xbd88b469	-0.066750355
115	0xbc59a941	-0.013284982
116	0x3d118597	0.03552779
117	0xbddeed97	-0.108851604
118	0xbdb2a21f	-0.087223284
119	0x3c6029f5	0.013681878
120	0x3da66055	0.081238426
121	0xbd928f2c	-0.07156214
122	0xbc9f4e2f	-0.01944646
123	0xbc7fa5c0	-0.015603483
124	0xbdc40f7e	-0.095732674
125	0xbd520a44	-0.05127932
126	0x3c4bb29b	0.01243272
127	0x3d481f4f	0.048857983
128	0xbdbc4b07	-0.09193998
129	0xbd88a4c1	-0.06672049
130	0xbd80ae9b	-0.06283303
131	0xbd93bdc5	-0.0721393
132	0xbd935aec	-0.07195076
133	0xbddf3900	-0.10899544
134	0xbd5625cd	-0.052282143
135	0xbd1c0870	-0.038093984
136	0xbcbd1052	-0.023079071
137	0x3d450ffe	0.048110954
138	0x3c2fcac7	0.010729498
139	0xbd95dbac	-0.0731729
140	0xbc02a3a2	-0.007973583
141	0x3d38e8a7	0.04514375
142	0xbbaf8586	-0.0053564934
143	0xbdb3a21d	-0.08771155
144	0x3da58d02	0.08083536
145	0x3c830b11	0.015996488
146	0xbdd99076	-0.10623257
147	0x3da37dd8	0.07982987
148	0xbddd9a79	-0.10820479
149	0xbc439520	-0.01193741
150	0xbd88d438	-0.066811025
151	0x3cf9052c	0.030397974
152	0xbd66706d	-0.05625956
153	0xbdc0babf	-0.09410619
154	0x3d505daf	0.050870594
155	0x3d06ae37	0.032880988
156	0x3c1bc7ab	0.009508054
157	0xbc356399	-0.011071109
158	0x3ccd609d	0.025070483
159	0xbd934225	-0.071903504
160	0xbdc63a09	-0.09679038
161	0x3d470946	0.04859283
162	0xbd83c796	-0.06434552
163	0x3ccce7db	0.025012901
164	0xbd13210d	-0.03592019
165	0xbcaf30cd	-0.021385575
166	0xbd4c0b04	-0.049815193
167	0x3b03e42a	0.002012501
168	0xbd6d99f7	-0.05800816
169	0xbdda49b4	-0.10658589
170	0x3d028600	0.031866074
171	0x3d5ffa51	0.05468208
172	0xbdad9fee	-0.0847777
173	0x3afcae21	0.0019277969
174	0x3bb75e5e	0.0055959662
175	0x3ce80f1e	0.028327521
176	0xbdc36c24	-0.095421106
177	0x3d9806f8	0.07423204
178	0xbd093c93	-0.033505034
179	0xbd178c75	-0.036999185
180	0xbc99a1a0	-0.018753827
181	0xbd3510c5	-0.044205446
182	0xbd1e8a74	-0.038706258
183	0xbd40413d	-0.046937216
184	0x3db2a0cf	0.08722078
185	0xbd06fb10	-0.032954276
186	0xbdb2c206	-0.08728413
187	0x3c6baf30	0.01438503
188	0xbda3737e	-0.07981013
189	0xbd703554	-0.058644608
190	0x3d2f9f21	0.042876367
191	0x3c5a4ecd	0.013324452
192	0x3d50d1ba	0.05098126
193	0xbd5c09f0	-0.053720415
194	0xbcfb2de1	-0.030661525
195	0x3cfc269b	0.030780127
196	0xbce23b9e	-0.027616318
197	0xbc8fbe61	-0.017546834
198	0xbd0f2087	-0.03494313
199	0x3c5db9ae	0.013533039
200	0xbd3abb4d	-0.04558878
201	0x3cbfa5d6	0.023394506
202	0x3d84943f	0.06473588
203	0x3d3c02de	0.045901172
204	0xbdaaaf52	-0.08334221
205	0xbdbb7391	-0.09152902
206	0x3d523ab2	0.051325507
207	0xbde6101b	-0.112335406
208	0xbde1d22c	-0.11026415
209	0xbca6ae07	-0.020346655
210	0x3b5d9ee3	0.0033816628
211	0xbc434e81	-0.011920572
212	0xbd45c3c9	-0.04828242
213	0xbc953357	-0.018212957
214	0x3d8b84c1	0.0681243
215	0xbcf07166	-0.029350948
216	0xbd156280	-0.03647089
217	0xbd6af07a	-0.057358243
218	0xbdb7be0a	-0.08971794
219	0xbd8a5829	-0.067550965
220	0xbd24a7a4	-0.040198937
221	0x3d1ffa50	0.039057076
222	0x3d4920a1	0.049103383
223	0x3d43e84d	0.04782896
224	0xbd84838d	-0.06470404
225	0xbdb38eff	-0.08767509
226	0x3d926a6e	0.07149206
227	0xbd56394a	-0.05230073
228	0xbbd62ac8	-0.0065358616
229	0x3d3f33b3	0.046680164
230	0xbd0fc40c	-0.035099074
231	0x3c8e44f6	0.017366868
232	0xbbc2d273	-0.0059454977
233	0x3d606df0	0.054792345
234	0xbb4b966e	-0.0031065005
235	0x3cca3dc8	0.024687663
236	0xbdab471d	-0.08363173
237	0x3d70129e	0.058611505
238	0xbbd9028d	-0.0066226185
239	0x3da9e4de	0.08295606
240	0x3c110c79	0.008853071
241	0xbd8326fe	-0.064039215
242	0xbdafce05	-0.08584217
243	0xbb0936ed	-0.002093728
244	0x3d264b4c	0.040599152
245	0x3cb5cc7a	0.022192229
246	0xbca677de	-0.020320829
247	0xbd6e9aa3	-0.05825294
248	0x3d47166f	0.04860538
249	0xbdb1d41d	-0.086830355
250	0xbd55c69b	-0.052191358
251	0xbd9dbed4	-0.07702413
252	0x3c98e763	0.018665021
253	0xbd9109b7	-0.07081931
254	0xbd0d6f0f	-0.03452974
255	0xbd7d96d2	-0.06191141

sequential.2.bias f4 [128]
0	0xbd2eefe1	-0.042709235
1	0xbd770de7	-0.060315993
2	0x3c39915b	0.011326159
3	0xbcb78a56	-0.02240483
4	0x3b1daab7	0.0024058053
5	0xbddce0ac	-0.1078504
6	0xbb1c11a2	-0.002381422
7	0xbd7bf28e	-0.061510615
8	0x3da95803	0.0826874
9	0x3d831cfd	0.064020135
10	0x3c45610e	0.012047065
11	0xbccd7924	-0.025082178
12	0xbd00fa5e	-0.03148877
13	0xbc084c09	-0.008318909
14	0xbda517e0	-0.080611944
15	0x3ce813c6	0.028329741
16	0xbc9f1c34	-0.019422628
17	0xbc5b96ff	-0.0134026995
18	0xbd77bac3	-0.060480844
19	0x3d844db8	0.06460136
20	0x3ca0e192	0.01963881
21	0xbc8a0b9f	-0.016851244
22	0xbd7753b2	-0.060382552
23	0xbcbee91f	-0.02330452
24	0x3d5eab45	0.054362554
25	0xbdc148d3	-0.09437718
26	0xbd938eaf	-0.07204949
27	0x3d55afaa	0.05216948
28	0xbd747b4a	-0.05968789
29	0x3d45e3b8	0.048312873
30	0xbd513dbb	-0.05108426
31	0xbca0973b	-0.019603362
32	0xbd0effce	-0.034911923
33	0xbd6029cb	-0.054727357
34	0x3d8e2c2c	0.06942019
35	0xbda345e3	-0.07972314
36	0xba4d5f82	-0.0007834361
37	0xbd4035ac	-0.046926185
38	0x3cbf4245	0.02334703
39	0xbd12b756	-0.035819374
40	0x3d02437b	0.031802636
41	0x3c7a16e7	0.015264249
42	0x3d06ac35	0.032879073
43	0xbd056e29	-0.03257576
44	0xbc87a08b	-0.016556045
45	0xbd5d9d5a	-0.05410514
46	0x3d9869b3	0.074420355
47	0x3d77f173	0.060533
48	0xbc99612e	-0.018723097
49	0xbc5a0d92	-0.0133088995
50	0x3c16c772	0.009202825
51	0xbd9fcf4f	-0.07803213
52	0xbd828cde	-0.063745245
53	0x3d8eb1d0	0.06967509
54	0xbd92c158	-0.07165784
55	0xbd5e6906	-0.054299377
56	0x3c959403	0.018259054
57	0xbc33b9c1	-0.01096958
58	0x3d1a2487	0.03763249
59	0x3dfa19cc	0.122119516
60	0xbd438aa0	-0.047739625
61	0x3d0d042b	0.034427803
62	0x3d2f0d28	0.042737156
63	0xbd9c263e	-0.076244816
64	0x3d85a425	0.06525449
65	0x3cb9b97d	0.022671456
66	0x3dadc631	0.08485068
67	0xbd5ddf45	-0.054168005
68	0xbd3ce03a	-0.046112277
69	0xbc9b5265	-0.018960187
70	0xbc91b9b2	-0.017788742
71	0x3bb114f3	0.0054041087
72	0xbda1e6c4	-0.07905343
73	0x3cd2b4b6	0.025720935
74	0xbd84dda5	-0.06487588
75	0xbd89f478	-0.06736082
76	0xbc975997	-0.018475337
77	0x3d4e0fc4	0.050308004
78	0xbd64393b	-0.05571864
79	0x3c9cc0b4	0.019134857
80	0xbcbb4900	-0.022861958
81	0x3d2d8c08	0.042369872
82	0xbdaad284	-0.08340934
83	0xbd8337f0	-0.064071536
84	0xbbc8a437	-0.0061230916
85	0x3d18e7da	0.037330486
86	0x3b2882d8	0.0025712755
87	0xbe1cbdc8	-0.15306771
88	0xbd9017c4	-0.07035783
89	0x3d11e392	0.03561742
90	0xbdce77fe	-0.100814804
91	0xbda98f32	-0.082792655
92	0xbc2fec87	-0.010737545
93	0x3d107cac	0.035275146
94	0x3d2baf1a	0.041915037
95	0x3d7bd421	0.0614816
96	0xbdd60ef9	-0.104520746
97	0xbca18db8	-0.019720897
98	0x3d203fb1	0.03912324
99	0xbd971af3	-0.07378187
100	0xbd84b496	-0.064797565
101	0xbc9642f1	-0.018342467
102	0x3ce73a17	0.028225942
103	0x3dfa73bb	0.12229105
104	0xbcfb3d07	-0.030668749
105	0xbb89edc1	-0.0042092507
106	0xbd60473b	-0.05475543
107	0xbd48affb	-0.048995953
108	0xbd6185aa	-0.055059113
109	0xbc0fc2c4	-0.008774463
110	0x3df998f8	0.121873796
111	0x3c26838f	0.010163202
112	0x3d54c39f	0.05194437
113	0xbc81ee0a	-0.015860576
114	0x3d8bf98e	0.06834708
115	0xbcbed368	-0.023294166
116	0x3d57ad1c	0.052655324
117	0x3d8954ae	0.067056045
118	0x3d8ac6f7	0.06776231
119	0x3d8288ea	0.063737705
120	0xbd625c6a	-0.055263914
121	0x3cfc7698	0.030818269
122	0xbd460487	-0.04834416
123	0x3cb06a4a	0.021535058
124	0xbcf88ef5	-0.030341605
125	0x3d1ac7ea	0.03778831
126	0x3d9096d1	0.07060016
127	0x3d80cc5d	0.06288979

sequential.4.weight f4 [2, 128]
0	0x3bc34e3f	0.0059602554
1	0x3d3ba04d	0.04580717
2	0xbd25cfe3	-0.04048146
3	0x3b77e0fc	0.003782331
4	0x3cbb9b5b	0.022901228
5	0xbc0080d1	-0.007843212
6	0x3d2f9080	0.042862415
7	0x3d17fb1d	0.037104715
8	0x3cec7d4b	0.028868338
9	0x3dcaf13d	0.09909294
10	0xbda5bd64	-0.08092764
11	0xbc8e6c19	-0.01738553
12	0x3d478661	0.048712138
13	0xbbdf5ca6	-0.0068164645
14	0x3c3c4298	0.011490487
15	0xbd513bf8	-0.05108258
16	0x3da238d2	0.07920994
17	0xbc2616e3	-0.010137293
18	0x3c9737de	0.018459257
19	0xbd028185	-0.0318618
20	0x3d20aa9c	0.039225206
21	0x3d3e04c7	0.046391275
22	0x3c009b3a	0.007849509
23	0x3c9ce9d4	0.019154467
24	0x3d813163	0.06308248
25	0xbd78ad16	-0.060711943
26	0x3d3ae4d8	0.0456284
27	0xbda2b54c	-0.07944736
28	0x3bed15dd	0.0072352723
29	0xbd3c6716	-0.045996748
30	0x3cf80988	0.030277982
31	0x3cc9e4f2	0.024645302
32	0x3d94e3b6	0.07269995
33	0x3d99370c	0.074812025
34	0xb8eb82c0	-0.00011230027
35	0xbbc06858	-0.0058718137
36	0xbd5b6172	-0.053559728
37	0x3dc373b4	0.09543553
38	0xbd2f447f	-0.042789932
39	0xbd200255	-0.039064724
40	0xbd9bd0cb	-0.076081835
41	0x3d7f0623	0.06226171
42	0x3cb32fdd	0.021873409
43	0x3d620830	0.05518359
44	0x3cf3ed9c	0.029776387
45	0x3d259283	0.040422928
46	0xbc84aa05	-0.016194353
47	0xbc0f01f1	-0.00872849
48	0xbd773a4f	-0.06035834
49	0xbb222f18	-0.0024747308
50	0x3dafea50	0.085896134
51	0xbd8c399c	-0.068469256
52	0x3d07ae0b	0.033124965
53	0x3d933275	0.07187358
54	0x3d44c933	0.04804344
55	0xbd5379e6	-0.051629923
56	0xbc6bd395	-0.014393707
57	0xbd91c0b8	-0.07116836
58	0x3cb23dad	0.021757925
59	0xbd971876	-0.073777124
60	0x3da633ce	0.0811535
61	0x3d27b60f	0.04094511
62	0xbc781975	-0.015142788
63	0x3bfaafb8	0.007650342
64	0xbc962245	-0.018326888
65	0xbd3185bc	-0.04334043
66	0x3c0b2c7b	0.008494492
67	0x3d78d32a	0.060748257
68	0x3da6d37b	0.081458054
69	0xbc31a9e4	-0.010843728
70	0xbd5f8fe0	-0.05458057
71	0x3da63a20	0.08116555
72	0x3c3b56c3	0.01143426
73	0x3d09b130	0.033616245
74	0xbda2b7b6	-0.07945196
75	0xbc24e35b	-0.010063971
76	0xbc8ef28f	-0.017449645
77	0x3d553ad8	0.05205807
78	0x3d2bca05	0.041940708
79	0x3c0874a5	0.0083285915
80	0x3d56fd67	0.052487757
81	0x3d755c6e	0.0599026
82	0x3da2a94d	0.07942448
83	0x3bd1c4c8	0.006401632
84	0xbd915600	-0.07096481
85	0xbd2dda86	-0.04244473
86	0xba355a8f	-0.00069180963
87	0x3e1f29ee	0.15543339
88	0xbb1a78a8	-0.0023570452
89	0x3db2ea17	0.08736055
90	0x3a477e49	0.00076100655
91	0x3da4a83b	0.080399
92	0xbb66825a	-0.003517291
93	0xbacf6a60	-0.0015824549
94	0xbbe240f0	-0.006904714
95	0x3d0839ab	0.03325812
96	0xbbefa291	-0.0073130806
97	0x3ce464e8	0.027880147
98	0xbd2c4b91	-0.042064253
99	0xbba1f99d	-0.0049430863
100	0xbbe041b9	-0.0068437723
101	0xbc92a87d	-0.017902607
102	0xbd2d5b53	-0.04232342
103	0xbd732b00	-0.05936718
104	0x3d0b77f7	0.034049954
105	0xbd461cc5	-0.04836728
106	0x3d28bb74	0.041194394
107	0x3d1ecace	0.03876763
108	0xbd176354	-0.03695996
109	0x3b7d0b72	0.0038611558
110	0x3a9bba93	0.0011881165
111	0x3d1320af	0.03591984
112	0x3c4bf481	0.012448431
113	0xbbcf0300	-0.0063174963
114	0xbdaee87a	-0.08540435
115	0x3e3384c6	0.17531118
116	0x3d1f9c9f	0.038967725
117	0x3c4cd303	0.012501481
118	0xbd215ce5	-0.03939523
119	0xbb2e6247	-0.002660887
120	0xbc12c041	-0.00895697
121	0xbccc6437	-0.02495013
122	0x3cc8bbf2	0.024503682
123	0xbd3e64f9	-0.046483014
124	0x3b3f48f8	0.002918778
125	0xba8d59a9	-0.0010784167
126	0x3c2fdde7	0.010734058
127	0x3d0ead3c	0.034833178
128	0xbd19bb3a	-0.03753207
129	0xbc85cd53	-0.016333258
130	0x3d8ec379	0.06970877
131	0xbbb744d1	-0.0055929204
132	0xbd23035d	-0.03979813
133	0xbc3497ac	-0.0110224895
134	0x3d9f84e4	0.07789019
135	0x3bb99874	0.005663926
136	0x3e236f3d	0.15960403
137	0x3a9daec8	0.0012030238
138	0xbc1de053	-0.009636003
139	0x3dd3be5a	0.10339041
140	0x3cc25427	0.023721768
141	0xbc1c654d	-0.009545636
142	0xbc4d796b	-0.012541155
143	0x3c8ac9a4	0.016941853
144	0x3cbec9ac	0.023289524
145	0xbc0133b2	-0.00788586
146	0xbb916cfd	-0.0044380412
147	0x3d0adc1c	0.03390132
148	0xbdacbebf	-0.084348194
149	0xbc1057e3	-0.008810016
150	0xbcb56768	-0.022144035
151	0xbcbf380d	-0.023342157
152	0x3d6db999	0.058038328
153	0xbc8ffb82	-0.017575983
154	0x3bf67fd7	0.007522564
155	0x3d1c9e8f	0.03823715
156	0x3d63ddd9	0.055631492
157	0x3e0ebe6a	0.13939825
158	0xbd3a4bb2	-0.045482345
159	0x3d8b583e	0.0680394
160	0xbc330528	-0.010926522
161	0xbbefa7c0	-0.0073136985
162	0xbccbc366	-0.024873447
163	0xbc2a4417	-0.01039221
164	0x3d5f7159	0.054551456
165	0xbd84991f	-0.06474518
166	0xbd84980b	-0.064743124
167	0x3cad2a8e	0.021138456
168	0x3d731ee0	0.059355617
169	0x3b3aaf3a	0.002848579
170	0x3d649446	0.055805467
171	0x3cc97e02	0.024596218
172	0x3a11cff2	0.00055622973
173	0xbd77ecc4	-0.06052853
174	0xbe153ccb	-0.14573972
175	0x3dea1bcd	0.11431084
176	0xbbe49734	-0.0069760326
177	0xbb141447	-0.0022595094
178	0xbd81fc63	-0.06346967
179	0xbc672e75	-0.014110197
180	0x3c7facd3	0.015605169
181	0x3c291c12	0.010321634
182	0xbb95b8b8	-0.0045691393
183	0x3cbcd0fc	0.02304887
184	0x3d56c456	0.052433334
185	0xbd052d31	-0.0325138
186	0x3d68346e	0.056690626
187	0xbdbda3a2	-0.09259726
188	0x3da9dc3a	0.08293958
189	0xbda44c35	-0.08022348
190	0x3d06ad0c	0.032879874
191	0x3c449206	0.011997705
192	0xbb29b7a1	-0.0025896805
193	0x3bbec84d	0.0058222176
194	0xbd092cc0	-0.033489943
195	0xbca0d6d3	-0.019633686
196	0x3c234301	0.009964705
197	0x3bbec95d	0.005822344
198	0xbd7e18db	-0.062035423
199	0xbd82a909	-0.06379897
200	0x3b52fbfb	0.003219365
201	0x3cc340c6	0.023834597
202	0x3d59893a	0.053109385
203	0xbc087d98	-0.008330725
204	0x3bde5e4c	0.0067861434
205	0xbcfc168d	-0.030772472
206	0xbd4d20ec	-0.050080225
207	0x3b523daa	0.0032080212
208	0x3d910b0a	0.07082184
209	0xbc9e85f8	-0.01935099
210	0xbd512899	-0.051064108
211	0x3cb374bf	0.021906255
212	0x3c5494a9	0.0129748965
213	0xbd8e9eaa	-0.069638565
214	0xbae45fda	-0.0017423586
215	0xbc14d467	-0.009083844
216	0xbb951ed8	-0.004550796
217	0x3d582a80	0.052774906
218	0x3a82cac3	0.0009978641
219	0xbce54d5a	-0.027990986
220	0x3d487591	0.048940245
221	0xbb9aaa71	-0.004720025
222	0xbc7b2898	-0.0153295025
223	0xbda7e92a	-0.081987694
224	0xbc1e365e	-0.009656517
225	0x3d81f745	0.06345991
226	0x3d850bc9	0.064963885
227	0x3bb333ce	0.005468822
228	0xbc5d3985	-0.013502483
229	0x3c45fbe0	0.012083977
230	0x3bccebd7	0.0062537002
231	0xbdf24973	-0.118304156
232	0x3da30301	0.07959557
233	0x3c20c9e1	0.009813757
234	0xbc6070b4	-0.0136987455
235	0x3d3e9116	0.046525083
236	0x3d8f8dd0	0.070094705
237	0xbbdf8246	-0.0068209497
238	0xbdc40637	-0.09571498
239	0xbda721e5	-0.08160762
240	0xbd472978	-0.048623532
241	0x3ca37a2e	0.01995572
242	0xbdc07bf9	-0.09398646
243	0xbbf646d2	-0.0075157667
244	0xbb9ce78c	-0.0047883447
245	0x3de71f53	0.112852715
246	0xbd380059	-0.044922207
247	0xbb2c2e0c	-0.0026272563
248	0xbc30470a	-0.0107591245
249	0x3d4cce27	0.05000129
250	0xbd7acfa3	-0.061233174
251	0xbd0eddb6	-0.03487941
252	0xbc0b1c8e	-0.008490695
253	0xbb9f5a30	-0.004863046
254	0xbdbe5309	-0.092931814
255	0x3b224d24	0.0024765218

sequential.4.bias f4 [2]
0	0x3cf4c8eb	0.029880961
1	0x3ca85307	0.020547403
