inverse_trainer/models/state_evaluators/state_evaluator_02.09-23:19.pth (torch, 72208 bytes, 6 tensors)

sequential.0.weight f4 [128, 3]
0	0xbef70f75	-0.4825398
1	0x3eece0ec	0.46265352
2	0xbec00da6	-0.37510413
3	0x3f1a3f66	0.6025299
4	0x3ead5725	0.33855549
5	0xbdc1cc02	-0.094627395
6	0xbef3abd5	-0.47592035
7	0x3f1ddff5	0.61669856
8	0x400d9034	2.2119265
9	0x3c8a5984	0.016888388
10	0xbddcf6ba	-0.10789247
11	0xbc9961c5	-0.018723378
12	0xbe9f3d77	-0.3110158
13	0xbd61995b	-0.05507789
14	0x3e8574e2	0.26065737
15	0xbeec5f63	-0.46166524
16	0x3e14f062	0.14544824
17	0xbdb2f20d	-0.08737574
18	0x3eaa1fff	0.33227536
19	0xbe37c763	-0.17947154
20	0xbf053e14	-0.5204785
21	0xbeec5596	-0.46159047
22	0xbf132618	-0.5748
23	0xbd24862a	-0.04016701
24	0xbf6d3650	-0.92661
25	0x3e59e3e8	0.21278346
26	0x4044fb0a	3.0778222
27	0xbe03e351	-0.12879683
28	0x3e43fe36	0.19139943
29	0x3dc158ec	0.094407886
30	0x3f643cdb	0.8915536
31	0x3f239d2c	0.639117
32	0x3fab306c	1.3374152
33	0xbd16d0fe	-0.036820404
34	0xbf419ff7	-0.7563471
35	0x3f11bf71	0.5693274
36	0x3e147095	0.14496072
37	0xbd62868f	-0.055304106
38	0xbe35ac7c	-0.17741579
39	0xbebd5699	-0.3698013
40	0x3ece6c11	0.40316823
41	0xbe966e5f	-0.2938108
42	0xbdbcefee	-0.092254505
43	0xbe91bd79	-0.2846487
44	0x3d13ee6b	0.036116045
45	0x3f12d18b	0.5735099
46	0xbf13ab40	-0.5768318
47	0xbe0436cd	-0.1291153
48	0xbf3dfa70	-0.7421026
49	0xbdd6658f	-0.104685895
50	0x3c5c278c	0.013437163
51	0xbb9a9147	-0.0047170254
52	0x3e3f6425	0.18690546
53	0x3efc76dc	0.49309433
54	0x3f38187b	0.71912354
55	0x3ef448ca	0.47711784
56	0x3f631543	0.8870432
57	0xbd8b37ab	-0.06797727
58	0xbedce8ab	-0.43146262
59	0x3cae203c	0.021255605
60	0x3f01b6f1	0.5066977
61	0xbe8c887f	-0.27447888
62	0xbe003839	-0.12521447
63	0x3ec21c00	0.37911987
64	0x3ee19aeb	0.44063506
65	0x3f1671b4	0.5876725
66	0xbec9dd31	-0.39426568
67	0xbe3c8085	-0.18408401
68	0x3d36c90c	0.044625327
69	0xbe93bada	-0.28853494
70	0x3f04bc9d	0.518503
71	0x3da88e70	0.08230293
72	0x3ee7d2e5	0.45278087
73	0x3e542802	0.20718387
74	0xbf1f9722	-0.62339985
75	0xbea8cd04	-0.32968915
76	0xbdb1fb1c	-0.086904734
77	0x3ece8c13	0.40341243
78	0x3e2b0c28	0.16703856
79	0x3ee3f9e1	0.4452658
80	0xbe711bec	-0.23545808
81	0xbecfb5be	-0.40568346
82	0x3ec97f49	0.39354923
83	0x3e852774	0.26006663
84	0x3e675df5	0.22594436
85	0xbf00217f	-0.5005111
86	0xbf167e9d	-0.58786947
87	0x3eb28591	0.34867528
88	0x3e18dd8a	0.1492826
89	0x3f0a74df	0.5408458
90	0xbeb7c304	-0.35890973
91	0xbf089a3d	-0.5336035
92	0xbd0429ce	-0.03226643
93	0x3eb37964	0.3505355
94	0x3ec1466a	0.37749034
95	0xbee09a41	-0.43867686
96	0x3bec0f9a	0.0072040083
97	0xbebdaba2	-0.37045008
98	0x3e6c924e	0.23102686
99	0xbe103e37	-0.14086233
100	0xbf220a91	-0.63297373
101	0xbe130ec9	-0.14361109
102	0x3f242cd5	0.6413091
103	0x3effac03	0.49935922
104	0x3d746977	0.05967089
105	0xbebaed21	-0.3650904
106	0x3d578bf6	0.05262371
107	0xbee49a8b	-0.44649157
108	0xbda035cf	-0.07822763
109	0x3f069b00	0.5258026
110	0x3edf7182	0.43641287
111	0xbf0f32d0	-0.5593691
112	0x3dd5905b	0.10427924
113	0xbf18fbcd	-0.5975922
114	0xbf5912ff	-0.8479461
115	0x3f32abe9	0.69793564
116	0x40177d92	2.3670392
117	0xbeebb331	-0.4603515
118	0x3ea8b347	0.32949278
119	0x3ee785f0	0.45219374
120	0x3efbbc8c	0.49167287
121	0xbeb1c77a	-0.347225
122	0xbe250213	-0.16114073
123	0x3e649bec	0.22325104
124	0x3eb83ff2	0.35986286
125	0x3be9447e	0.0071187606
126	0x3f2dc95c	0.67885375
127	0x3ea74a29	0.32673767
128	0xbe8de16b	-0.27711043
129	0xbf190e4a	-0.5978743
130	0x3fa2dad4	1.2723031
131	0x3eaa4d85	0.33262268
132	0x3e830c16	0.25595158
133	0xbe0efecb	-0.13964383
134	0xbe40cf3b	-0.18829052
135	0xbd18c25d	-0.037294734
136	0xbf263f0b	-0.64939946
137	0x3eb9760e	0.3622288
138	0xbe021713	-0.12704115
139	0xbecdb268	-0.40175176
140	0xbe90e2f1	-0.28298143
141	0x3e8b390a	0.27191955
142	0x3dad508a	0.08462627
143	0x3eac9493	0.33707103
144	0x3ecd4dab	0.40098318
145	0xbe4be883	-0.19912915
146	0xbe626123	-0.22107367
147	0x3e6d444e	0.23170587
148	0xbebe86d6	-0.37212247
149	0xbed2aba6	-0.41146582
150	0x3ee74231	0.45167688
151	0xbefc038c	-0.49221456
152	0xbec16bce	-0.3777756
153	0xbf2f1ad9	-0.6840034
154	0xbea80882	-0.3281899
155	0xbdf96b3c	-0.121786565
156	0xbceff0da	-0.029289652
157	0xbea92649	-0.33037022
158	0xbe584454	-0.21119815
159	0xbde8709d	-0.11349604
160	0x3ea336c8	0.31877732
161	0xbeaf6e37	-0.34263775
162	0x3f00dedd	0.5034006
163	0x3ee173cf	0.44033667
164	0xbe98e057	-0.29858658
165	0x3e0ce8bf	0.1376066
166	0xbf0af864	-0.54285264
167	0xbebfd05e	-0.3746366
168	0xbe22fff3	-0.1591795
169	0xbec5c8d8	-0.38629794
170	0xbf06e79a	-0.52697146
171	0xbd5eec0a	-0.054424323
172	0x3d8b1209	0.06790549
173	0xbe30d939	-0.17270364
174	0x3e568ed3	0.2095292
175	0x3df893f3	0.12137594
176	0xbe8f9048	-0.28039765
177	0xbf1ceb15	-0.61296207
178	0x3f0b0187	0.54299206
179	0xbdfc1c30	-0.12310064
180	0xbf3b3d5d	-0.7314051
181	0x3f561457	0.83624786
182	0x401eaa4c	2.479144
183	0x3e7946eb	0.2434346
184	0xbcb0b92b	-0.02157267
185	0xbf0293cf	-0.5100679
186	0xbf1f334a	-0.62187636
187	0x3d37ecdc	0.04490362
188	0xbe3d6bdf	-0.18498181
189	0xbf0106c8	-0.5040097
190	0x3f207964	0.6268523
191	0x3ff1c3e7	1.888791
192	0xbdde8ba3	-0.10866477
193	0x3e4d21da	0.20032445
194	0xbe7df92e	-0.24802086
195	0x3f0d747a	0.55255854
196	0x3d0c3c6e	0.034237318
197	0xbe6771cc	-0.22602004
198	0x3eaf0742	0.34185225
199	0x3e905083	0.28186426
200	0xbe57d127	-0.21075879
201	0x3eff156d	0.49821034
202	0x3e928aee	0.2862162
203	0x3e997085	0.29968658
204	0xbce6f36d	-0.028192246
205	0xbf126d0d	-0.5719765
206	0x3d1e7ecb	0.038695138
207	0xbe86a8d7	-0.2630069
208	0x3ebceea4	0.36900818
209	0xbf0333bb	-0.5125081
210	0x3ddd91ce	0.10818826
211	0xbeb8d169	-0.36097267
212	0xbe4f4b77	-0.20243631
213	0xbe4964d9	-0.19667377
214	0xbe9f7482	-0.31143576
215	0xbd82f4bf	-0.06394338
216	0xbcbd4ae8	-0.023107007
217	0xbed5a27a	-0.41725522
218	0xbd70e0a6	-0.05880799
219	0xbe83a132	-0.2570892
220	0xbe760b60	-0.24027777
221	0xbd9ce164	-0.07660177
222	0x3f2e7854	0.68152356
223	0x3f9134f2	1.1344283
224	0x3fe5cef3	1.7953781
225	0x3b9e1dfb	0.0048253513
226	0x3e8acff2	0.27111775
227	0xbee87cc6	-0.45407695
228	0x3e4a9955	0.19785054
229	0xbda7bb2a	-0.081899956
230	0xbe314b6d	-0.17313929
231	0x3f82dc9c	1.0223575
232	0xbe1da319	-0.15394248
233	0x3f8db9bb	1.1072305
234	0x3d7b8bd8	0.061412662
235	0x3f0d39a6	0.5516609
236	0x3fa37309	1.2769481
237	0x3e652957	0.22379051
238	0xbf08d2fc	-0.53446937
239	0xbd08c239	-0.03338835
240	0x3e1b25ba	0.1515111
241	0xbed1d064	-0.40979302
242	0xbe2c0e89	-0.1680242
243	0xbed927da	-0.42413217
244	0x3ef1a6f5	0.4719769
245	0xbed5cbd1	-0.41757062
246	0x3f0a18bd	0.53944
247	0xbd2298be	-0.039696448
248	0xbd60c79e	-0.05487787
249	0x3c4efc8f	0.012633457
250	0x3ec56ad9	0.3855808
251	0x3ed28a2b	0.4112104
252	0x3ede7179	0.43445948
253	0x3e7b04be	0.24513528
254	0x3f09d38a	0.5383841
255	0xbf206d3a	-0.62666667

sequential.0.bias f4 [128]
0	0x3e628143	0.22119622
1	0xbedc92c0	-0.4308071
2	0x3eff55af	0.4987006
3	0xbd5a2942	-0.053262003
4	0xbeaf25cc	-0.34208524
5	0x3e8957b4	0.26824725
6	0xbd30ee10	-0.043195784
7	0x3ef12b50	0.47103357
8	0x3db8e267	0.09027558
9	0xbea00fbf	-0.31262013
10	0x3eb44f8a	0.35216933
11	0xbef22246	-0.47291774
12	0x3eede926	0.4646694
13	0xbf20ab05	-0.62760955
14	0xbe99ed54	-0.3006388
15	0x3eef592a	0.46747714
16	0xbe5be9f5	-0.21475966
17	0xbe771aef	-0.24131368
18	0x3de1227f	0.10992908
19	0xbd2dfd91	-0.042478148
20	0x3ec169db	0.37776074
21	0x3f201327	0.62529224
22	0x3e829c9c	0.25510108
23	0xbeb3ccf6	-0.3511731
24	0x3c9f52e0	0.019448698
25	0xbe838355	-0.25686136
26	0x3ecafef3	0.39647636
27	0xbe615ddf	-0.22008465
28	0xbd7b4ec5	-0.061354417
29	0xbe647039	-0.22308435
30	0x3ecff3c4	0.40615666
31	0xbeb5f347	-0.35537168
32	0xbebf997b	-0.37421784
33	0xbd215b0e	-0.039393477
34	0xbe071186	-0.13190278
35	0x3d79c50b	0.06097893
36	0xbc8cec99	-0.017202662
37	0xbb1c0cdd	-0.0023811378
38	0x3ef92452	0.48660523
39	0xbf049ab5	-0.51798564
40	0x3eddf255	0.43348947
41	0xbef6cba5	-0.48202243
42	0x3cfef578	0.031122908
43	0x3d5feb66	0.054667853
44	0xbeaae405	-0.3337709
45	0xbecfbcbd	-0.40573683
46	0xbef7d408	-0.48403955
47	0xbe863c01	-0.26217654
48	0x3e864a14	0.26228392
49	0xbd71c538	-0.059025973
50	0xbecbf164	-0.39832604
51	0x3c87c3e9	0.01657291
52	0xbe820fe8	-0.2540276
53	0xbee37a80	-0.44429398
54	0x3e979a30	0.29609823
55	0xbe9d04a5	-0.30667606
56	0x3eca9f30	0.39574575
57	0xbe73864f	-0.23781703
58	0x3e66858f	0.22511886
59	0x3e7d68c6	0.24746999
60	0x3e97b7c9	0.29632404
61	0x3ea472ae	0.32118744
62	0x3efdb29f	0.4955034
63	0x3f03d2c2	0.51493466
64	0xbf061976	-0.523826
65	0x3ea7c208	0.32765222
66	0x3f17c39c	0.5928285
67	0xbea08f51	-0.31359342
68	0x3d9470c8	0.07248074
69	0xbe8601b9	-0.2617319
70	0x3cdf8140	0.02728331
71	0x3eac2c6f	0.3362765
72	0xbedd1a2b	-0.43184027
73	0x3ec9515e	0.3931989
74	0x3f0a53b1	0.5403395
75	0xbdf9bdb6	-0.121943876
76	0x3f1669f5	0.5875543
77	0xbecaec3b	-0.39633355
78	0x3ec33fe5	0.38134685
79	0x3e0e229d	0.13880391
80	0x3f0135ca	0.504727
81	0x3f0f0bd5	0.5587743
82	0x3ec3f75a	0.38274652
83	0x3ee9b717	0.456475
84	0xbe784d33	-0.24248199
85	0x3e5851df	0.21124981
86	0x3c6290dc	0.0138284825
87	0xbeec9b73	-0.46212348
88	0xbee97193	-0.45594463
89	0xbe6503a5	-0.22364672
90	0xbe9659e7	-0.29365465
91	0x3da2b863	0.07945325
92	0x3e4d5819	0.20053138
93	0x3e8c1948	0.27363038
94	0x3f169281	0.588173
95	0x3f0d723d	0.5525244
96	0xbf2486e8	-0.6426835
97	0xbebdf6b7	-0.3710229
98	0x3e1a6384	0.15077025
99	0x3ddf0bfa	0.10890956
100	0xbea13dd4	-0.31492484
101	0xbea493b6	-0.32143945
102	0xbe76097a	-0.24027053
103	0xbf0d0d8f	-0.55098814
104	0x3eeb253f	0.45926854
105	0x3e6c168b	0.23055474
106	0x3f21194d	0.6292923
107	0x3e79e5b6	0.24404034
108	0x3e2ddda2	0.16979077
109	0x3e85336d	0.26015797
110	0xbec7fdf1	-0.3906093
111	0xbeb8f6ea	-0.3612588
112	0x3ea47f1a	0.3212822
113	0xbec7e846	-0.39044398
114	0xbf2c0aae	-0.67203796
115	0x3f0c3d92	0.5478145
116	0xbe8eb3fd	-0.27871695
117	0x3e15a811	0.14614893
118	0x3de2c0ab	0.11071905
119	0x3eb4cc75	0.35312238
120	0x3ef136b5	0.4711205
121	0xbebaf947	-0.3651831
122	0xbe288919	-0.16458549
123	0xbd735ebc	-0.059416518
124	0x3eaffb0f	0.3437123
125	0x3eaa598b	0.3327144
126	0xbd39ab79	-0.045329545
127	0x3c0d8464	0.008637521

sequential.2.weight f4 [128, 128]
0	0x3e2dcbbc	0.1697225
1	0x3cd73ba9	0.026273565
2	0xbeab3fbe	-0.3344707
3	0x3d982248	0.07428414
4	0xbd4c9ad8	-0.049952358
5	0x3d9d9f7f	0.07696437
6	0x3d9eafc7	0.077483706
7	0xbd6a2b0b	-0.057169955
8	0xbe430d78	-0.19048107
9	0xbd6ca0f4	-0.057770684
10	0xbe934f75	-0.28771558
11	0xbec56cf0	-0.38559675
12	0x3d852e7f	0.06503009
13	0x3d84946f	0.06473624
14	0x3d59c747	0.05316856
15	0xbe8e68d3	-0.2781435
16	0xbdf34f13	-0.118803166
17	0x3d8b48b0	0.068009734
18	0xbd0d91da	-0.034562923
19	0x3da7c764	0.081923276
20	0x3e106228	0.14099944
21	0xbe8eeb54	-0.27913916
22	0x3c443ce7	0.011977411
23	0x3d9106f3	0.070814036
24	0x3e36c160	0.17847204
25	0xbd82c395	-0.063849606
26	0x3e2d0d1b	0.1689953
27	0xbd0166d6	-0.031592213
28	0x3de92570	0.11384094
29	0x3d087434	0.033313945
30	0x3d40f66c	0.047110006
31	0x3d6a121c	0.057146177
32	0xbf009979	-0.5023418
33	0xbe3023d9	-0.17201175
34	0xbe29e471	-0.1659105
35	0x3e366e1e	0.17815444
36	0x3d03f58d	0.032216597
37	0x3db950f7	0.09048646
38	0xbe6caad7	-0.23112045
39	0x3c974e1e	0.018469866
40	0xbea531b8	-0.32264495
41	0xbcb031e0	-0.021508157
42	0x3db531ad	0.088473655
43	0xbc0c0ae3	-0.0085475175
44	0x3d16e2c8	0.03683737
45	0xbf8c772b	-1.0973867
46	0x3de0b341	0.1097169
47	0xbcc6292a	-0.02418955
48	0xbebb87e9	-0.3662713
49	0x3e3eaf06	0.18621454
50	0x3e0d9379	0.13825788
51	0x3db5743b	0.0886006
52	0x3df1bed7	0.11803978
53	0x3e3b80e2	0.18310884
54	0x3d0158bc	0.031578764
55	0x3e3c4a1c	0.18387645
56	0x3dc604b0	0.09668863
57	0x3d44eb30	0.048075855
58	0xbede1459	-0.433749
59	0x3cd1287d	0.025532002
60	0xbddea508	-0.10871321
61	0x3e09851a	0.1342968
62	0x3e48f58a	0.19624916
63	0xbe33f87f	-0.17575262
64	0x3dc63203	0.09677508
65	0x3e2c78bf	0.16842936
66	0x3e1a008e	0.15039274
67	0xbbe5f0f6	-0.00701725
68	0xbd1f0134	-0.038819507
69	0x3e159471	0.14607407
70	0x3e26c960	0.16287756
71	0x3e24bcd3	0.16087656
72	0xbcf28f7a	-0.02960943
73	0x3df4e77e	0.11958216
74	0xbe34dd2b	-0.17662494
75	0x3e3b7f5b	0.18310301
76	0x3d67db93	0.056605887
77	0xbda9a48e	-0.082833394
78	0xbe9dfc1c	-0.30856407
79	0xbdeb8cdb	-0.115014754
80	0x3d8a553c	0.067545384
81	0x3e205c12	0.15660122
82	0xbe42bf43	-0.19018273
83	0xbea0fefc	-0.31444538
84	0x3d1b0b10	0.037852347
85	0xbe71c30d	-0.23609562
86	0x3e485917	0.19565235
87	0x3d88ac99	0.066735454
88	0xbe2bad18	-0.16765249
89	0xbf0d0078	-0.5507884
90	0xbc202dd4	-0.009776551
91	0xbd8c4a42	-0.06850101
92	0x3e087969	0.13327564
93	0x3d5e660a	0.05429653
94	0xbe7b72dd	-0.24555536
95	0x3e29b2a9	0.1657206
96	0x3e04cfa6	0.12969837
97	0x3e3cf4a7	0.18452702
98	0xbead1202	-0.338028
99	0x3dba390b	0.09092911
100	0x3c9ce6ea	0.019153077
101	0x3e029983	0.12753873
102	0x3d39f448	0.04539898
103	0x3d2476ec	0.040152475
104	0xbeb66858	-0.35626483
105	0x3e09f0f0	0.13470817
106	0xbe9b801b	-0.30371174
107	0x3da4c57c	0.0804548
108	0x3e3b9cb8	0.18321502
109	0xbd88268a	-0.06647976
110	0x3e0fb26f	0.14032911
111	0x3e021567	0.12703477
112	0xbe760d74	-0.2402857
113	0xbf82e136	-1.0224979
114	0x3e202580	0.15639305
115	0x3e17d14f	0.14825939
116	0xbe0f0d73	-0.13969974
117	0xbd181e1c	-0.03713809
118	0xbdade4b7	-0.084908895
119	0x3d94b104	0.072603256
120	0x3da891bf	0.08230924
121	0xbd88ec59	-0.06685705
122	0xbdb4a04d	-0.088196374
123	0x3befa808	0.007313732
124	0x3d4f60eb	0.050629538
125	0x3e3c18d2	0.18368843
126	0x3d7aa36c	0.061191007
127	0xbcbefafd	-0.02331304
128	0x3d3327cd	0.04373913
129	0x3c0f7c2a	0.00875763
130	0xbd8b6f43	-0.06808331
131	0x3d6cac21	0.057781342
132	0xbd343578	-0.043996304
133	0x3d6fa940	0.05851102
134	0xbdb5bfd0	-0.08874476
135	0xbb5d15e1	-0.0033734965
136	0xbc6b8ccf	-0.014376833
137	0xbd6571cd	-0.056016732
138	0x3d9608a5	0.073258676
139	0xbd29fec4	-0.04150273
140	0xbdb8ba69	-0.0901993
141	0xbd92ed43	-0.0717416
142	0x3d1675ae	0.03673332
143	0x3ce3b460	0.02779597
144	0x3d4b3642	0.04961229
145	0xbcd9cf48	-0.026588097
146	0xbda56e79	-0.080777116
147	0x3d8e7924	0.069566995
148	0xbdc42ce8	-0.09578878
149	0xbd239023	-0.03993238
150	0x3d49c1e1	0.049257163
151	0x3d0a476f	0.03375953
152	0x3bd150aa	0.0063877897
153	0x3d7b157a	0.06129978
154	0xbd8ede10	-0.06975949
155	0xbdab8fd4	-0.083770424
156	0xbd96a86f	-0.07356345
157	0xbd1d47ff	-0.03839874
158	0xbd0aa98b	-0.033853095
159	0x3d84b797	0.064803295
160	0xbd5e456f	-0.054265436
161	0x3d9badea	0.07601531
162	0xbd7216a8	-0.059103638
163	0xbd51a381	-0.05118132
164	0xbcb59dd7	-0.02216999
165	0xbd813f3d	-0.0631089
166	0x3d1d347f	0.038380142
167	0xbd948aa4	-0.07253006
168	0xbd791ef4	-0.060820535
169	0xbd267bbf	-0.040645357
170	0xbc8bb288	-0.017052904
171	0xbd30a5bc	-0.043126807
172	0xbb0dcb53	-0.0021636083
173	0xbd74f58f	-0.059804495
174	0x3d9b0c0d	0.07570658
175	0x3d6f00f1	0.058350507
176	0xbd649cf7	-0.055813756
177	0xbdc409ad	-0.09572158
178	0xbd7622e7	-0.06009188
179	0x3d8badd6	0.06820266
180	0xbbd85128	-0.0066014715
181	0x3d954fb3	0.07290592
182	0x3cac405c	0.021026783
183	0x3c1dd921	0.009634287
184	0xbda15d3b	-0.078791104
185	0xbd7f8848	-0.062385827
186	0xbcfe950b	-0.031076929
187	0xbd367d27	-0.04455295
188	0xbd04079f	-0.03223383
189	0x3d95dd4b	0.07317599
190	0xbcc6e009	-0.02427675
191	0x3d2d73a3	0.042346608
192	0xbc238924	-0.009981427
193	0xbba7bdaf	-0.0051190476
194	0x3d6310d3	0.055435967
195	0x3da5cab5	0.08095304
196	0xbd865e90	-0.06561005
197	0x3d2f5581	0.042806152
198	0xbda515b3	-0.080607794
199	0x3d6e30c0	0.05815196
200	0xbc543150	-0.01295121
201	0xbdb651be	-0.0890231
202	0xbc986ce5	-0.018606612
203	0xbbc3236a	-0.0059551494
204	0x3d8f618d	0.07001028
205	0xbcf18d21	-0.02948624
206	0xbd6a810b	-0.05725197
207	0x3d5e5fdc	0.054290637
208	0xbbdd12d1	-0.006746628
209	0x3c825f28	0.015914515
210	0xbd252fb5	-0.0403287
211	0x3d4c35e7	0.049856093
212	0xbd5da0d5	-0.05410846
213	0xbdacf638	-0.084454
214	0x3d51885f	0.051155444
215	0x3d2ffcd8	0.04296574
216	0x3d343922	0.0439998
217	0xbd091ce2	-0.03347481
218	0x3d216174	0.03939958
219	0x3cc2eb42	0.02379382
220	0xbd7c0cfa	-0.061535813
221	0xbcfac09f	-0.030609427
222	0xbd4380e8	-0.047730356
223	0x3cc2100d	0.023689294
224	0x399a4828	0.0002942693
225	0x3b8af6fc	0.0042408686
226	0xbc5ddef3	-0.013541925
227	0x3bb97224	0.0056593586
228	0x3d5d6cea	0.054058947
229	0x3d279072	0.04090924
230	0x3d83aa0d	0.06428919
231	0x3da6d6eb	0.08146461
232	0x3d7026d4	0.05863078
233	0x3d382b06	0.044962905
234	0xbd78a33a	-0.06070254
235	0xbd631dea	-0.05544845
236	0x3d6fb0c3	0.058518182
237	0x3d3314d1	0.043721024
238	0xbd3e4b01	-0.046458248
239	0x3dae2c65	0.08504561
240	0xbd3340f5	-0.04376312
241	0xbd6a8bc3	-0.057262193
242	0x3d6be784	0.057593837
243	0xbb0eac58	-0.0021770205
244	0x3da827a2	0.08210684
245	0xbc8b07ae	-0.016971435
246	0xbd9c563b	-0.07633635
247	0x3b1271ef	0.0022345742
248	0xbcc1aef0	-0.023642987
249	0x3d291a94	0.041285113
250	0x3d99ae81	0.07503987
251	0x3d897636	0.06712
252	0x3d919a2c	0.07109484
253	0x3ce67abe	0.0281347
254	0xbd5330f7	-0.05156037
255	0xbd9fabdc	-0.077964514

sequential.2.bias f4 [128]
0	0x3d87fa55	0.06639544
1	0x39b82706	0.0003512429
2	0xbcd3b123	-0.025841301
3	0xbd877b2d	-0.06615291
4	0xbd9141de	-0.07092641
5	0xbdf52997	-0.11970823
6	0xbe09ca81	-0.13456155
7	0xbcbec855	-0.023288885
8	0x3c1d1b91	0.009589092
9	0xb8e7e307	-0.000110572255
10	0x3c584f12	0.013202446
11	0x3d346be6	0.044048212
12	0x3d3b073e	0.045661204
13	0x3d8a6821	0.06758142
14	0x3cab469b	0.02090769
15	0xbd8fecaf	-0.07027566
16	0xbd3ef470	-0.046619833
17	0xbc4feb9a	-0.012690449
18	0x3d1b0e03	0.03785516
19	0x3cb7ff78	0.022460684
20	0xbde02ff4	-0.10946646
21	0xbd6b3438	-0.057422847
22	0x3d1b978e	0.03798633
23	0xbd69f7cc	-0.057121083
24	0x3cc9dc28	0.024641111
25	0xbd8e802a	-0.06958039
26	0xbe0226ab	-0.12710063
27	0x3b1d0450	0.002395887
28	0x3d8100be	0.0629897
29	0xbd900aa0	-0.070332766
30	0x3d7a4ac1	0.061106447
31	0x3d7eef97	0.06224021
32	0x3d4c05dd	0.04981028
33	0xbdfb350f	-0.122659795
34	0x3d87517d	0.066073395
35	0x3ce6b094	0.02816037
36	0x3e142163	0.14465861
37	0x3b858850	0.0040750876
38	0xbbad404d	-0.0052872063
39	0x3d566d12	0.05235011
40	0xbd3bb08e	-0.045822673
41	0xbd893cd5	-0.06701056
42	0xbd546514	-0.051854208
43	0x3cfe9fd3	0.03108207
44	0x3c0c467f	0.008561729
45	0xbd9c27fe	-0.076248154
46	0x3d1e1f93	0.03860433
47	0xbdbc2b15	-0.09187905
48	0xbdb7177d	-0.08940027
49	0xbd0c32fb	-0.034228306
50	0x3d17a157	0.0370191
51	0x3c97a6ab	0.01851209
52	0xbd611d3b	-0.054959517
53	0x3d0e0f70	0.03468269
54	0x3e07396a	0.13205495
55	0xbcd67aec	-0.02618166
56	0x3d6595e8	0.056051165
57	0x3df95822	0.12175013
58	0x3cd09334	0.025460817
59	0xbd7b04b2	-0.061283775
60	0xbda7847c	-0.08179566
61	0xbd66f191	-0.05638272
62	0x3cc83720	0.024440348
63	0x3c73abc6	0.014872497
64	0xbddbcb4f	-0.107321374
65	0xbd415400	-0.04719925
66	0x3d1a5e04	0.037687317
67	0x3d553be3	0.052059066
68	0x3d4de3d4	0.050266102
69	0x3d388b19	0.04505453
70	0x3ca3c2e7	0.019990398
71	0xbe35cf4b	-0.17754857
72	0x3de6576c	0.11247143
73	0xbd93cb66	-0.072165295
74	0x3e184935	0.14871676
75	0x3e012384	0.12611204
76	0xbc89175d	-0.016734773
77	0xbd9a5c97	-0.07537191
78	0xbd9552ed	-0.072912075
79	0xbd8f03a3	-0.069831155
80	0x3cf1bbdd	0.029508526
81	0xbc77704a	-0.015102455
82	0x3d49fe8c	0.04931502
83	0x3e399286	0.181223
84	0xbd3988dd	-0.04529654
85	0xbdc143ad	-0.09436736
86	0xbdc3b553	-0.09556069
87	0x3c92871d	0.017886693
88	0x3caf1e6a	0.021376807
89	0x3ce1bcf5	0.027555922
90	0x3bb54490	0.005531855
91	0xbda5f47c	-0.08103272
92	0x3d3858f5	0.04500671
93	0x3d82eb46	0.06392531
94	0xbe3ab7d1	-0.18234183
95	0xbcf4a121	-0.029861988
96	0xbdf40074	-0.11914149
97	0xbd838c91	-0.06423295
98	0xbd881ae4	-0.06645754
99	0xbd748386	-0.059695743
100	0xbcba5a34	-0.02274809
101	0x3cc06039	0.023483383
102	0xbd3d7931	-0.046258155
103	0x3bf71899	0.007540774
104	0xbd31717f	-0.04332113
105	0x3d447435	0.047962386
106	0x3ce2cb44	0.027684815
107	0x3d7fa16d	0.062409807
108	0xbd92b943	-0.07164242
109	0xbda62a8f	-0.08113586
110	0x3d026ca4	0.03184189
111	0x3d5ef275	0.054430444
112	0xbcd15308	-0.025552288
113	0x3c7b7c94	0.015349526
114	0x3c9d219c	0.019181065
115	0xbd181bd1	-0.037135903
116	0x3d6a5758	0.057212204
117	0xbb3d1104	-0.0028849253
118	0xbd72b010	-0.059249938
119	0xbc4259f4	-0.011862267
120	0x3d5cbc86	0.053890727
121	0x3d03b6da	0.032156803
122	0xbdb354b2	-0.08756389
123	0xbddfd335	-0.109289564
124	0xbd37a63d	-0.04483627
125	0x3c975935	0.018475154
126	0xbc1e51c7	-0.009663052
127	0x3cf03e3e	0.029326554

sequential.4.weight f4 [2, 128]
0	0xbd358a09	-0.044321094
1	0x3d999819	0.074997135
2	0xb9aef867	-0.0003337294
3	0xbc68f901	-0.014219523
4	0x3d253aa9	0.040339146
5	0x3cc21ef0	0.023696393
6	0x3ec3119d	0.38099375
7	0x3c878135	0.016541103
8	0x3cc4c9f1	0.024022074
9	0xbda2c9f8	-0.07948679
10	0xbd961ccb	-0.073297106
11	0x3f66ba1b	0.90127724
12	0xbd8641fe	-0.06555556
13	0xbc3ac4ba	-0.011399442
14	0x3da7b938	0.081896245
15	0x3c8f5a73	0.017499184
16	0x3d9b12f4	0.075719744
17	0xbbbabe4f	-0.005698956
18	0x3d24be57	0.040220585
19	0xbe064082	-0.13110545
20	0x3d3fd2d2	0.046831913
21	0xbd9c4d7a	-0.07631965
22	0xbd04637d	-0.032321442
23	0xbd53243c	-0.051548228
24	0xbd1f6cfd	-0.0389223
25	0xbcac3b0d	-0.021024251
26	0x3f1cb15d	0.61208135
27	0x3da6bf24	0.08141926
28	0xbd236d71	-0.039899293
29	0xbd935fa7	-0.071959786
30	0xbce9ab17	-0.028523965
31	0xbdcae379	-0.09906668
32	0x3b611d83	0.0034349866
33	0x3b987681	0.0046527986
34	0xbcc39519	-0.023874806
35	0xbdad2e4f	-0.08456098
36	0xbd913a0a	-0.07091148
37	0x3d83230a	0.064031675
38	0xbcbceddc	-0.023062639
39	0x3d956248	0.07294136
40	0x3cb01ade	0.021497186
41	0x3d3d9c5c	0.046291694
42	0x3da4b7c3	0.08042862
43	0x3d863808	0.06553656
44	0xbe490683	-0.1963139
45	0x3d8b23da	0.067939475
46	0xbd25832e	-0.040408306
47	0xbd93a70b	-0.07209595
48	0x3d615883	0.055016052
49	0x3e5f5905	0.21811302
50	0xbc1fa36b	-0.009743552
51	0xbcd6baed	-0.02621218
52	0x3da3d109	0.07998855
53	0xbcc8cc55	-0.024511496
54	0x3f14c63a	0.5811497
55	0x3f3a9262	0.7287961
56	0xbbdf6f63	-0.0068186983
57	0x3e63ca40	0.22245121
58	0x3cb54b47	0.022130622
59	0x3fc8b1ca	1.5679257
60	0xbd9b6f61	-0.07589603
61	0xbdcead47	-0.10091644
62	0xbfb80e9e	-1.4379461
63	0x4027108f	2.6103857
64	0xbd754420	-0.059879422
65	0xbcdcc645	-0.026950011
66	0xbda615bd	-0.08109615
67	0x3e28d218	0.16486394
68	0x3cbd40a9	0.023102121
69	0x3d88c486	0.06678109
70	0x3ccc111c	0.024910502
71	0xba9d4952	-0.0012
72	0xbd826549	-0.06366975
73	0xbd935598	-0.0719406
74	0xbe298abe	-0.16556832
75	0x3c73e3db	0.014885868
76	0x3d71d86f	0.059044298
77	0xbd6c3492	-0.057667322
78	0x3e1b23b8	0.15150344
79	0x3baa1b0f	0.005191214
80	0x3d70ab19	0.05875692
81	0xbe0e6d1b	-0.13908808
82	0x3facf5a1	1.351246
83	0x3f72a10a	0.94776976
84	0xbcac70e3	-0.021049922
85	0x3c4c739a	0.012478733
86	0x3d382433	0.044956397
87	0x3dec0d28	0.11525947
88	0xbcad585e	-0.0211603
89	0xbd36915a	-0.04457221
90	0xbd036608	-0.032079726
91	0x39b98000	0.00035381317
92	0x3d0f016c	0.034913465
93	0xbc87566e	-0.016520705
94	0x3f2fded9	0.68699414
95	0xbf1952c2	-0.59891903
96	0x3e47af9c	0.19500583
97	0x3c7a9c05	0.015295987
98	0x3c6d5265	0.014484976
99	0xbd44d386	-0.048053287
100	0xbd03a347	-0.032138135
101	0x3f45be0d	0.7724312
102	0xbdfe9ce5	-0.12432269
103	0xbcd0ad11	-0.02547315
104	0xbf56961b	-0.8382279
105	0xbd6b31e0	-0.05742061
106	0x3f80cfb7	1.006339
107	0xbdc4a1ca	-0.09601171
108	0x3d1dd720	0.038535237
109	0x3d3f27f6	0.04666897
110	0x3a61ae03	0.00086089986
111	0xbcfcc5e3	-0.030856078
112	0xbe5c3fe6	-0.2150875
113	0x3d495855	0.049156506
114	0xbcf88ca4	-0.0303405
115	0x3e14e972	0.14542177
116	0x3e87d425	0.2652904
117	0x3d326b2d	0.043559242
118	0x3cf2012d	0.029541576
119	0xbcf2347e	-0.029566046
120	0xbcaa44bc	-0.020784728
121	0xbdf117a7	-0.117720895
122	0xbda36c86	-0.079796836
123	0xbd1958dd	-0.037438262
124	0x3d937552	0.072001114
125	0xbc903f03	-0.017608171
126	0x3c9084e3	0.01764149
127	0x3f579dd9	0.8422523
128	0x3e29dea6	0.1658884
129	0x3d3a7a09	0.045526538
130	0xbdb37374	-0.08762255
131	0x3d249d2c	0.040188953
132	0xbca52674	-0.020159937
133	0xbd6d0172	-0.057862706
134	0xbebc4911	-0.36774495
135	0x3c498eca	0.01230211
136	0xbbcb4cf3	-0.0062042414
137	0x3c622242	0.013802113
138	0x3d532ae7	0.051554587
139	0xbe151824	-0.1455999
140	0x3d66f86e	0.056389265
141	0xbc922c1b	-0.017843297
142	0x3c8579f5	0.016293505
143	0xbc8389e8	-0.01605697
144	0xbcc7dc5c	-0.024397068
145	0xbdfa2c18	-0.122154415
146	0xbdc5f155	-0.09665171
147	0x3d9d56ca	0.07682569
148	0xbe04f743	-0.12984948
149	0xbd583876	-0.05278822
150	0x3ced9480	0.029001474
151	0x3d259e6d	0.04043429
152	0x3d14539c	0.03621255
153	0xbd326023	-0.043548714
154	0xbd3bbad8	-0.045832485
155	0x3d24c815	0.040229876
156	0xbb7cfdae	-0.0038603353
157	0xbd9936a1	-0.07481123
158	0xbe3f56d2	-0.18685463
159	0xbd3ebe07	-0.046567943
160	0x3e396c1c	0.18107647
161	0xbc5b6a13	-0.013391989
162	0x3d19c0e2	0.037537463
163	0xbeb5294c	-0.3538307
164	0x3e3e745c	0.18599075
165	0xbe40eb65	-0.18839796
166	0x3db41820	0.08793664
167	0x3b61ae31	0.0034436102
168	0xbca01315	-0.019540349
169	0xbb923614	-0.004462013
170	0x3cb767c8	0.022388354
171	0x3d35c5cd	0.04437809
172	0xbe57a657	-0.21059547
173	0x3d7472fb	0.059679966
174	0xbe164c24	-0.14677483
175	0x3d14e292	0.036348887
176	0xbba0db2a	-0.004908939
177	0xbe1e80f8	-0.15478885
178	0xbdba3ea2	-0.090939775
179	0xbdeffa9f	-0.11717724
180	0xbcfde793	-0.030994212
181	0x3cc6b49b	0.024256041
182	0x3e111d4f	0.14171337
183	0xbda17252	-0.07883133
184	0xbd042f89	-0.032271896
185	0x3dffc479	0.12488646
186	0x3cffcfda	0.031227041
187	0xbd3ef68f	-0.046621855
188	0xbd61b2fa	-0.055102326
189	0xbd26c4be	-0.04071497
190	0x3dce0790	0.10060036
191	0xbddf6779	-0.10908408
192	0xbe0e9b2b	-0.1392638
193	0xbdd7b261	-0.1053207
194	0x3d02a962	0.031899817
195	0xbd4aa1e4	-0.049470797
196	0x3d9620f9	0.07330508
197	0x3d45bb84	0.048274532
198	0xbdeb9e2c	-0.11504778
199	0xbb931cb3	-0.004489505
200	0x3e039692	0.12850407
201	0x3d9d725a	0.076878265
202	0xbf1c936b	-0.6116244
203	0x3df57253	0.11984696
204	0x3d436e96	0.047712885
205	0x3b9699af	0.004595957
206	0xbd796215	-0.060884554
207	0x3c29b4b8	0.010358028
208	0x3da8f67a	0.08250137
209	0xbd8b2dac	-0.067958206
210	0x3e295097	0.16534649
211	0x3dfac888	0.122452796
212	0x3d6f9441	0.058490995
213	0xbd632234	-0.05545254
214	0xbe4e0a52	-0.20121124
215	0xbd9afc7a	-0.07567687
216	0xbd448d2f	-0.047986206
217	0x3cd7a92d	0.026325786
218	0xbd798cd0	-0.060925305
219	0x3cc1709e	0.02361327
220	0x3d570764	0.052497283
221	0xbe27b4bf	-0.16377543
222	0xbd8103c4	-0.06299546
223	0xbe445520	-0.19173098
224	0x3da1f656	0.07908313
225	0xbdaa592a	-0.08317788
226	0x3d511220	0.051042676
227	0x3bc2a138	0.005939629
228	0xbc618bd5	-0.013766249
229	0xbdfe92ce	-0.124303445
230	0xbcfd0b52	-0.030889187
231	0xbe835cb4	-0.25656664
232	0xbec26e8f	-0.37974975
233	0xbd867ff5	-0.065673746
234	0x3e1750c3	0.14776902
235	0x3def38cd	0.11680756
236	0x3d2d1ba6	0.042262696
237	0xbe192e90	-0.14959168
238	0xbda62671	-0.08112801
239	0xbdd8d793	-0.105879925
240	0xbe25a598	-0.1617645
241	0x3d3e7edc	0.0465077
242	0x3cef8ff6	0.02924345
243	0xbdb86d29	-0.09005196
244	0x3e19e81b	0.15029947
245	0x3d8bc7c8	0.068252146
246	0x3d842d7a	0.064539865
247	0x3bedad5c	0.007253332
248	0xbd6288c6	-0.05530622
249	0x3e475a4d	0.19468041
250	0xbd4d8f1e	-0.050185315
251	0xbca52fa1	-0.020164313
252	0x3d547bb4	0.051875785
253	0x3cd02331	0.025407406
254	0xbe01ff4b	-0.12695043
255	0x3e01c7f3	0.12673931

sequential.4.bias f4 [2]
0	0xbd559a26	-0.05214896
1	0x3b48bc4b	0.003062981
