inverse_trainer/models/state_evaluators/state_evaluator_02.10-00:41.pth (torch, 71696 bytes, 5 tensors)

sequential.0.weight f4 [128, 3]
-0.3054579 0.05881733 -1.0554725 0.1727151 0.100295715 -0.70476663 -0.32738084 0.29218835
-0.12336957 0.40839612 -1.6475263 -4.934387 0.014222981 0.1368928 0.10174409 0.48643315
0.100831255 -0.75846326 0.28672722 0.20285177 0.5733146 -0.18587716 1.5326276 -1.9968208
0.40627763 1.0282657 5.723211 -0.53210396 0.29649818 0.30432957 0.040563237 0.1673506
-3.6147542 1.5959572 1.1707971 -0.84205717 -0.045164753 -0.15149596 -1.7399738 -0.039941486
0.051890247 15.580832 2.1543875 -1.2301846 -0.019881863 0.53482634 0.3047 -1.7857544
0.105738044 1.1407009 4.326904 1.8620566 0.09732781 -0.60694677 0.3647003 0.24840993
0.13330042 -0.0960696 2.1624098 -6.2542934 0.28501356 0.39862934 0.20391127 -0.13760291
-1.6273743 -0.22792892 0.12537839 0.41018993 -0.15819335 0.00622123 0.10654535 -3.0965593
-1.5846416 -0.41312715 6.569471 0.15611781 -0.20090656 0.48652115 -0.51327807 -1.5010831
3.227082 0.08619582 0.741739 -1.3270824 0.2929736 0.20162374 -1.3911958 1.1887276
1.3902578 -0.54592025 0.08980836 -0.11398882 -0.17460598 -0.13557959 -0.285645 0.3220927
2.3457482 2.0532212 -0.9216661 0.11772257 0.13557413 -1.2308297 0.20067851 1.7257241
8.340258 -0.088838845 -0.06835304 -3.4700928 -0.09388664 -0.20456024 -4.217586 0.029751027
0.05823718 -0.44323054 -0.08178061 0.13576294 0.37370816 2.1332333 0.008836108 0.56848115
0.31636208 0.071408965 -0.9207879 -1.5748789 -1.1682479 1.4393862 -0.734046 0.87414753
4.502416 0.12589756 -0.0770417 0.035862498 -0.31389388 0.30991155 -0.19152835 0.993575
0.5848679 2.4858403 -0.20560746 -1.5213645 3.3591418 0.010698959 0.006296626 -18.803268
-0.14417563 0.40741858 20.489187 -0.950181 1.213133 11.542341 1.1755284 2.8138297
0.045746144 1.4192574 1.9408928 1.5176301 -0.6448466 -1.5169051 2.651109 0.31862327
2.200423 7.2506566 0.046789512 -0.0018929769 0.4106965 0.20744242 1.1866318 -6.4469447
-2.3293636 1.7436985 -1.0870794 0.13763326 -0.07237663 -2.6318877 -0.089620724 -0.22695872
-3.4216123 0.0059508467 -0.11775188 0.23223181 -0.607353 -1.4055927 -2.7127693 0.33662802
-0.18801475 -0.42310128 0.015315329 0.115781374 0.4295445 0.03956634 0.21476603 0.4045713
-0.49905545 0.39087117 0.38398057 -0.48025346 0.26658872 0.5972885 1.1973568 1.7159023
-1.6046107 0.058903515 0.74641675 -1.451615 0.17468561 0.44673225 -14.295532 -0.16999713
-1.4569138 1.1857401 -0.13414474 0.52456146 0.19634564 1.3336334 -1.5666163 -0.25873193
0.14122841 0.18689191 -0.4023981 0.47724196 0.47358015 -0.32605767 0.11904969 0.08112408
0.056006763 0.30562326 0.2443526 0.33423322 0.18378654 0.07959842 -0.5379358 -0.27729282
2.3879943 -2.5870528 0.016928356 -0.047433022 24.86458 -0.0948322 0.47976482 0.46187034
0.061244935 -0.041714825 -0.054091666 -0.20094228 0.050708506 0.16408959 0.18400845 0.1085996
-5.4281244 -0.03927046 0.11087894 0.23418123 0.03963523 -0.017434627 -3.5075629 0.05910757
00000000: fa64 9cbe 71ea 703d b919 87bf 3adc 303e
00000010: d767 cd3d 966b 34bf 769e a7be b699 953e
00000020: 2fa9 fcbd 4c19 d13e 24e2 d2bf 80e6 9dc0
00000030: 8207 693c a02d 0c3e 355f d03d c40d f93e
00000040: 9e80 ce3d a62a 42bf e9cd 923e 60b8 4f3e
00000050: bfc4 123f 9556 3ebe 242d c43f d397 ffbf
00000060: 9f03 d03e 369e 833f 8b24 b740 f737 08bf
00000070: 9cce 973e 16d1 9b3e a325 263d f55d 2b3e
00000080: 2258 67c0 5348 cc3f aedc 953f 0f91 57bf
00000090: adfe 38bd c221 1bbe 76b7 debf af99 23bd
000000a0: de8a 543d 164b 7941 7ce1 0940 b076 9dbf
000000b0: 4adf a2bc 61ea 083f a301 9c3e 9a93 e4bf
000000c0: 308d d83d 7d02 923f ff75 8a40 df57 ee3f
000000d0: ce53 c73d dd60 1bbf ffb9 ba3e 2c5f 7e3e
000000e0: e87f 083e 23c0 c4bd ec64 0a40 2c23 c8c0
000000f0: 4ced 913e 2519 cc3e 1ece 503e c7e7 0cbe
00000100: cd4d d0bf 3366 69be 3163 003e 6a04 d23e
00000110: 70fd 21be 76db cb3b 7334 da3d 072e 46c0
00000120: 89d5 cabf 6785 d3be 1b39 d240 59dd 1f3e
00000130: 73ba 4dbe 4d19 f93e 3166 03bf 7e23 c0bf
00000140: 8388 4e40 6f87 b03d 9be2 3d3f d6dd a9bf
00000150: a300 963e 7476 4e3e b412 b2bf 3a28 983f
00000160: f8f3 b13f 6ec1 0bbf 72ed b73d f872 e9bd
00000170: e9cb 32be 60d5 0abe 1040 92be 56e9 a43e
00000180: bd20 1640 fa67 0340 4ff2 6bbf 8818 f13d
00000190: f2d3 0a3e d48b 9dbf ab7e 4d3e 87e4 dc3f
000001a0: b271 0541 24f1 b5bd aefc 8bbd 0016 5ec0
000001b0: a447 c0bd 3d78 51be 77f6 86c0 6db8 f33c
000001c0: 1c8a 6e3d 1def e2be 987c a7bd 7105 0b3e
000001d0: ad56 bf3e e586 0840 53c5 103c fb87 113f
000001e0: 36fa a13e dd3e 923d c1b8 6bbf a295 c9bf
000001f0: 2689 95bf cf3d b83f 70ea 3bbf 22c8 5f3f
00000200: cb13 9040 4aeb 003e 0ac8 9dbd 8ee4 123d
00000210: b3b6 a0be baac 9e3e 0220 44be ee5a 7e3f
00000220: e7b9 153f 0218 1f40 c38a 52be 12bc c2bf
00000230: 2efc 5640 b04a 2f3c ed53 ce3b 186d 96c1
00000240: c7a2 13be 2b99 d03e dbe9 a341 103f 73bf
00000250: f147 9b3f 6ead 3841 b777 963f c915 3440
00000260: 4f60 3b3d 3aaa b53f 2d6f f83f b441 c23f
00000270: ab14 25bf f229 c2bf c5ab 2940 9722 a33e
00000280: bbd3 0c40 6105 e840 5ca6 3f3d c41d f8ba
00000290: d046 d23e c96b 543e 8de3 973f 5f4d cec0
000002a0: 4b14 15c0 8331 df3f 6b25 8bbf bcef 0c3e
000002b0: 333a 94bd d970 28c0 128b b7bd de67 68be
000002c0: b2fb 5ac0 52ff c23b e627 f1bd 2dce 6d3e
000002d0: 7c7b 1bbf 76ea b3bf 039e 2dc0 825a ac3e
000002e0: f086 40be bba0 d8be 25ed 7a3c c91e ed3d
000002f0: 42ed db3e 5110 223d a0eb 5b3e f823 cf3e
00000300: 3284 ffbe 4420 c83e 1a99 c43e c8e3 f5be
00000310: 517e 883e e6e7 183f fd42 993f b0a2 db3f
00000320: e263 cdbf d044 713d 2b15 3f3f 85ce b9bf
00000330: c9e0 323e 17ba e43e 80ba 64c1 ba13 2ebe
00000340: 277c babf 55c6 973f 3d5d 09be a949 063f
00000350: d50e 493e 80b4 aa3f e286 c8bf 8378 84be
00000360: 2e9e 103e 9860 3f3e 2007 cebe 0f59 f43e
00000370: 1979 f23e 08f1 a6be 53d0 f33d 6224 a63d
00000380: 5967 653d a77a 9c3e 9137 7a3e 9e20 ab3e
00000390: 8a32 3c3e 7f04 a33d 29b6 09bf 53f9 8dbe
000003a0: e6d4 1840 4692 25c0 56ad 8a3c 2149 42bd
000003b0: a9ea c641 6237 c2bd bca3 f53e 457a ec3e
000003c0: f8db 7a3d 2add 2abd 398f 5dbd d0c3 4dbe
000003d0: b9b3 4f3d 1a07 283e b66c 3c3e 7869 de3d
000003e0: 32b3 adc0 10da 20bd 7f14 e33d 34cd 6f3e
000003f0: 8d58 223d 10d3 8ebc e97b 60c0 c81a 723d

sequential.0.bias f4 [128]
-0.38716027 -0.44538003 -0.24434523 -0.11516309 -0.011769733 -0.41278088 -0.35162735 0.80923975
0.46150103 -0.3530084 -0.19557633 0.6935729 -0.3802226 0.087083936 -1.369576 -0.38084057
0.68234533 -0.13858502 -0.23252183 0.62616926 -0.51260275 -0.9392998 -0.25915492 -0.21729037
-0.5740291 -0.44905064 -1.0409384 -0.07212724 -0.22054866 0.22844286 -0.5560171 -0.420304
-0.21557793 -0.40763956 0.5161534 -0.404621 -0.3260544 -0.3089358 -0.29270253 -0.46718952
-0.26864263 -1.0476469 0.3697558 -0.15933698 -0.35664988 0.13968793 -1.3090129 -0.11101806
0.1378959 0.04812253 0.5506067 0.54912156 -1.3594207 0.5501045 -0.2290723 0.5111192
0.10993352 -0.38654435 -0.32360247 -0.15637287 -1.0537227 -0.51867515 -0.13972399 -0.48911622
-0.49589312 0.04770072 0.29152662 0.060806435 0.103235915 -0.9434539 0.025633818 -0.95251065
-0.10712184 -0.5375217 -0.13602833 -0.29911417 -0.39423403 0.6919657 0.06713701 -0.5487587
-0.14828484 -0.21651365 -0.3384964 -0.12028126 -0.37907267 -0.17580085 0.25977224 0.26557404
-0.25507602 -0.26676187 -0.3307006 -0.119646385 0.28217056 -1.3040665 0.102739 0.38788024
-0.7966719 -0.06859548 0.68679476 -1.2418178 -0.39119244 0.6228449 -0.32113802 -0.0012874671
-0.3396954 -1.0724795 0.2880941 -0.35531226 -0.39573622 -0.52996945 0.31083238 0.56945556
0.60211277 -0.18165988 -0.40769035 -0.55845314 -0.43545157 -0.055290833 0.03279114 0.50508416
-0.9108293 -1.271875 -0.34871054 -0.037300263 0.6141446 -0.5795572 0.03458735 -0.14450683
00000000: df39 c6be da08 e4be a335 7abe a0da ebbd
00000010: d7d5 40bc 0458 d3be 8008 b4be 562a 4f3f
00000020: dd49 ec3e 84bd b4be 2945 48be fe8d 313f
00000030: 89ac c2be 1059 b23d 444e afbf 89fd c2be
00000040: 2fae 2e3f 3be9 0dbe 341a 6ebe a14c 203f
00000050: ef39 03bf f475 70bf f4af 84be 5e81 5ebe
00000060: 92f3 12bf f7e9 e5be 783d 85bf 72b7 93bd
00000070: 82d7 61be edec 693e 2357 0ebf 1632 d7be
00000080: 76c0 5cbe 22b6 d0be a122 043f 7c2a cfbe
00000090: 9af0 a6be d52c 9ebe 1bdd 95be 7733 efbe
000000a0: 878b 89be 4b19 86bf a250 bd3e 3c29 23be
000000b0: d09a b6be 5a0a 0f3e bc8d a7bf 705d e3bd
000000c0: 9534 0d3e 211c 453d 90f4 0c3f 3b93 0c3f
000000d0: 7f01 aebf a6d3 0c3f ee91 6abe b5d8 023f
000000e0: d324 e13d 24e9 c5be 39af a5be 3620 20be
000000f0: 63e0 86bf e5c7 04bf ce13 0fbe 716d fabe
00000100: b4e5 fdbe d561 433d fa42 953e 2b10 793d
00000110: 5a6d d33d 3286 71bf 03fe d13c bdd7 73bf
00000120: b262 dbbd 069b 09bf 034b 0bbe 7e25 99be
00000130: 0bd9 c9be aa24 313f 217f 893d 737b 0cbf
00000140: fbd7 17be c1b5 5dbe 664f adbe 0556 f6bd
00000150: d015 c2be 2305 34be de00 853e 52f9 873e
00000160: 5399 82be 0395 88be 9751 a9be 2a09 f5bd
00000170: a978 903e a7eb a6bf d368 d23d 3d98 c63e
00000180: b1f2 4bbf c97b 8cbd c8d1 2f3f e3f3 9ebf
00000190: 604a c8be c372 1f3f 346c a4be 3ac0 a8ba
000001a0: 8eec adbe 0247 89bf 1281 933e 7deb b5be
000001b0: f09d cabe 14ac 07bf 6c25 9f3e d7c7 113f
000001c0: 1024 1a3f 0c05 3abe cabc d0be c9f6 0ebf
000001d0: 82f3 debe a478 62bd 0150 063d 324d 013f
000001e0: 1c2c 69bf cdcc a2bf 308a b2be 29c8 18bd
000001f0: 9538 1d3f dc5d 14bf 77ab 0d3d 99f9 13be

sequential.2.weight f4 [128, 128]
0.0023409636 0.08860403 0.082577296 -0.83527625 0.071143836 0.114368506 0.010574391 -0.09167074
-0.19504398 -0.0195605 0.84132934 -0.22745544 1.0386435 -0.96289974 1.2915146 -0.030119138
-0.61457574 0.27461228 0.056465458 0.83606315 -0.05539771 -0.702633 0.0508937 0.89485705
-0.30699322 0.042987846 -0.9633754 0.07505311 0.1427245 0.8667823 0.09461357 0.067218
0.7318265 -0.05019188 0.5781662 0.79476076 1.560767 -0.04052578 -0.0044007734 -0.20696072
-0.21028462 3.9200616 0.08115968 -0.064001836 0.042705618 0.062989965 0.2231546 4.3589096
0.99349415 -1.8839058 1.3404839 0.72117114 -0.7177072 1.1832904 -0.032600693 0.6987141
1.4249135 0.86584663 1.3602531 0.112271965 -0.42791232 0.046841353 -0.07562414 -0.04199732
0.08788636 0.37134948 0.7988174 -0.09594178 -0.45860562 -0.73350364 -0.047281668 1.4164821
0.0143079655 0.0361547 -0.06879177 -0.03164496 0.19936419 0.6514837 -0.4984922 0.04962999
-0.041320708 0.007084453 0.15087876 0.07783056 1.2493438 -0.057040084 -2.3848472 1.0301708
0.7184766 0.85445666 0.9843465 -0.33701402 -0.20585188 1.2024871 0.13303496 -1.1033545
-0.39911833 0.02618559 0.09240277 -0.5918831 0.42318413 0.45901087 0.024818309 0.015482804
1.00616 -0.14468835 -0.08830978 -0.0496406 1.2009913 0.02061173 1.6961575 1.4971145
1.3494229 -0.010146521 0.010699462 -0.20777658 1.3490512 -0.80639845 -0.100004785 -0.052429657
-0.49909267 0.696768 0.056552254 0.051091757 0.56181705 0.016767856 -0.061735865 -0.5400952
0.006730599 0.0113551235 0.03411592 -0.07836301 -0.058302518 0.046191055 -0.08385552 -0.16381413
-0.25326356 0.08675448 0.06665037 -0.23901138 -0.0829475 0.033226326 -0.99628544 -0.061086792
-0.13962719 -0.015635202 0.0658254 0.025307992 -0.08456676 -0.77886045 0.024662191 0.10086058
-0.3241247 -0.01515647 -1.0376853 -0.0724776 -0.04244418 -0.23227538 -0.056542624 0.043159805
-0.5976113 0.027302232 -0.09704037 -0.07403319 -0.020891447 -0.0023135417 -0.07778413 0.020401323
-0.09565687 1.8599052 -0.19534318 0.042895332 0.05842536 -0.16595636 -0.7807973 -0.06963217
-0.21775348 -0.14101416 -0.09522943 -0.027966311 -0.44530296 0.020407766 0.0137795005 0.22799534
-0.12120917 -0.080056 0.034968752 -0.020758804 -0.77872634 -0.0438432 0.06134362 0.013627235
0.03813809 -0.16134161 -0.19380149 -0.13106446 -0.11013741 -0.87622684 -0.07988258 1.051903
-0.060529325 0.06028709 0.024557998 0.029443787 0.068314455 -0.037482727 -0.19463284 0.02787682
0.0012858956 -0.060350165 -0.022648646 0.02113658 -0.109912954 -0.024017219 -0.044656646 -0.2001613
-0.109505795 -0.11795526 0.030080805 -0.12485132 -0.16480969 -2.3331037 0.2108264 -0.12386292
-0.3413877 -0.11651088 -0.051848825 -0.3147827 -0.101643935 -0.059090987 -0.07556269 0.041172598
0.021655474 -1.8798636 -0.14249991 0.018748878 -0.064969964 -0.003687917 -0.75244033 -0.26689792
-0.11469312 -0.0029802048 0.03718767 -0.25273457 0.0014811447 -0.0787791 0.017671278 -0.16880313
-0.42315954 -0.8096765 0.008488874 0.015861344 0.013818085 -0.17426626 -0.15377471 0.0075167185
00000000: da6a 193b 0876 b53d 491e a93d aad4 55bf
00000010: dcb3 913d 093a ea3d 3640 2d3c debd bbbd
00000020: 9cb9 47be 573d a0bc 5c61 573f 14ea 68be
00000030: 45f2 843f 9980 76bf 5a50 a53f 69bc f6bc
00000040: d654 1dbf fb99 8c3e 5348 673d 3c08 563f
00000050: b6e8 62bd c2df 33bf ea75 503d 5a15 653f
00000060: 372e 9dbe 0614 303d c59f 76bf 72b5 993d
00000070: 5f26 123e 72e5 5d3f c2c4 c13d 97a9 893d
00000080: fb58 3b3f 0096 4dbd b302 143f 7175 4b3f
00000090: 37c7 c73f 5cfe 25bd 5d34 90bb 83ed 53be
000000a0: da54 57be 4ae2 7a40 0c37 a63d 6513 83bd
000000b0: 16ec 2e3d e200 813d a482 643e 307c 8b40
000000c0: a255 7e3f d323 f1bf fa94 ab3f ac9e 383f
000000d0: a9bb 37bf 0f76 973f 4e88 05bd edde 323f
000000e0: 9163 b63f 20a8 5d3f c61c ae3f d8ee e53d
000000f0: 5317 dbbe b8dc 3f3d d4e0 9abd 6205 2cbd
00000100: c4fd b33d 8521 be3e 4c7f 4c3f 207d c4bd
00000110: 5bce eabe e5c6 3bbf 6caa 41bd 494f b53f
00000120: f56b 6a3c f316 143d b3e2 8cbd 259e 01bd
00000130: 2026 4c3e a3c7 263f 5f3a ffbe d148 4b3d
00000140: e73f 29bd b324 e83b f67f 1a3e a165 9f3d
00000150: 7fea 9f3f dda2 69bd 56a1 18c0 a3dc 833f
00000160: 15ee 373f acbd 5a3f 22fe 7b3f 1a8d acbe
00000170: d6ca 52be 19eb 993f 513a 083e b83a 8dbf
00000180: 3d59 ccbe 2a83 d63c aa3d bd3d a785 17bf
00000190: 97ab d83e 7903 eb3e c44f cb3c 96ab 7d3c
000001a0: dac9 803f 2f29 14be c2db b4bd f153 4bbd
000001b0: 15ba 993f eed9 a83c b01b d93f 73a1 bf3f
000001c0: e4b9 ac3f 983d 26bc cc4c 2f3c 62c3 54be
000001d0: b6ad ac3f 2170 4ebf 4fcf ccbd 7bc0 56bd
000001e0: 1389 ffbe 635f 323f 56a3 673d 9745 513d
000001f0: 3ed3 0f3f be5c 893c bfde 7cbd ae43 0abf
00000200: 5b8c dc3b d70a 3a3c 23bd 0b3d c97c a0bd
00000210: 9fce 6ebd d532 3d3d 71bc abbd e4be 27be
00000220: c3ab 81be 55ac b13d fd7f 883d 66bf 74be
00000230: 61e0 a9bd 5418 083d 900c 7fbf 2536 7abd
00000240: 6efa 0ebe 6515 80bc 78cf 863d b552 cf3c
00000250: 5631 adbd 6663 47bf 5d08 ca3c fe8f ce3d
00000260: acf3 a5be d852 78bc dfd2 84bf 236f 94bd
00000270: f3d9 2dbd 99d9 6dbe 3d99 67bd 56c8 303d
00000280: 0efd 18bf eea8 df3c 1abd c6bd b79e 97bd
00000290: 8a24 abbc ca9e 17bb 494d 9fbd ad20 a73c
000002a0: c0e7 c3bd 6011 ee3f 0b08 48be 04b3 2f3d
000002b0: 6e4f 6f3d 77f0 29be 55e2 47bf 509b 8ebd
000002c0: c5fa 5ebe 0466 10be a607 c3bd 9b19 e5bc
000002d0: c0fe e3be 302e a73c 6ac3 613c 9c77 693e
000002e0: 833c f8bd 66f4 a3bd 653b 0f3d 5e0e aabc
000002f0: 9c5a 47bf ed94 33bd 7343 7b3d c444 5f3c
00000300: b036 1c3d bc36 25be e673 46be c335 06be
00000310: b98f e1bd 6750 60bf 7a99 a3bd c2a4 863f
00000320: 99ed 77bd 98ef 763d db2d c93c 1934 f13c
00000330: 73e8 8b3d 7d87 19bd d54d 47be ee5d e43c
00000340: 7f8b a83a bc31 77bd a789 b9bc 9f26 ad3c
00000350: 0b1a e1bd c2bf c4bc e3e9 36bd 15f7 4cbe
00000360: 9344 e0bd 8792 f1bd 056c f63c 0db2 ffbd
00000370: dfc3 28be 9251 15c0 e0e2 573e d8ab fdbd
00000380: 5eca aebe 429d eebd 6f5f 54bd 332b a1be
00000390: b22a d0bd 6409 72bd 9dc0 9abd 99a4 283d
000003a0: d266 b13c 5f9f f0bf 7feb 11be 3f97 993c
000003b0: f90e 85bd fbb0 71bb ee9f 40bf d8a6 88be
000003c0: 3ae4 eabd 8a4f 43bb 1952 183d 6d66 81be
000003d0: f822 c23a f056 a1bd 5bc3 903c bada 2cbe
000003e0: 5ea8 d8be f646 4fbf eb14 0b3c a6ef 813c
000003f0: 4065 623c db72 32be 1e77 1dbe ce4e f63b

sequential.2.bias f4 [128]
-0.94966364 -0.0450746 -0.04232338 0.39794442 -1.5381364 -1.1701616 0.36313993 -0.25299558
-0.039587393 -0.9444103 -1.1039028 -1.632575 0.02698184 -0.021738783 -0.92880976 -0.07312841
-0.5986578 -0.08152951 0.24920498 -0.064687185 0.117077924 -0.116852835 -0.5203656 -0.006021304
-0.062405657 -0.5681238 0.004899826 0.18314981 -0.8181849 -0.020859469 0.47856292 0.06358911
-1.0041958 -0.014391616 0.0134553695 -0.97251695 0.15245172 0.37963173 0.018629698 -0.4000358
0.20032555 -0.75171304 -0.02228941 -1.1446004 -0.08074861 -0.022106033 -0.07413068 -0.32079974
-2.1260812 -0.513839 0.008902232 -0.057347495 -0.05643569 -0.2806467 -0.03042531 -0.010700124
-0.6995978 -1.7213163 -0.0049391068 -0.4012183 -0.073584 -0.3745451 -0.99002427 -0.033780936
-0.06511985 -0.27294183 -1.4472493 -1.3315598 0.02044443 -1.0814903 -0.38418502 -0.0004290453
-0.6449467 -0.060443264 -0.02270458 -0.12507808 -0.048670046 -0.75653315 -0.14564702 -0.09281829
-1.234604 -1.0396308 -0.72073984 -0.44116372 -1.5111911 -0.8930527 -0.09885644 -0.067724
-0.07635757 -0.09970108 -0.038621113 -0.054085813 -0.7667437 -1.5699335 -1.1613402 -0.1022085
-0.04364318 0.25845253 -0.0012402383 -0.87052685 -0.10940363 -0.07858027 -0.05861957 -0.08354844
-0.053097226 -0.5234884 -0.52473515 0.3426305 -0.15350184 -0.9786913 -0.29164395 -0.12701738
-0.10555472 -0.088133715 -0.8581107 -0.11183215 -0.82785934 -1.2523394 0.27673772 -0.31853464
-1.1389561 -0.018050166 0.060771964 -0.055286665 0.0442592 -0.08724352 -0.008902971 -0.9257367
00000000: 281d 73bf 25a0 38bd 485b 2dbd 5fbf cb3e
00000010: a7e1 c4bf dbc7 95bf 7aed b93e a388 81be
00000020: 6426 22bd e0c4 71bf b04c 8dbf 38f8 d0bf
00000030: 0509 dd3c 8815 b2bc 7ac6 6dbf 59c4 95bd
00000040: a341 19bf f2f8 a6bd 972f 7f3e b77a 84bd
00000050: 8dc6 ef3d 8a50 efbd ae36 05bf 5c4e c5bb
00000060: 139d 7fbd 9070 11bf b88e a03b a08b 3b3e
00000070: 9174 51bf 7ae1 aabc 3306 f53e 023b 823d
00000080: 7d89 80bf d0ca 6bbc e973 5c3c dff6 78bf
00000090: 4e1c 1c3e 175f c23e 4f9d 983c 7ed1 ccbe
000000a0: 2422 4d3e 4470 40bf 4898 b6bc 4482 92bf
000000b0: 875f a5bd b617 b5bc d3d1 97bd dd3f a4be
000000c0: b711 08c0 f48a 03bf abda 113c 35e5 6abd
000000d0: 1c29 67bd edb0 8fbe 803e f9bc 934f 2fbc
000000e0: d718 33bf 1854 dcbf 3bd8 a1bb 7c6c cdbe
000000f0: 35b3 96bd 60c4 bfbe 3b72 7dbf e15d 0abd
00000100: 8e5d 85bd 08bf 8bbe 773f b9bf 8d70 aabf
00000110: 147b a73c 466e 8abf e6b3 c4be 7cf1 e0b9
00000120: 3a1b 25bf 5b93 77bd f5fe b9bc 7814 00be
00000130: 3e5a 47bd 28ac 41bf 7e24 15be 8417 bebd
00000140: 8107 9ebf 9f12 85bf 6882 38bf 36e0 e1be
00000150: b66e c1bf 1a9f 64bf 3f75 cabd e1b2 8abd
00000160: 5c61 9cbd 1430 ccbd 2c31 1ebd 1689 5dbd
00000170: 5149 44bf 95f3 c8bf cca6 94bf b152 d1bd
00000180: 31c3 32bd e453 843e 7e8f a2ba d9da 5ebf
00000190: 030f e0bd b1ee a0bd 131b 70bd 721b abbd
000001a0: 7a7c 59bd 5603 06bf 0b55 06bf 446d af3e
000001b0: 962f 1dbe 838b 7abf 5b52 95be d810 02be
000001c0: 132d d8bd 737f b4bd 25ad 5bbf 4108 e5bd
000001d0: 97ee 53bf a84c a0bf 91b0 8d3e f916 a3be
000001e0: 50c9 91bf f1dd 93bc 06ec 783d 4574 62bd
000001f0: 2349 353d bbac b2bd c4dd 11bc 15fd 6cbf

sequential.4.weight f4 [1, 128]
0.04543911 -0.004780817 -0.04160109 -1.3573183 1.460369 -1.4261422 -1.3805268 -0.28732166
0.042045023 -1.0399592 -1.7576889 3.6191046 -0.85202974 0.00878054 0.5767223 -0.038175937
-2.1155233 0.0011717139 -1.1538019 0.022921603 -1.3850068 -0.013451222 -0.46867874 0.0003720856
-0.0032240425 1.4903984 0.036128044 0.7829637 -2.1741621 -0.017985925 -0.55364954 0.940525
0.4161113 1.1118821 0.007983656 0.80005866 -0.7244145 -0.7713002 0.00028645515 1.2454842
0.5275074 0.78147995 -0.019045476 2.642047 0.06703449 -0.01384729 -0.018461108 -0.025922468
0.8308732 -0.27684638 0.035802413 0.0077884933 -0.03844795 0.6473648 -0.04022981 0.5531162
0.43756658 5.373826 -0.031378977 0.007057119 -0.0019128751 -1.4219587 -1.4005966 -0.0022194772
0.0023031388 -1.5735892 1.0440677 0.5677117 0.013319049 0.720698 1.3199037 -0.028796539
-0.8562304 -2.0854275 -0.011355633 -0.014050545 -0.053064108 3.6138718 -0.012269018 0.047883425
0.9795619 -0.87457466 1.9849722 -2.3867235 2.4293838 -0.031510014 0.07198791 -0.010128197
-0.019854737 -0.04901095 -0.029057883 0.002521317 1.2125137 1.328486 4.418797 0.02434235
0.04856895 1.1165011 0.020650402 1.3585056 0.018327218 0.021941366 -0.08211788 -0.0077437917
-1.4260852e-05 -0.28047293 -1.7616656 0.6911335 -0.0031064115 0.35967895 0.7541298 -0.043084204
-0.047914106 -0.04964314 1.099278 -0.072428495 1.154238 0.10504894 -0.74925286 -0.5387212
3.0942535 -0.00024637033 2.4763994 0.052225772 -0.6312741 -0.013518664 0.003528195 1.0327636
00000000: 5c1e 3a3d 66a8 9cbb e865 2abd 9bbc adbf
00000010: 5fed ba3f d48b b6bf 1ab5 b0bf d31b 93be
00000020: 6737 2c3d 621d 85bf f3fb e0bf 699f 6740
00000030: 9f1e 5abf 41dc 0f3c 13a4 133f 5f5e 1cbd
00000040: bc64 07c0 3294 993a c8af 93bf 16c6 bb3c
00000050: e747 b1bf 8462 5cbc a9f6 efbe 7c14 c339
00000060: 754a 53bb 60c5 be3f 00fb 133d 4f70 483f
00000070: 7925 0bc0 3857 93bc fabb 0dbf 3fc6 703f
00000080: 8a0c d53e 2752 8e3f e1cd 023c a5d0 4c3f
00000090: 3b73 39bf ee73 45bf 5c2f 9639 076c 9f3f
000000a0: ba0a 073f 120f 483f 4205 9cbc 4c17 2940
000000b0: 6149 893d bedf 62bc c03b 97bc 5b5b d4bc
000000c0: 1bb4 543f cfbe 8dbe 8da5 123d 9e36 ff3b
000000d0: 997b 1dbd b3b9 253f 03c8 24bd 0699 0d3f
000000e0: ba08 e03e 62f6 ab40 3e87 00bd 683f e73b
000000f0: 70b9 faba be02 b6bf c046 b3bf a674 11bb
00000100: 42f0 163b 5f6b c9bf 03a4 853f 8e55 113f
00000110: 2438 5a3c aa7f 383f 9bf2 a83f b8e6 ebbc
00000120: ea31 5bbf a577 05c0 fa0c 3abc 4234 66bc
00000130: c059 59bd ad49 6740 fe03 49bc 6921 443d
00000140: 92c4 7a3f 20e4 5fbf 9213 fe3f 14c0 18c0
00000150: 067b 1b40 a510 01bd 666e 933d bdf0 25bc
00000160: 67a6 a2bc b5bf 48bd cc0a eebc ae3c 253b
00000170: a633 9b3f d40b aa3f c966 8d40 9c69 c73c
00000180: 3cf0 463d 82e9 8e3f 082b a93c 83e3 ad3f
00000190: f622 963c 61be b33c 6b2d a8bd a2bf fdbb
000001a0: e541 6fb7 269a 8fbe 427e e1bf 20ee 303f
000001b0: f094 4bbb d727 b83e a70e 413f 1079 30bd
000001c0: 9541 44bd 9b56 4bbd 24b5 8c3f 6455 94bd
000001d0: 12be 933f e623 d73d 09cf 3fbf a2e9 09bf
000001e0: 4008 4640 442b 81b9 547d 1e40 b1ea 553d
000001f0: 2e9b 21bf 637d 5dbc 4a39 673b 9931 843f
